results/baseline_lstm_task5_seed42/model_lstm_ntask5_nchar3_seed42.pt (torch, 20863 bytes, 21 tensors)

embedding.weight f4 [3, 10]
00000000: eef2 6a40 75f2 f540 a238 8040 e7e6 c8c0
00000010: 30cd d340 213b 3f40 edef b040 8c44 83c0
00000020: ec1a 0fc0 09af ab40 ab94 66c0 ab52 3dc0
00000030: 9db9 5bbe 7ea1 e03f 0d5c 5cc0 199a b13f
00000040: 661a 7dc0 13a1 58c0 25e4 693f dcca 60c0
00000050: e1ce 1940 7db2 3b40 9300 0d40 6001 9140
00000060: d7dc b2bf 425b 2d40 ff9e 17be 0234 9740
00000070: 5673 923f 7e28 5e40
3.6710773 7.685847 4.006913 -6.2781863 6.6187973 2.987984 5.529288 -4.1021175
-2.2360182 5.3651166 -3.602824 -2.9581707 -0.21457525 1.7549284 -3.4431183 1.3875152
-3.9547362 -3.3848312 0.91363746 -3.5123816 2.403252 2.932769 2.20316 4.531418
-1.3973645 2.708695 -0.14806746 4.7250986 1.1441448 3.4712214

lstm.weight_ih_l0 f4 [40, 10]
00000000: c86d 4840 3415 8f40 8aa4 333f 66ca a3c0
00000010: d51d 0941 648d e3bf df0f 0b41 3c7e 653f
00000020: 1874 793f fbc7 ce40 667e efbe d0f8 3f40
00000030: fc29 cb3f 3d0f c5bf e6b5 2040 65f8 52c0
00000040: 80e8 4c40 b3b6 52bf 0871 6ec0 79fa 8bbf
00000050: c57e 2040 2d15 2640 afa8 9fbf 0618 55bf
00000060: 3c8d d43e ed2e b2bf b08f 333f 82eb ee3f
00000070: 3556 b63f d7df 1940 5636 35be b318 53c0
00000080: 9c28 3dc0 c6f7 0840 7416 32c0 e057 f13f
00000090: 85b2 b0c0 cb7b a13f c8ef 0440 151b 773e
000000a0: 4d6e 3bc0 9717 aebf 53a1 173e b156 c63f
000000b0: e1c1 29bf 1761 b73f 171d 36c0 e6e8 53c0
000000c0: 2eb4 66c0 bf5b 0cc0 40c9 773f 4521 8340
000000d0: a275 b5bf d8ee 12c0 1ec3 3240 2b96 14c0
000000e0: 6204 2b40 2a9d 923e 0ec3 dd3f ec1a ea3f
000000f0: 394f 6540 afa6 7440 bc00 9a3f d319 663e
00000100: 9adc 1740 6210 fcbe 9e6d 0d40 6113 b540
00000110: 3d7c 663f abab 8440 0fc7 1740 f5e7 2ac0
00000120: a1f7 0d40 cfe3 2340 711d 92bf 3d75 a63e
00000130: 016f 023f 5522 2440 5c94 9dc0 fdd6 683f
00000140: 2dfa 21bf f102 f0bf a68b cfbf 06bd 983e
00000150: 4901 6bbe d1af 693e 9aca d6bf 194b 46bf
00000160: d3e3 4dbf acd7 03c0 17e1 35bf 9d2e 0ec0
00000170: d2b0 41c0 b9b2 e43f b7bb d1bf 4bc6 e73f
00000180: c0f9 98c0 f44d 183f f82b fd3f 4a74 b6bf
00000190: f307 ed3f 6ad9 cc3f 4d01 9bbc f0f1 b53e
000001a0: b799 863e 9774 55be 82a3 0040 7097 0440
000001b0: 2596 ae3f 7332 e63f 6fe7 d83e 0d60 13c0
000001c0: fe2e 8bc0 620e ba40 63a4 b1c0 581b a440
000001d0: 264c f6bf 5269 5240 2b18 8940 1628 8d3c
000001e0: 823c 3b40 6c91 4e40 7fd2 6f40 fcd2 02c0
000001f0: 0b42 1b40 12e1 1cc0 0236 5f40 eba7 65bf
00000200: 7f42 22c0 8c41 8c40 a676 3fbe e12a 63bf
00000210: 909e 1ebf a750 6f3f 0324 17bf b0a6 0f3e
00000220: 7e65 89bf a08a 1f3e 44af 9c3e a9d0 b4bf
00000230: 87e9 45c0 2d83 e1bf 21c8 3340 cc8f 9a3f
00000240: f267 6ebf c393 813f f70c cabf 6f06 5ec0
00000250: 69ea 7cc0 9e09 56c0 e9ef 0b40 ad8d 2040
00000260: 0c76 06c0 c078 15c0 77f5 3f40 c09e 39c0
00000270: 9b9f 0940 d439 ea3f 7384 b03f dfc4 953f
00000280: aece d73e 4e17 e7bf 3138 db3f 8c18 3140
00000290: ad9a 06c0 fecd 3940 38f8 8bbf c1f7 1c3f
000002a0: 59a6 96bc f3fb 153f a336 88be 9c02 d6bf
000002b0: e0dc aebe c890 d43f 0675 32c0 6ebe d23f
000002c0: b49c 103d 03f8 183f 7363 543f 067f 31bf
000002d0: 522d 8abf 8cd8 1fc0 4d28 8ebf 0aeb 003f
000002e0: 544c 08c0 12a5 c73e 052d b2bf 8042 82bf
000002f0: 9ea6 0a3e f463 37c0 4c4d b33f 6d19 5c40
00000300: dea7 5040 679c 643f 23c8 ab3f eaba 433f
00000310: 28ee 2940 3b52 f83e d82c b8bf fa99 c23f
00000320: 622d 28c0 52a5 7bc0 11fd 3ec0 c8fd 1fbf
00000330: aed8 c3bf 2ca6 05be d70e adbf c855 38c0
00000340: cd8d 52bf f95a 99c0 096f afbd 2a64 febf
00000350: 6942 bcbe 058a 4c40 e833 5dc0 9e60 1d40
00000360: a937 24bf fd6a be3f 4d76 813f 60f0 00bf
00000370: 77b7 e0be e940 8abf 7d22 a4bf d300 9d40
00000380: d8c2 99c0 0a5b a240 b443 cbbf 0690 b83e
00000390: e438 58be 6fb6 0fbf a996 2dc0 83c3 3dc0
000003a0: b189 05c0 ba71 003f 7479 f4bf da19 6a3f
000003b0: 87f4 3fc0 044b d4bd 24f4 d53f 4d4c 60c0
000003c0: 83ef 19c0 eff2 3ec0 afce 8d3f e7f2 a83f
000003d0: 7a9f c1bf 4200 813f 681f 4cc0 ecc9 04c0
000003e0: 41ef dbbf ee9e 13c0 4eb5 253f 53ec e7bd
000003f0: d31d c0bf ea64 fd3f ca08 b4bf 38ed 743f
3.1317005 4.4713383 0.7017294 -5.118457 8.569783 -1.7777524 8.691375 0.89645743
0.9744277 6.4619117 -0.46776122 2.9995613 1.5872188 -1.5395275 2.5111022 -3.2964108
3.2016907 -0.82310027 -3.7256489 -1.0935813 2.5077374 2.5950425 -1.2473353 -0.8323978
0.41514003 -1.3920571 0.70141125 1.8665621 1.4245058 2.404287 -0.17696509 -3.2983825
-2.9556036 2.140123 -2.7826204 1.8854942 -5.521792 1.2615904 2.077135 0.24131425
-2.9286072 -1.3600949 0.14807634 1.5495206 -0.6631146 1.4326504 -2.8455255 -3.31109
-3.6047473 -2.1930997 0.9679146 4.097811 -1.4176524 -2.2958279 2.793159 -2.3216655
2.6721425 0.28635532 1.7325151 1.8289466 3.5829604 3.8226736 1.2031474 0.22470789
2.3728395 -0.4923125 2.2098155 5.6586156 0.9003332 4.1459556 2.3715246 -2.6704075
2.218239 2.5607793 -1.1415235 0.3251132 0.5095063 2.5645955 -4.9243603 0.90953046
-0.6327236 -1.8750898 -1.6214492 0.29831713 -0.22949709 0.22820975 -1.6780579 -0.7745834
-0.8042576 -2.0600386 -0.71046585 -2.221595 -3.0264173 1.7867042 -1.6385411 1.8107389
-4.780487 0.5949395 1.9779043 -1.4254239 1.8518051 1.600385 -0.018921519 0.35536146
0.2628915 -0.20845257 2.0099797 2.071743 1.363957 1.7984146 0.4236407 -2.3027375
-4.3494864 5.8142557 -5.5513167 5.128338 -1.9241989 3.2876782 4.2842 0.017231029
2.925568 3.2276258 3.7472227 -2.0441275 2.425906 -2.4512372 3.4876714 -0.8970935
-2.5353086 4.3830013 -0.18697605 -0.88737303 -0.619607 0.9348244 -0.59039325 0.1402843
-1.0734098 0.15580225 0.30602467 -1.4126178 -3.0923784 -1.7618157 2.80909 1.2075133
-0.9312736 1.0123218 -1.5785207 -3.4691427 -3.9518073 -3.344337 2.186518 2.5086472
-2.100955 -2.335495 2.999357 -2.9003143 2.1503665 1.8298898 1.379042 1.1700705
0.42149872 -1.8053987 1.7126523 2.7671232 -2.1031907 2.9031978 -1.0935125 0.6131554
-0.018389868 0.5858757 -0.26604185 -1.6719546 -0.3415289 1.6606684 -2.7883925 1.6464365
0.035305694 0.59753436 0.8296425 -0.6933445 -1.0795081 -2.497592 -1.1106049 0.5035864
-2.1296587 0.38993126 -1.3919989 -1.0176544 0.13540122 -2.8654757 1.4007964 3.4390519
3.2602458 0.8930115 1.3420452 0.76457083 2.655161 0.48500237 -1.4388685 1.520324
-2.62777 -3.9319654 -2.984196 -0.62496614 -1.53005 -0.13051671 -1.3520154 -2.8802357
-0.8224762 -4.792355 -0.085661 -1.9874318 -0.36769417 3.195924 -3.456293 2.459022
-0.6414743 1.48764 1.0114228 -0.50366783 -0.43889973 -1.0801059 -1.2823025 4.9063506
-4.8050346 5.073613 -1.5880036 0.3604738 -0.21115452 -0.56137747 -2.7123206 -2.965058
-2.086529 0.5017353 -1.9099565 0.91445696 -2.9992998 -0.103658706 1.6715131 -3.504657
-2.4052436 -2.9835775 1.10787 1.3199128 -1.5126793 1.0078204 -3.189417 -2.0748243
-1.718239 -2.3065753 0.64729774 -0.11324372 -1.5009102 1.9796422 -1.4065182 0.9567447

lstm.weight_hh_l0 f4 [40, 10]
00000000: 2d58 46bd cec3 23bc 528f 0340 cb11 53bf
00000010: 9723 4fbf ff1e d43f 6b2b c2bf 4b50 973f
00000020: fa34 943d cadc 09bf 8c1f eebe d8a6 d33f
00000030: 0cc6 133e 46c5 88bc b0cd 1440 7e73 a9bf
00000040: 8d0e 07bf 4300 84be b38e d83f eea4 fa3e
00000050: a90b 99c0 6eb5 e23f 2e84 b5bf f84d 80c0
00000060: adf9 68bf e020 13c0 7c5a b440 8ce1 2ac0
00000070: 36ba a1bf 934e 4bc0 6390 f2bf afba 463f
00000080: dce9 46bf 81e0 bf3f 6b1b 663f 21be 7cc0
00000090: ba1d e93f b18a d83e 0608 983f 4b45 403f
000000a0: 1374 5840 9847 7ebe 0d59 49c0 b401 c83f
000000b0: 2055 5040 83f5 c53f b5ab 4bc0 a12f 863c
000000c0: 315e 8f3f 66e9 5240 2cfb 9bbf cc92 87be
000000d0: 5e0f 8f3f 2ce3 ca3e c1fa 25bf 509c 30c0
000000e0: f2fd 5840 fee3 88bf ca57 813f fba5 d4bf
000000f0: f619 44c0 1bb1 9d3d c323 1b40 aa36 6dc0
00000100: b915 233f a924 01c0 a09e b940 c3e0 59c0
00000110: ca73 50bd e926 97c0 1a8d d440 089b 3440
00000120: 13cc c6bc c24d d0be 825e 2e3e 1023 ac40
00000130: aa40 b8c0 31af 0040 fffa c73d 7fb6 513d
00000140: 4e04 3b3f dbcc cf3e 7ed4 bdbe 4d2b b53f
00000150: 93f7 873f e9e2 30bf cfb9 71bf 38d0 c5bc
00000160: d0d1 ac3f 81b8 813f 97b0 d8be afc1 a9c0
00000170: 8b06 c0be d537 3f40 a375 8bbe 6da2 90be
00000180: b382 9140 7d83 7e40 d639 7e3d 12e9 e3bf
00000190: 6c84 34bf 40cb d0bf 1e2d b73f 8178 c4bd
000001a0: 1df4 92be 6772 56bd 150d 353b 9110 47bf
000001b0: 085f d7be f349 6ebe 4892 b63f 0e8a 493f
000001c0: 8064 d4bd 49db ee3d e50f b1bf 0b6d 913e
000001d0: a4c7 48c0 ae94 233f 2235 993e a508 0e3f
000001e0: 9efe 1f3e ad06 853f 5b5e 7d40 94f8 61c0
000001f0: 3719 d2bf 0872 ed3f f392 0ac0 0d38 02c0
00000200: 7a51 95bf 89a2 11bf 7931 873f 42de 943f
00000210: a1d6 9a3e cfc9 0240 def6 b03d 8580 02be
00000220: b1b3 7cbf 7ec2 a63f 7511 4ebe f116 373e
00000230: 21c7 3840 979a 75be 4b07 41c0 b2fd 7a3f
00000240: 1ef8 2440 2c50 e83f 54fe 59c0 fbc1 f93d
00000250: 98c1 ea3e ede0 1840 7e43 12c0 4abe 65bc
00000260: 4742 c63f a5ea 213f 0df8 aabf 7841 37c0
00000270: a192 733f 128b 493d c86d 583e c1a9 09c0
00000280: 080e c33e 1e8f 4abf 8b5b cb3e 88c5 273f
00000290: a9bf f8bf 588e 673f 3145 a4bf e7cb debd
000002a0: 9b0c 4ebf fb29 b23e 1543 10bf c565 fb3e
000002b0: 871a 423f c189 7c3f 83ac 66bf 2d10 303f
000002c0: 643d cfbf 401e e13f acc2 07bf e98c 6abf
000002d0: afaf c4be 6f68 60bf 5b9e 3ebe 2e16 b93f
000002e0: 3920 a03e dff0 adbc e1b7 0dbf 65c1 8f3f
000002f0: 138a 3abd 3931 b6bd 9c2c 7cbf 50e1 6dba
00000300: ae5c a4bf 4391 4abf 49a5 febe c435 4b3c
00000310: d278 263f cf9f 99bf 0727 21bf 5a6b 89bf
00000320: 5945 49bf e81c 0240 c3ad afbf 3849 45be
00000330: 382a 06bf 1035 abbe 8fea 913f 0a53 acbe
00000340: cd1c c0be 5c17 823f dd70 953b 91bf 22bf
00000350: fc95 343f e0c8 033e 46cf b33d 9856 683f
00000360: 9d26 81bf 192c 653f 71fe 2d3e fe93 0b3f
00000370: 00cf 2f3f 6510 bbbf fd5c 583f c6f4 c93f
00000380: 5c78 b13f 9588 e63f 0149 b63f cf64 f33f
00000390: 7c70 383e 8ea2 df3f 879c 12c0 bfed cbbf
000003a0: 1984 de3e 99c7 b0bd c62b b0be a37d d9bf
000003b0: 98fd 0f40 8ff4 0540 c3ef 78be 917f d73e
000003c0: 342f a3be 240e 383f 0eb6 923e 5502 783e
000003d0: b084 80bd 5619 88be 1a62 8bbd b815 633f
000003e0: e208 ac3d 8f88 94be 52aa 8b3e 8728 a6be
000003f0: 6405 08bf fc50 b83f ffe8 173e adc4 e9bd
-0.048423935 -0.009995414 2.0556226 -0.82449025 -0.8091368 1.6571959 -1.51695 1.1821378
0.07236667 -0.5385252 -0.46508443 1.6535292 0.14431018 -0.01669563 2.3250542 -1.323837
-0.5275658 -0.2578145 1.6918548 0.48953956 -4.7826734 1.7711618 -1.4180963 -4.0095177
-0.91005975 -2.2988815 5.6360455 -2.6700163 -1.2634952 -3.1766708 -1.8950313 0.77628607
-0.7770059 1.4990388 0.89885587 -3.9491045 1.8212197 0.42293313 1.1877449 0.7510573
3.3820846 -0.24831998 -3.1460602 1.562552 3.2551956 1.5465549 -3.1823552 0.016380133
1.120062 3.2954955 -1.2186027 -0.26479185 1.1176565 0.39626443 -0.64835745 -2.7595406
3.3904996 -1.0694578 1.0104916 -1.6613153 -3.0640845 0.07699796 2.4240577 -3.7064614
0.6370502 -2.0178626 5.8006134 -3.4043434 -0.050891675 -4.7235 6.6422243 2.8219624
-0.024267232 -0.40684325 0.1702824 5.37928 -5.7578936 2.0106928 0.097646706 0.051199432
0.73053443 0.4058598 -0.3707618 1.4153839 1.0622429 -0.6909624 -0.94424146 -0.024147138
1.350153 1.0134431 -0.42322227 -5.304893 -0.37504992 2.9877827 -0.27238187 -0.2824892
4.5472045 3.9767754 0.062066875 -1.7805502 -0.7051456 -1.6312027 1.4310644 -0.09593297
-0.2870187 -0.052355196 0.0027626206 -0.77759653 -0.4206469 -0.23270397 1.4263391 0.7872628
-0.10370731 0.11662919 -1.3832976 0.28403506 -3.137185 0.6389874 0.2992335 0.5548194
0.15624472 1.0392662 3.958884 -3.530797 -1.6413945 1.8550425 -2.165219 -2.034671
-1.166549 -0.56888634 1.0561973 1.1630328 0.30241874 2.0435674 0.08640836 -0.12744339
-0.9871169 1.3028104 -0.20123847 0.17879845 2.8871539 -0.23984753 -3.0160701 0.9804336
2.5776439 1.8149467 -3.406148 0.12195202 0.45850825 2.3887284 -2.2853694 -0.014022419
1.5488976 0.63248664 -1.3356949 -2.863371 0.9514561 0.049204893 0.21135628 -2.150986
0.38096642 -0.7912463 0.3971828 0.65535784 -1.943349 0.90451574 -1.2833616 -0.10878735
-0.80487984 0.34797654 -0.5635236 0.49101081 0.7582173 0.98647696 -0.9010698 0.6877468
-1.619061 1.7587357 -0.5303142 -0.9162126 -0.38415286 -0.87659353 -0.18615095 1.4459894
0.31274584 -0.02123302 -0.553587 1.1230894 -0.045541834 -0.08896107 -0.9850557 -0.00090744067
-1.2840784 -0.791279 -0.49735478 0.012402955 0.6502811 -1.2001895 -0.62950176 -1.0735886
-0.7862144 2.0330143 -1.3724903 -0.19266212 -0.5240817 -0.3343892 1.1399707 -0.33657104
-0.37521973 1.0163379 0.0045605735 -0.6357356 0.7054136 0.12869596 0.08779769 0.9075713
-1.0089909 0.8952041 0.16991593 0.54522693 0.6867523 -1.4614378 0.8451689 1.5777824
1.3864856 1.8010432 1.4241029 1.9015139 0.1801166 1.7471483 -2.2908037 -1.5931929
0.43460158 -0.0863182 -0.34408396 -1.6991466 2.2498531 2.0930517 -0.24310212 0.42089513
-0.3187195 0.71896577 0.28654522 0.2421964 -0.06275308 -0.2658183 -0.06805821 0.88705015
0.08400132 -0.29010436 0.27278382 -0.32452795 -0.53133225 1.4399714 0.14834975 -0.11414466

lstm.bias_ih_l0 f4 [40]
00000000: 4208 5a3e c4ca 9fbe b54e 04be d8dd ccbe
00000010: 407a fbbf 8450 c53f 45ad 48bf b1bf c0c0
00000020: 1b8e 4f3d f64b 4e3f 28dc 17bd 0ee6 3c3f
00000030: 5ebb 00c0 1a3b a43f 4e3a dbbf e0e0 5040
00000040: eb1a 84be bb7a 7e3f f790 833f bb5f dfbe
00000050: 71c0 c1bf f82d bc3e 0215 87bf 78a8 1a40
00000060: f0bb 78be 4f15 84be dafd 963e 08c4 623e
00000070: 9d2e cd3e d9e7 6a40 e6e0 ee3f 18c7 7d40
00000080: e7ad 5d3e 17a8 0740 a8bf 93bf 9cba 18c0
00000090: 6b91 cf40 b81a 8e3f 407f 26c0 045a 6cc0
0.21292213 -0.31209385 -0.1292065 -0.40013003 -1.9646683 1.5415196 -0.7838939 -6.0234
0.05067263 0.8058466 -0.03707519 0.73788536 -2.011436 1.2830536 -1.7127168 3.2637253
-0.25801787 0.9940602 1.0278615 -0.43627724 -1.5136853 0.3675382 -1.0553286 2.4165325
-0.24290442 -0.25797507 0.29490548 0.22145092 0.40074626 3.6704009 1.8662384 3.9652767
0.2164837 2.1196344 -1.1542864 -2.3863897 6.486501 1.1101904 -2.6015167 -3.692994

lstm.bias_hh_l0 f4 [40]
00000000: 5b08 5a3e c5ca 9fbe b44e 04be e0dd ccbe
00000010: 3e7a fbbf 8550 c53f 47ad 48bf b1bf c0c0
00000020: 2b8e 4f3d f64b 4e3f 24dc 17bd 12e6 3c3f
00000030: 5dbb 00c0 1a3b a43f 4f3a dbbf e0e0 5040
00000040: e61a 84be b97a 7e3f f890 833f bd5f dfbe
00000050: 71c0 c1bf f02d bc3e 0215 87bf 79a8 1a40
00000060: e6bb 78be 5015 84be dafd 963e 0dc4 623e
00000070: 992e cd3e d7e7 6a40 e2e0 ee3f 16c7 7d40
00000080: ebad 5d3e 17a8 0740 a7bf 93bf 9bba 18c0
00000090: 6991 cf40 b71a 8e3f 407f 26c0 065a 6cc0
0.2129225 -0.31209388 -0.12920648 -0.40013027 -1.964668 1.5415198 -0.783894 -6.0234
0.05067269 0.8058466 -0.037075177 0.7378856 -2.0114357 1.2830536 -1.7127169 3.2637253
-0.25801772 0.9940601 1.0278616 -0.4362773 -1.5136853 0.36753798 -1.0553286 2.4165328
-0.24290428 -0.2579751 0.29490548 0.221451 0.40074614 3.6704004 1.8662379 3.9652762
0.21648376 2.1196344 -1.1542863 -2.3863895 6.4865003 1.1101903 -2.6015167 -3.6929946

output_proj.weight f4 [3, 10]
00000000: 92b3 ebbf b428 8a40 a0e3 4cc0 9311 8ec0
00000010: b4d9 a2be 2496 8fbf b446 b63f a5ef 2dc1
00000020: 11e7 353f b62e 6341 e8a7 5040 bae6 c63f
00000030: 0cb3 6ec1 bd1d 2840 0c33 893f 04ef c8bf
00000040: 84c2 8e3f 0bc7 d4be 22cb 433e 6596 b0be
00000050: f559 de40 09ef 0ec0 3690 c640 71a9 0cc0
00000060: 08fd f9bd 130d c241 7f3a 7fbf b531 b63f
00000070: ccb9 06bf 176a 5d3f
-1.8414176 4.3174686 -3.2013931 -4.4396453 -0.3180672 -1.1217694 1.4240327 -10.871007
0.71055704 14.198904 3.2602482 1.5539162 -14.918713 2.626815 1.0718703 -1.5697942
1.1153111 -0.41558108 0.19120458 -0.34489742 6.948481 -2.2333395 6.205104 -2.197842
-0.12206465 24.256384 -0.9969863 1.4233919 -0.52627254 0.86490005

output_proj.bias f4 [3]
00000000: c257 67c0 ab90 1fbc a991 4a40
-3.6147313 -0.009739081 3.1651404

exp_avg f4 [3, 10]
00000000: 5704 a326 a278 b7a6 fd66 9826 bde5 af26
00000010: e4c2 1ca6 9ed8 3125 6d57 8c25 bf48 b026
00000020: 9b36 29a7 980e fa25 dd07 a62b a780 ef2b
00000030: b417 64ab 7489 a2aa 7fef 51aa 3f0f 36ab
00000040: c97d 192a 785c 862b 14ff db2b 2342 a32b
00000050: d4cf 30aa b564 2129 40c5 eea9 ad0f dfa8
00000060: f177 f9a9 59fd 0b28 cd7b 45aa abc1 23aa
00000070: d025 682a d3b5 4daa
1.1311573e-15 -1.2730873e-15 1.0575034e-15 1.2205335e-15 -5.43875e-16 1.5425696e-16 2.434537e-16 1.2232171e-15
-2.3483063e-15 4.3377976e-16 1.1797192e-12 1.701768e-12 -8.1034767e-13 -2.8872358e-13 -1.8646021e-13 -6.4680547e-13
1.363277e-13 9.546938e-13 1.5631684e-12 1.1600203e-12 -1.5704045e-13 3.583653e-14 -1.06035406e-13 -2.4764772e-14
-1.1078628e-13 7.770986e-15 -1.7540067e-13 -1.45445e-13 2.0618858e-13 -1.827074e-13

exp_avg_sq f4 [3, 10]
00000000: 2f3f 4b1d 5753 2b1c bb70 aa1f f2ce c41d
00000010: 2e9f 1420 6050 421f 1674 1d20 40a9 f21e
00000020: 7f16 af1f 4103 171f 2d2e 891d af6d 8b1e
00000030: a863 fc1d ce48 901d a356 331e 5d54 031d
00000040: e02c f41e 543d 321c 7fa3 341c 1b6f 2d1e
00000050: ec3a 151a 132c 971a a45b 341a 8182 031a
00000060: 1101 6d1a 44e0 c319 2d1b 4d1a 1247 7019
00000070: 7408 e518 e398 a51a
2.6899491e-21 5.668687e-22 7.21843e-20 5.2094744e-21 1.2588756e-19 4.1147583e-20 1.3336827e-19 2.5692747e-20
7.41526e-20 3.1978185e-20 3.6311343e-21 1.4762562e-20 6.6806887e-21 3.819176e-21 9.494097e-21 1.738132e-21
2.5853065e-20 5.8974524e-22 5.976832e-22 9.18152e-21 3.0860075e-23 6.252334e-23 3.7297154e-23 2.7195585e-23
4.9011313e-23 2.0253108e-23 4.241496e-23 1.2422062e-23 5.920365e-24 6.84894e-23

exp_avg f4 [40, 10]
00000000: 4784 60a9 29fe 88a9 ded2 4da9 ddaa d3a9
00000010: 888b 0229 5a0d 7da9 8054 5d27 e2b6 dca9
00000020: 1cc7 d5a8 f524 a2a9 8c3b 2425 05e1 0625
00000030: c7a4 1d23 d899 9fa4 49d3 1c25 877e 7ca4
00000040: ab2d 3425 6f61 1a25 415a 26a4 1526 2025
00000050: 2c61 0eac 83ce e9ab 5cae 07aa b0b4 8a2b
00000060: 9211 08ac fa54 5b2b 8249 1cac cac3 05ac
00000070: 1a6d 102b 2fce 0aac 0257 4a96 2dec 7696
00000080: 4b7e 3996 89c2 be96 044d eb15 890e 6496
00000090: 1478 4714 c4e9 c696 72a9 c095 e220 9296
000000a0: b059 a1a0 37e7 28a1 621c b0a0 e1f7 0921
000000b0: 2374 11a1 c753 83a0 8a05 f3a0 6b4b b420
000000c0: ab8d 4420 6ece eba0 4e0f 58a0 2cd5 83a0
000000d0: 2712 46a0 ceb1 cba0 6f41 fb1f 3785 73a0
000000e0: 57fe 541e 9466 d4a0 b4b9 cd9f 6e09 9ca0
000000f0: 283b c38b 554c a08b f10a ba89 8431 3e0b
00000100: c193 ba8b ce5f 160b 044d d68b 1d6b b78b
00000110: 2909 c60a 8154 be8b cffa 0caa 2e36 23aa
00000120: c244 e3a9 c4a9 66aa c135 6d29 9f96 04aa
00000130: bfda 0da8 bc7d 84aa 050f 61a9 523c 43aa
00000140: e3e8 3c1f bcc0 c51f 0a31 4e1f e288 a19f
00000150: 5b4c aa1f 27c2 191f 0944 8e1f 6117 539f
00000160: 6820 e69e a70a 8a1f 5bec 9a13 ee0e bd13
00000170: 4806 8e13 900e 1214 f728 3493 159d ae13
00000180: 81b9 9891 b04c 1814 5d83 1313 dbc4 df13
00000190: 181c 9718 5f24 7818 6200 9016 f335 1398
000001a0: 7369 9018 dcc7 e897 b7de a518 76f7 8d18
000001b0: c248 9997 fd50 9318 0400 0080 0400 0000
000001c0: 0400 0080 0400 0080 0400 0000 0400 0080
000001d0: 0400 0000 0400 0000 0400 0000 0400 0000
000001e0: dadf 20a4 1952 44a4 ee7a 13a4 dcaa 97a4
000001f0: 9c14 bb23 3252 35a4 2e97 1e22 5f26 9ea4
00000200: f12d 99a3 5c5d 68a4 1734 4e1f 2ca3 7b1f
00000210: 0509 3d1f fe66 c21f 2fcb ef9e 4d69 681f
00000220: dc46 4b9d 16b6 ca1f 2957 c41e 2eeb 941f
00000230: bc4a d715 3b5d 0316 f55d c515 7bf8 4a16
00000240: d45c 7a95 aaa7 f215 663c d493 54a5 5316
00000250: 84fe 4c15 787b 1b16 7464 739a 9982 949a
00000260: bc20 5f9a 7d76 e59a 2e85 0d1a d729 899a
00000270: e1ef 6f18 3845 ef9a 1ec0 e799 b9c6 af9a
00000280: 830c 81a1 fe16 07a2 c1da 8ca1 3fb2 dc21
00000290: 7aab e8a1 8c12 52a1 d25e c2a1 8333 9021
000002a0: 7734 1d21 6b99 bca1 792e 0da0 ec49 2ca0
000002b0: 4b6d 01a0 011a 85a0 002e a41f 1320 1fa0
000002c0: 5d2d 0b1e 5fca 8aa0 b56d 869f abeb 4ba0
000002d0: 60a4 3915 ad8b 6215 8e2f 2a15 8504 af15
000002e0: 03e2 d794 983c 5115 d601 3793 857f b615
000002f0: 37c3 b014 c511 8615 f5a2 a9a1 7a48 8ba1
00000300: 22a8 a19f 7142 2521 191e a2a1 09a9 0221
00000310: e634 baa1 635f 9fa1 6313 ac20 cd60 a5a1
00000320: 0400 0000 0400 0000 0400 0080 0400 0000
00000330: 0400 0080 0400 0080 0400 0080 0400 0000
00000340: 0400 0000 0400 0080 0400 0000 0400 0000
00000350: 0400 0080 0400 0000 0400 0080 0400 0080
00000360: 0400 0080 0400 0000 0400 0000 0400 0080
00000370: 0400 0080 0400 0080 0400 0000 0400 0080
00000380: 0400 0000 0400 0000 0400 0000 0400 0080
00000390: 0400 0080 0400 0000 0400 0000 0400 0000
000003a0: 0400 0000 0400 0080 0400 0000 0400 0080
000003b0: 0400 0000 0400 0080 0400 0080 0400 0000
000003c0: 0400 0080 0400 0080 0400 0080 0400 0000
000003d0: 0400 0080 0400 0000 0400 0080 0400 0000
000003e0: 0400 0000 0400 0080 15ed d405 83d3 ae05
000003f0: ede8 ca03 9e6e 4f85 037d cb05 f000 2485
-4.9852724e-14 -6.083703e-14 -4.5702042e-14 -9.3999224e-14 2.8986823e-14 -5.6188866e-14 3.0715719e-15 -9.801688e-14
-2.37341e-14 -7.200656e-14 1.4244908e-16 1.1698887e-16 8.54588e-18 -6.921588e-17 1.3602429e-16 -5.4750962e-17
1.5627984e-16 1.3390383e-16 -3.607196e-17 1.389069e-16 -2.0233355e-12 -1.6612964e-12 -1.2050902e-13 9.855641e-13
-1.9336516e-12 7.792236e-13 -2.2209738e-12 -1.9009122e-12 5.1310486e-13 -1.9725434e-12 -1.6344885e-25 -1.9946246e-25
-1.4984032e-25 -3.0818924e-25 9.5037253e-26 -1.842228e-25 1.0070614e-26 -3.2136152e-25 -7.781552e-26 -2.3608324e-25
-2.733381e-19 -5.7226624e-19 -2.9834342e-19 4.674547e-19 -4.9281617e-19 -2.2247702e-19 -4.1169467e-19 3.0543094e-19
1.664872e-19 -3.9947152e-19 -1.8300976e-19 -2.2333329e-19 -1.6777258e-19 -3.45072e-19 1.06410886e-19 -2.0626978e-19
1.1275783e-20 -3.5982077e-19 -8.71281e-20 -2.6433668e-19 -7.5200276e-32 -6.174461e-32 -4.478816e-33 3.662992e-32
-7.186691e-32 2.8961025e-32 -8.254568e-32 -7.06502e-32 1.9070152e-32 -7.3312485e-32 -1.2521515e-13 -1.4496106e-13
-1.00927526e-13 -2.0487003e-13 5.2671195e-14 -1.1776212e-13 -7.874505e-15 -2.3535156e-13 -4.9973063e-14 -1.7340407e-13
4.0003188e-20 8.37516e-20 4.366276e-20 -6.8412606e-20 7.212412e-20 3.255961e-20 6.0251894e-20 -4.4700327e-20
-2.43656e-20 5.8462896e-20 3.910813e-27 4.772503e-27 3.5852033e-27 7.373988e-27 -2.2739391e-27 4.407867e-27
-2.4095697e-28 7.689163e-27 1.8618776e-27 5.648723e-27 3.9060953e-24 3.2071611e-24 2.3264696e-25 -1.9026542e-24
3.7329604e-24 -1.50431e-24 4.2876385e-24 3.6697517e-24 -9.90576e-25 3.8080387e-24 -6e-45 6e-45
-6e-45 -6e-45 6e-45 -6e-45 6e-45 6e-45 6e-45 6e-45
-3.488408e-17 -4.2570265e-17 -3.197967e-17 -6.577526e-17 2.0283309e-17 -3.931774e-17 2.1493027e-18 -6.858658e-17
-1.660775e-17 -5.038606e-17 4.3665284e-20 5.328629e-20 4.0029768e-20 8.233258e-20 -2.5389144e-20 4.9215014e-20
-2.690346e-21 8.5851564e-20 2.0788356e-20 6.306951e-20 8.695572e-26 1.0611514e-25 7.9715904e-26 1.6395837e-25
-5.0560326e-26 9.800755e-26 -5.357588e-27 1.7096613e-25 4.139825e-26 1.255976e-25 -5.0332368e-23 -6.142236e-23
-4.6141762e-23 -9.490361e-23 2.9265698e-23 -5.672947e-23 3.1011134e-24 -9.895991e-23 -2.3962436e-23 -7.269936e-23
-8.744692e-19 -1.8308084e-18 -9.544673e-19 1.4954961e-18 -1.5766321e-18 -7.1175314e-19 -1.317105e-18 9.771455e-19
5.3263106e-19 -1.2779985e-18 -1.1958541e-19 -1.4593425e-19 -1.0962887e-19 -2.2548284e-19 6.95328e-20 -1.3478436e-19
7.36798e-21 -2.3512027e-19 -5.69327e-20 -1.7272745e-19 3.749012e-26 4.575052e-26 3.436874e-26 7.068907e-26
-2.1798598e-26 4.2255014e-26 -2.3098752e-27 7.3710405e-26 1.7848457e-26 5.4150204e-26 -1.149502e-18 -9.438191e-19
-6.8464305e-20 5.599211e-19 -1.0985514e-18 4.426943e-19 -1.2617852e-18 -1.0799508e-18 2.9150762e-19 -1.1206458e-18
6e-45 6e-45 -6e-45 6e-45 -6e-45 -6e-45 -6e-45 6e-45
6e-45 -6e-45 6e-45 6e-45 -6e-45 6e-45 -6e-45 -6e-45
-6e-45 6e-45 6e-45 -6e-45 -6e-45 -6e-45 6e-45 -6e-45
6e-45 6e-45 6e-45 -6e-45 -6e-45 6e-45 6e-45 6e-45
6e-45 -6e-45 6e-45 -6e-45 6e-45 -6e-45 -6e-45 6e-45
-6e-45 -6e-45 -6e-45 6e-45 -6e-45 6e-45 -6e-45 6e-45
6e-45 -6e-45 2.0023474e-35 1.6440578e-35 1.192597e-36 -9.7534104e-36 1.913595e-35 -7.711415e-36

exp_avg_sq f4 [40, 10]
00000000: 1212 5d1b 063c 2d20 1504 381c 2733 1d1f
00000010: ca88 311f deeb 5a1e d476 4d1e 8be9 d11b
00000020: c611 e71e f7f4 271e 588e 2c17 ef6f 5f17
00000030: a015 e015 02e2 e617 ee06 d917 4510 2117
00000040: 93e9 3417 3e10 9217 d2bd 6516 d0f2 ed16
00000050: 381c 961a 3103 4a1a 2161 b41a 61a2 a319
00000060: da18 961a 4d42 5119 e722 c21a ca6b 941a
00000070: 8a82 841a 63e9 8c1a c0b1 7015 e7f3 0116
00000080: bd3e 8f15 7fb3 0817 5fc0 1516 d2ca 8c15
00000090: 96bb bf15 6623 a815 759b 3815 8e16 8015
000000a0: 8dc6 c419 cf88 db19 29f5 7216 5767 b519
000000b0: ed1d 7419 3603 c817 77a3 281a 4b31 5a19
000000c0: 8bf7 8619 560d 8b19 3af6 c116 c4c9 2316
000000d0: 384a 2415 54bf 3c17 abe9 c716 0529 2316
000000e0: a692 7416 d15a 2417 7b92 fb15 88d7 1216
000000f0: 10ac 6619 7939 e419 5251 ea19 8882 c019
00000100: 7a66 1b1a 03de 2719 bc2b 1d1a dea1 a318
00000110: 42cc 8519 a633 9d19 12d9 801a 94eb 8c1b
00000120: 7470 9d1a a2e0 c21a cc0b 521b 942a f219
00000130: b143 301b f7ce a719 d6f3 101a 9b49 da1a
00000140: 102c 1115 9d87 ff14 2522 cd13 0c31 ab15
00000150: 8fa4 6515 5c8c ca14 86d6 dc13 f771 3415
00000160: 50ce cf13 d104 8713 6a42 1a17 403d 9016
00000170: b796 2916 2c08 8317 f6b7 5217 5b78 9716
00000180: 1143 6416 c333 5617 fda3 3e16 4fe0 2016
00000190: 0ce2 0717 a617 1a16 4263 1216 3c52 5016
000001a0: 5f27 4116 2cf8 e315 ddca 6216 dd95 9316
000001b0: 47c9 0916 0bea 5916 43f0 e913 19a4 3f14
000001c0: 6262 7412 0141 8d14 fd91 9b14 0de4 e813
000001d0: 1df0 0314 b159 2214 ce8b 8213 a4b6 dd13
000001e0: 0f73 c617 d942 9719 11ca ac17 827b 1d19
000001f0: 6909 b919 4244 fb18 871e 7a19 8b07 5317
00000200: 814e ac18 f5b9 2d18 efd8 1b17 da87 3b17
00000210: e78e 2316 71e0 6317 642d 8b17 622a a716
00000220: c037 2a17 55e6 1d17 3cda 8b16 9731 f316
00000230: bf72 e918 45e9 0019 a51f 8715 75b4 d418
00000240: 9fdb 8e18 13e3 e216 bad8 4719 68a6 8118
00000250: 784f a018 f8b9 a418 cf71 eb18 c07d 0119
00000260: f90e a015 ebc7 d518 bfad 8f18 b15a e616
00000270: eebc 4819 88a4 8218 aa05 a118 31f7 a518
00000280: 93d3 fa15 31c2 7916 003f 6515 2f07 a016
00000290: ca27 7e16 dec9 9215 c545 0c16 9cc6 cf15
000002a0: 6914 dd15 ca6c a415 d65d 1216 7b75 4b15
000002b0: 9d30 d414 c94a 5b15 cb94 4f15 4088 b214
000002c0: 0b77 8c15 63ae ae15 c18a c314 0152 b515
000002d0: b625 4d13 b99c 7d12 0456 1d12 dac0 b812
000002e0: d08d 6712 d52d 4212 69d8 fb12 bf86 a312
000002f0: 11e6 7212 7a43 9b12 2b32 ab15 da1f 9314
00000300: 735f ba15 d901 1215 43a4 da14 b626 6f14
00000310: e9be ec14 c522 5a15 10de 5d15 3d14 7715
00000320: f6aa 9119 fff1 ab1b bb93 9c1a b9e5 cf1b
00000330: 0143 931b b3ae 431b 5bae 8e1a 9654 321a
00000340: 0c43 2818 bd26 241a 9b02 3118 7363 a117
00000350: 3e45 bd16 59da 0c18 2d24 6f17 8137 1c17
00000360: ac60 9917 40ec 2e18 b63d b516 bac7 6618
00000370: a469 211a 8b34 4e1a 9946 a318 b536 111a
00000380: 4f6a af19 76fb a018 2a83 711a 8d68 fd19
00000390: 40fa da19 6225 f919 a36d e419 4006 b519
000003a0: a873 901b 82a1 6d1a 326e e11a 14e5 5a19
000003b0: fa1d de1a 0c40 4f1a f060 4b1b 4e28 cb19
000003c0: 3587 3116 0c46 6416 db95 d914 7170 be16
000003d0: d16f 0816 010c 5a15 ef84 7e16 e34c 8d15
000003e0: a885 c615 e79d 6c15 a4be c518 bad1 9b17
000003f0: 79f2 5416 2556 dd18 a288 9018 9a6d 4018
1.828653e-22 1.467353e-19 6.088577e-22 3.3288355e-20 3.7594357e-20 1.15896e-20 1.0877183e-20 3.4727073e-22
2.4465427e-20 8.891564e-21 5.575586e-25 7.2196466e-25 9.0507e-26 1.4920454e-24 1.4025046e-24 5.204244e-25
5.845595e-25 9.439129e-25 1.855837e-25 3.8442651e-25 6.2084136e-23 4.17752e-23 7.4603175e-23 1.691939e-23
6.2078696e-23 1.0818436e-23 8.029291e-23 6.138551e-23 5.480482e-23 5.82797e-23 4.8607834e-26 1.0497499e-25
5.7856224e-26 4.4170526e-25 1.2096826e-25 5.6865544e-26 7.7440244e-26 6.791051e-26 3.7281138e-26 5.1734373e-26
2.0346119e-23 2.2699326e-23 1.9625963e-25 1.87567e-23 1.2620548e-23 1.2925508e-24 3.487363e-23 1.12802905e-23
1.3955257e-23 1.437765e-23 3.1336222e-25 1.3230701e-25 3.3178085e-26 6.0987566e-25 3.229765e-25 1.3179979e-25
1.9756437e-25 5.3105884e-25 1.016092e-25 1.1861796e-25 1.1925469e-23 2.359786e-23 2.4227878e-23 1.9905056e-23
3.213603e-23 8.6785326e-24 3.2502167e-23 4.2297957e-24 1.3834377e-23 1.625428e-23 5.3290255e-23 2.3313296e-22
6.5115356e-23 8.0599433e-23 1.7374605e-22 2.503941e-23 1.4580251e-22 1.7350988e-23 2.997547e-23 9.02816e-23
2.9317276e-26 2.580191e-26 5.1782944e-27 6.914373e-26 4.6375996e-26 2.045215e-26 5.5747344e-27 3.6440613e-26
5.2457586e-27 3.408354e-27 4.984391e-25 2.330311e-25 1.3699269e-25 8.467739e-25 6.808685e-25 2.447132e-25
1.8438856e-25 6.921246e-25 1.5399823e-25 1.2995476e-25 4.3906164e-25 1.2447483e-25 1.1825106e-25 1.6828055e-25
1.5602839e-25 9.2076116e-26 1.8320147e-25 2.3843708e-25 1.1130284e-25 1.7602971e-25 5.9054385e-27 9.675398e-27
7.711409e-28 1.4263001e-26 1.5708583e-26 5.878991e-27 6.661164e-27 8.196598e-27 3.295447e-27 5.596834e-27
1.2824495e-24 1.5640034e-23 1.1166248e-24 8.141652e-24 1.9132352e-23 6.4950902e-24 1.2930862e-23 6.81873e-25
4.4540227e-24 2.245361e-24 5.035701e-25 6.059443e-25 1.3212127e-25 7.363094e-25 8.994123e-25 2.7007052e-25
5.500033e-25 5.1020156e-25 2.2594386e-25 3.9290063e-25 6.0344952e-24 6.664553e-24 5.457599e-26 5.498293e-24
3.69279e-24 3.6655573e-25 1.03318264e-23 3.3513746e-24 4.1439274e-24 4.2580787e-24 6.0860994e-24 6.694539e-24
6.464711e-26 5.5261075e-24 3.7140072e-24 3.7215738e-25 1.0377912e-23 3.3770346e-24 4.1623244e-24 4.29011e-24
1.01308e-25 2.0175336e-25 4.629588e-26 2.5853928e-25 2.0530512e-25 5.928742e-26 1.1331125e-25 8.3919985e-26
8.929339e-26 6.641071e-26 1.1823395e-25 4.10882e-26 2.1425704e-26 4.4285693e-26 4.1920694e-26 1.8027148e-26
5.6733366e-26 7.0553174e-26 1.9744697e-26 7.32347e-26 2.589323e-27 8.00259e-28 4.9646487e-28 1.1659574e-27
7.3065545e-28 6.12721e-28 1.5893676e-27 1.0319964e-27 7.6645314e-28 9.7985095e-28 6.91455e-26 1.485577e-26
7.5275394e-26 2.9485923e-26 2.2077165e-26 1.2074051e-26 2.3905211e-26 4.4052178e-26 4.480577e-26 4.9897218e-26
1.5061699e-23 2.8445963e-22 6.475876e-23 3.4393732e-22 2.436241e-22 1.618647e-22 5.901151e-23 3.6877865e-23
2.1747341e-24 3.3945698e-23 2.287803e-24 1.0429486e-24 3.0578295e-25 1.8204813e-24 7.7270725e-25 5.0476374e-25
9.911797e-25 2.2608249e-24 2.9281072e-25 2.982764e-24 3.3379355e-23 4.2642245e-23 4.2205798e-24 3.002949e-23
1.8137514e-23 4.161294e-24 4.9943585e-23 2.6201815e-23 2.2641747e-23 2.5761095e-23 2.361893e-23 1.8717486e-23
2.3897543e-22 4.9140916e-23 9.323585e-23 1.1316598e-23 9.186548e-23 4.2858333e-23 1.6823089e-22 2.1005987e-23
1.434061e-25 1.8439796e-25 2.1970508e-26 3.0767116e-25 1.1021276e-25 4.403422e-26 2.0559903e-25 5.707075e-26
8.0182436e-26 4.7784383e-26 5.1115804e-24 1.0069583e-24 1.7201734e-25 5.7214145e-24 3.736109e-24 2.4870753e-24

exp_avg f4 [40, 10]
00000000: 5656 c91f b14c 8e28 6f64 c99f 8dcd b0a8
00000010: 3022 df93 d03f bf96 7e4c 8ea8 924d c99f
00000020: 4eb4 7496 7e4c 8e28 a188 4f24 dd3c 0ba3
00000030: 4df9 f21e 42ef 2323 c89c 740e 00a7 4f24
00000040: 0ae6 0aa4 a7f8 f21e 6b34 7911 bbdf 0aa3
00000050: 4995 19ab d55d 1f24 8df4 da9c 0bd5 27a4
00000060: 0eb7 ac8f 4995 19ab 8cc7 f02a d4f1 da9c
00000070: ff23 1693 7e5c 1f24 287e 8f94 6c3e 8015
00000080: c97f 8f14 6144 be95 0139 0781 512f 600b
00000090: 976e ba95 207d 8f14 a46d b583 f1ea 9c15
000000a0: 32a3 a999 122a 2116 387e 4393 d070 4696
000000b0: 1b39 7681 4fa9 a999 fb78 d319 537d 4393
000000c0: 6dbd f683 8acf 1e16 0929 351d 87f0 881f
000000d0: 3531 359d 32d6 9f9f dc02 db8a 2099 2c94
000000e0: a6e2 819f e823 359d 49fa 9e8d d4c3 831f
000000f0: 964e dd8a 7c92 be08 0100 0080 065d d588
00000100: 0100 0000 964e dd8a 0a14 a50a 0200 0080
00000110: 1f00 0080 7c92 be08 8124 ae23 8d93 0f29
00000120: 6712 aaa3 3515 33a9 1cab 5e94 10be 0321
00000130: c47e 0fa9 02ff a9a3 beea dc96 4c7e 0f29
00000140: 7c3c 309c 73dd a214 ae33 d394 4e76 4391
00000150: 6e1c 3b00 1f3e 309c 3692 651b 4633 d394
00000160: 74f4 1280 0a9f 2611 56b0 7f92 c961 c492
00000170: 6ab3 7f12 fadc 4a12 f007 0300 d4ad 6409
00000180: 1e8a 4190 42ae 7f12 7ee5 0101 7bb0 3b92
00000190: c42d a717 5626 2b01 0300 0000 5626 2b81
000001a0: 0400 0000 c42d a717 ee8a 7f97 0300 0080
000001b0: bf01 0000 5626 2b01 0400 0080 0400 0080
000001c0: 0400 0080 0400 0080 0400 0080 0400 0080
000001d0: 0400 0000 0400 0080 0400 0080 0400 0080
000001e0: d4ae 4c23 f6ec 4b23 0dbd 4ca3 4f08 0a98
000001f0: 22af 840b add4 419a f4c9 4520 08a6 4ca3
00000200: 9439 798a 5f15 0918 ad67 b99a 4cb1 829e
00000210: 8b55 b91a 5e63 a41e f068 ca09 05fe 2311
00000220: 11b1 801e 8b71 b91a 745f 1b0c a85e 829e
00000230: d266 9783 f073 0895 e649 3900 8025 3015
00000240: b0b8 5d00 e566 9783 f073 0815 9b5a 0c81
00000250: f1f3 3302 f073 0895 0dfc 9e19 5643 9a19
00000260: e005 9f99 c4ad 908a 0b29 be01 509b 9690
00000270: 9003 1318 f5f5 9e99 983b 3280 06fe 0108
00000280: 2d6c a620 0400 0000 0400 0000 0400 0000
00000290: 75d4 5783 2d6c a620 832d 56a0 0500 0000
000002a0: c908 2600 0400 0080 d0e9 321f 79f6 321f
000002b0: 75f6 329f 3746 ad0f 747f 6b07 a5fd 2896
000002c0: 52a2 6a10 02e2 329f d2e6 6786 5b4d 6590
000002d0: 87c2 8987 4252 6b94 1350 8a07 e557 9414
000002e0: 8074 2b00 5e33 1f00 4652 6b14 d070 8907
000002f0: 876c 1f02 4252 6b94 0200 0080 e46f 8fa0
00000300: 4906 450d 437c 9e20 1351 0c0c 0400 0080
00000310: e46f 8f20 81e4 9a8b c209 5b0f e46f 8fa0
00000320: 0400 0000 0400 0080 0400 0080 0400 0000
00000330: 0400 0080 0400 0080 0400 0080 0400 0000
00000340: 0400 0080 0400 0000 0400 0080 0400 0080
00000350: 0400 0080 0400 0080 0400 0080 0400 0080
00000360: 0400 0000 0400 0080 0400 0080 0400 0080
00000370: 0400 0000 0400 0000 0400 0000 0400 0080
00000380: 0400 0000 0400 0000 0400 0080 0400 0000
00000390: 0400 0000 0400 0080 0400 0000 0400 0000
000003a0: 0400 0080 0400 0080 0400 0080 0400 0000
000003b0: 0400 0080 0400 0080 0400 0000 0400 0080
000003c0: 0400 0000 0400 0080 0400 0000 0400 0000
000003d0: 0400 0000 0400 0080 0400 0000 0400 0000
000003e0: 0400 0000 0400 0000 37a1 e604 f3da bf01
000003f0: 0400 0080 ed4c da81 0300 0000 37a1 e604
8.526964e-20 1.5798427e-14 -8.5292965e-20 -1.9629069e-14 -5.6326826e-27 -3.0897986e-25 -1.579834e-14 -8.525514e-20
-1.9767057e-25 1.579834e-14 4.50017e-17 -7.548093e-18 2.5725855e-20 8.8869125e-18 3.015081e-30 4.5027424e-17
-3.011883e-17 2.5725587e-20 1.9658789e-28 -7.528372e-18 -5.4563694e-13 3.4557108e-17 -1.4489245e-21 -3.6392807e-17
-1.703102e-29 -5.4563694e-13 4.2771028e-13 -1.4488541e-21 -1.895041e-27 3.4555973e-17 -1.448907e-26 5.179727e-26
1.4489712e-26 -7.684827e-26 -2.4836482e-38 4.3176428e-32 -7.529928e-26 1.4488663e-26 -1.0663396e-36 6.337857e-26
-1.7540105e-23 1.3018751e-25 -2.467469e-27 -1.602991e-25 -4.5224035e-38 -1.7542574e-23 2.1865752e-23 -2.467425e-27
-1.45020705e-36 1.2828626e-25 2.3976365e-21 5.799616e-20 -2.398059e-21 -6.7693476e-20 -2.1090008e-32 -8.7139794e-27
-5.5008583e-20 -2.3973714e-21 -9.797756e-31 5.580463e-20 -2.1311087e-32 1.1469647e-33 -1e-45 -1.2841341e-33
1e-45 -2.1311087e-32 1.589646e-32 -3e-45 -4.3e-44 1.1469647e-33 1.8880578e-17 3.188036e-14
-1.843923e-17 -3.976438e-14 -1.1241881e-26 4.463607e-19 -3.186233e-14 -1.8431017e-17 -3.569106e-25 3.1861924e-14
-5.831169e-22 1.6445166e-26 -2.132594e-26 -1.5419243e-28 5.428493e-39 -5.8313805e-22 1.8989679e-22 -2.1325779e-26
-1.740732e-39 1.3144099e-28 -8.0681163e-28 -1.2393445e-27 8.0684957e-28 6.4012336e-28 2.78354e-40 2.7526235e-33
-3.816894e-29 8.06786e-28 2.385821e-38 -5.9224325e-28 1.0803675e-24 3.1435244e-38 4e-45 -3.1435244e-38
6e-45 1.0803675e-24 -8.25703e-25 -4e-45 6.26e-43 3.1435244e-38 -6e-45 -6e-45
-6e-45 -6e-45 -6e-45 -6e-45 6e-45 -6e-45 -6e-45 -6e-45
1.10958835e-17 1.10548305e-17 -1.1098895e-17 -1.7840277e-24 5.110806e-32 -4.0083263e-23 1.675337e-19 -1.1094021e-17
-1.1999743e-32 1.7717625e-24 -7.6681704e-23 -1.3837614e-20 7.665241e-23 1.7405273e-20 4.8728414e-33 1.2936709e-28
1.362576e-20 7.6697645e-23 1.196949e-31 -1.3803434e-20 -8.898589e-37 -2.755644e-26 5.261133e-39 3.55725e-26
8.606955e-39 -8.898606e-37 2.755644e-26 -2.5778945e-38 1.3220851e-37 -2.755644e-26 1.643862e-23 1.5950424e-23
-1.6442588e-23 -1.3932059e-32 6.985387e-38 -5.9403865e-29 1.9001103e-24 -1.6436158e-23 -4.613153e-39 3.911813e-34
2.8193079e-19 6e-45 6e-45 6e-45 -6.342671e-37 2.8193079e-19 -1.8141564e-19 7e-45
3.4929e-39 -6e-45 3.788637e-20 3.7896844e-20 -3.789683e-20 1.7086163e-29 1.771689e-34 -1.3650968e-25
4.627341e-29 -3.7879915e-20 -4.361585e-35 -4.522188e-29 -2.0727802e-34 -1.18806905e-26 2.0810996e-34 1.497885e-26
3.990719e-39 2.865327e-39 1.18806936e-26 2.0679774e-34 1.1712621e-37 -1.18806905e-26 -3e-45 -2.4299185e-19
6.0712877e-31 2.684847e-19 1.0809605e-31 -6e-45 2.4299185e-19 -5.9662457e-32 1.0799413e-29 -2.4299185e-19
6e-45 -6e-45 -6e-45 6e-45 -6e-45 -6e-45 -6e-45 6e-45
-6e-45 6e-45 -6e-45 -6e-45 -6e-45 -6e-45 -6e-45 -6e-45
6e-45 -6e-45 -6e-45 -6e-45 6e-45 6e-45 6e-45 -6e-45
6e-45 6e-45 -6e-45 6e-45 6e-45 -6e-45 6e-45 6e-45
-6e-45 -6e-45 -6e-45 6e-45 -6e-45 -6e-45 6e-45 -6e-45
6e-45 -6e-45 6e-45 6e-45 6e-45 -6e-45 6e-45 6e-45
6e-45 6e-45 5.4220793e-36 7.0476496e-38 -6e-45 -8.0190936e-38 4e-45 5.4220793e-36

exp_avg_sq f4 [40, 10]
00000000: 9b2a 231d 5cb8 c818 92e2 2816 0814 2f19
00000010: 6437 ac18 d71b 321d 02b7 061d e60b cd18
00000020: f4b9 5818 6737 4a18 5aa3 2c14 8515 d615
00000030: 7e31 1e13 51d3 cd16 43c2 7b16 745c bc16
00000040: 80fc 9114 cd51 8f15 4fcf 4416 c8a3 cf15
00000050: c976 1a19 1f1e 3718 0f8a 1317 9e4f 8b18
00000060: b2f7 8b15 aa32 1819 3bfc 0919 60c4 8018
00000070: d108 3016 993b d917 5876 a414 5638 8814
00000080: 9aed e113 e186 b214 ddbd d014 5825 d614
00000090: 0930 6514 0a64 b314 ff7c 0415 a980 9814
000000a0: 0268 5a19 e290 2812 0840 3319 51ea a712
000000b0: 6c1b ac18 ef92 0e19 086c 5a19 3ee0 fb12
000000c0: 7c8a 1e13 065b d618 d6a9 ae15 60b5 2714
000000d0: c3a1 8815 f771 dd14 4e2d 7b15 5af9 8915
000000e0: 0b35 b415 0c59 6a14 b584 d414 4d02 5415
000000f0: 7e10 c418 112b 0918 3ad1 0316 489b 1218
00000100: 7f4f e916 093b d618 4798 8318 b3a4 1618
00000110: 1dbd a216 74e6 a917 ae70 f819 85f9 a617
00000120: fcb1 8a14 9e22 b518 8828 9118 1916 111a
00000130: 4103 9b19 0105 9615 601f 9318 86de 2718
00000140: ccbc 0313 4a26 4412 0df1 eb12 2887 7212
00000150: f45b a512 9fae 3f12 63c4 4012 db94 a512
00000160: 0ae8 ad12 495a 9612 782a 0114 2fe0 fd14
00000170: 445b fc13 4fee d015 e9a7 bd15 ac34 b915
00000180: e96d 2b15 e67c 8615 5f74 b415 c1b9 3415
00000190: b428 a416 f413 b616 c2b5 d215 1281 0317
000001a0: a02c 0b17 24e2 8816 72e2 5f16 141d ce16
000001b0: f371 3c17 a54b e216 6dcc 9012 f87a 8313
000001c0: cce5 b112 563b f113 e81d 8613 36ee ce13
000001d0: 6fe0 1412 7aa5 ca12 7392 6913 591a 9d12
000001e0: 40c4 6d18 4a29 c517 1cfe 2e18 ea61 0218
000001f0: df1b f116 74fc 6818 3d58 a418 256a d517
00000200: 8130 1217 3e17 b016 a654 0415 3091 4c16
00000210: bd73 7a14 6b2f 2717 132b 1117 4882 2717
00000220: 43f3 8715 0b93 6616 d5b6 1417 749e 9816
00000230: 9a14 7d18 7ff0 b913 2ceb 1218 4e10 6e13
00000240: f201 eb17 5722 2b18 a4bb 7c18 24ce 8613
00000250: 4c60 2314 223c 0418 ba32 7a18 5fa3 d614
00000260: 969a 0618 aaa1 1815 7546 e917 12cf 2b18
00000270: d9d7 7918 23b7 2015 1bd8 3a15 d06e ff17
00000280: 51c2 0616 e59c ac14 66f3 c615 be54 3d15
00000290: 0dbf 1816 11e6 5d16 7c2e ea15 a41a 3415
000002a0: 692d cb15 1b54 e015 2916 6c15 7c3e 7b15
000002b0: df1b dc14 ed43 0816 ef7f 2916 afa6 2b16
000002c0: 4d5b 5c15 f0ff 7f15 14c3 5416 2bda 1316
000002d0: 4241 b813 c9cc 5813 9d15 ff12 9135 3613
000002e0: 7cd4 b113 9af6 6113 7048 1313 cb5a 0013
000002f0: db0d e713 e0fa 9f13 ec3b 2d15 539c e214
00000300: 8845 3614 5cae 8315 951c 1516 db00 0416
00000310: bb10 1a15 f3b5 6b15 7bfd 1b16 690a f015
00000320: 72a8 c918 807d 1619 6104 9e18 3d24 1e19
00000330: 55c8 6519 07d0 5b19 0a49 8418 5551 3f19
00000340: c486 8419 76dd 8a19 c9d2 f415 d363 6817
00000350: 3065 2b16 a135 1618 bc72 a216 25c3 0417
00000360: d41b b614 d4fc 1117 e66e 1b16 d3e5 c715
00000370: e8cd 2b18 d25b 8417 8fff 3917 7e20 7817
00000380: 537d 1618 bbbf 0b18 dc57 5218 6555 ac17
00000390: 3537 4617 387b c517 7749 191a 1990 b517
000003a0: 6193 fe16 7b96 8719 1b0a ed19 1ac9 851a
000003b0: 9881 b719 932c 6b18 52cc d419 e0cb 8019
000003c0: 57be 8c15 795a d014 d50c 5415 df3b 7f15
000003d0: 731c 8a15 3a4a 7315 f9aa b614 617b 0215
000003e0: daf7 b815 346a 6c15 2217 f417 54b2 0e17
000003f0: 7758 2f17 a28f 0318 1e49 a518 6fce 1f18
2.1594897e-21 5.1884944e-24 1.3642425e-25 9.051333e-24 4.451689e-24 2.3572497e-21 1.7829365e-21 5.3003272e-24
2.8011228e-24 2.613586e-24 8.715996e-27 8.6467863e-26 1.9966805e-27 3.3252896e-25 2.0336917e-25 3.0431384e-25
1.4740852e-26 5.78863e-26 1.5898169e-25 8.3865035e-26 7.985602e-24 2.3667403e-24 4.7672516e-25 3.601105e-24
5.653245e-26 7.868447e-24 7.1336715e-24 3.3285513e-24 1.4219949e-25 1.4038341e-24 1.6606447e-26 1.3754711e-26
5.703228e-27 1.8026607e-26 2.107752e-26 2.1623207e-26 1.1571019e-26 1.811384e-26 2.6755792e-26 1.5398825e-26
1.129134e-23 5.3190035e-28 9.267014e-24 1.0596945e-27 4.4488647e-24 7.370901e-24 1.12921526e-23 1.5895607e-27
2.0010682e-27 5.5409614e-24 7.0545994e-26 8.467115e-27 5.518518e-26 2.2360248e-26 5.0724785e-26 5.5727267e-26
7.278511e-26 1.1831542e-26 2.1458873e-26 4.2814874e-26 5.0681465e-24 1.7728578e-24 1.0648116e-25 1.8948455e-24
3.769335e-25 5.5377314e-24 3.4016467e-24 1.9470197e-24 2.629186e-25 1.0979544e-24 2.568811e-23 1.0790486e-24
1.4004641e-26 4.6822358e-24 3.7522548e-24 3.0003148e-23 1.6027939e-23 6.059241e-26 3.803029e-24 2.169659e-24
1.6627609e-27 6.189389e-28 1.4890009e-27 7.652833e-28 1.0435632e-27 6.048421e-28 6.0826583e-28 1.044966e-27
1.0975037e-27 9.488588e-28 6.521211e-27 2.5634896e-26 6.370374e-27 8.4386516e-26 7.660141e-26 7.4804007e-26
3.461988e-26 5.4319224e-26 7.288502e-26 3.6497245e-26 2.6521316e-25 2.9416278e-25 8.510509e-26 4.2491293e-25
4.4969647e-25 2.21147e-25 1.808525e-25 3.3299446e-25 6.08899e-25 3.6560008e-25 9.138072e-28 3.3190306e-27
1.122692e-27 6.0895463e-27 3.3855845e-27 5.2236605e-27 4.69772e-28 1.2788785e-27 2.948094e-27 9.914588e-28
3.0730613e-24 1.2741249e-24 2.2617265e-24 1.685154e-24 3.895324e-25 3.0112753e-24 4.2482104e-24 1.3791597e-24
4.7236365e-25 2.8449001e-25 2.6723964e-26 1.6524802e-25 1.26446e-26 5.402046e-25 4.6906394e-25 5.412505e-25
5.4909865e-26 1.8625651e-25 4.8052146e-25 2.4656922e-25 3.2709885e-24 4.6937713e-27 1.898879e-24 3.0047862e-27
1.518701e-24 2.211857e-24 3.266497e-24 3.4029626e-27 8.248388e-27 1.709096e-24 3.2337353e-24 2.1672916e-26
1.739714e-24 3.0823686e-26 1.5075058e-24 2.2205776e-24 3.229147e-24 3.2456212e-26 3.7732878e-26 1.6506962e-24
1.0885749e-25 1.7429446e-26 8.035558e-26 3.8235096e-26 1.2338747e-25 1.7924834e-25 9.4585187e-26 3.6371726e-26
8.206269e-26 9.0605575e-26 4.7677302e-26 5.0738338e-26 2.2225316e-26 1.1007426e-25 1.369208e-25 1.3865866e-25
4.450067e-26 5.169874e-26 1.718678e-25 1.1943407e-25 4.651248e-27 2.7364e-27 1.6098091e-27 2.299804e-27
4.4890607e-27 2.8520577e-27 1.8589723e-27 1.6200636e-27 5.832626e-27 4.0384625e-27 3.4984342e-26 2.2881827e-26
9.2023644e-27 5.318557e-26 1.2045143e-25 1.0663145e-25 3.111325e-26 4.7601405e-26 1.2600785e-25 9.695165e-26
5.212737e-24 7.780163e-24 4.0846464e-24 8.175727e-24 1.1879479e-23 1.13640454e-23 3.419495e-24 9.8908934e-24
1.3702912e-23 1.4358313e-23 9.8883376e-26 7.508924e-25 1.3845199e-25 1.9414121e-24 2.624492e-25 4.2897807e-25
1.838828e-26 4.717114e-25 1.2555794e-25 8.073806e-26 2.2205188e-24 8.553479e-25 6.0099284e-25 8.0174133e-25
1.9450318e-24 1.8062128e-24 2.7186221e-24 1.1136796e-24 6.404693e-25 1.2761931e-24 3.1699003e-23 1.1733226e-24
4.1128922e-25 1.4019451e-23 2.4509307e-23 5.533241e-23 1.8974099e-23 3.0395542e-24 2.200281e-23 1.3317234e-23
5.684585e-26 2.1038318e-26 4.2823182e-26 5.154407e-26 5.578264e-26 4.9132014e-26 1.844474e-26 2.635062e-26
7.470805e-26 4.77436e-26 1.577397e-24 4.6107756e-25 5.665721e-25 1.700387e-24 4.272533e-24 2.065449e-24

exp_avg f4 [40]
00000000: 27d8 baa8 771b 36a4 7313 1e2b 8263 a895
00000010: a6ce af9f 74ce b39f edc0 d80a 2260 3aa9
00000020: e4d5 4d1e a0ed 0013 acc4 a797 0400 0000
00000030: 7ae1 85a3 9c9a ab1e dd2a 3315 858d ca99
00000040: 8a9c 8ca0 05fc 6a9f 1b7e 9a14 8156 bc20
00000050: 0400 0000 0400 0000 0400 0080 0400 0080
00000060: 0400 0000 3266 ec84 0400 0000 0400 0080
00000070: 0400 0080 1ce4 841d 7ea1 3791 0400 0080
00000080: 4f05 eea4 92d0 211f da91 55a7 b326 83a5
00000090: d533 0ea5 d2e6 84a8 1c3a ecaa 1f77 9b9d
-2.074389e-14 -3.9488223e-17 5.615987e-13 -6.8011655e-26 -7.4457254e-20 -7.6151e-20 2.0872614e-32 -4.138368e-14
1.0896841e-20 1.627303e-27 -1.0841769e-24 6e-45 -1.4515382e-17 1.8169274e-20 3.6182575e-26 -2.094347e-23
-2.3820511e-19 -4.9759893e-20 1.5599766e-26 3.1905682e-19 6e-45 6e-45 -6e-45 -6e-45
6e-45 -5.5577185e-36 6e-45 -6e-45 -6e-45 3.517597e-21 -1.4485918e-28 -6e-45
-1.0322504e-16 3.42656e-20 -2.9638754e-15 -2.27511e-16 -1.2334098e-16 -1.4755046e-14 -4.1962343e-13 -4.1151327e-21

exp_avg_sq f4 [40]
00000000: 1cd4 031e 2a52 9717 8996 9e19 c3b8 d916
00000010: ea6b 6119 ed48 b316 e80f 4719 ae54 2d1a
00000020: 5441 bb15 335d 8717 3211 f517 9a36 8d14
00000030: 57aa db18 cd77 a817 ad75 8618 ce77 8a18
00000040: 2e56 b016 e884 db16 5f8d 1815 41e1 a516
00000050: f251 ee1a 62da 8418 6f83 2c1a eef1 c81a
00000060: c38c b917 bd9f 9619 4029 0a1a 1681 b219
00000070: b60c d217 e296 901b fc97 9418 fe17 061d
00000080: e410 3318 19c3 f316 0d51 9b18 b96a 161a
00000090: cb24 2219 7f81 9917 d66b 941a e509 0d19
6.9789454e-21 9.778887e-25 1.6397618e-23 3.5174842e-25 1.16540204e-23 2.8965032e-25 1.0291271e-23 3.5843965e-23
7.563177e-26 8.747697e-25 1.5837095e-24 1.4258898e-26 5.6782172e-24 1.0886988e-24 3.475701e-24 3.5793136e-24
2.848872e-25 3.5465234e-25 3.0807678e-26 2.6799343e-25 9.856688e-23 3.434171e-24 3.5674938e-23 8.310892e-23
1.1990878e-24 1.5574154e-23 2.8571053e-23 1.8456906e-23 1.3574141e-24 2.3920307e-22 3.841057e-24 1.7747156e-21
2.3143735e-24 3.9381891e-25 4.01484e-24 3.1105483e-23 8.382634e-24 9.920083e-25 6.1385584e-23 7.291527e-24

exp_avg f4 [40]
00000000: 27d8 baa8 7b1b 36a4 7413 1e2b 8263 a895
00000010: a7ce af9f 74ce b39f efc0 d80a 2360 3aa9
00000020: e4d5 4d1e 9fed 0013 acc4 a797 0400 0000
00000030: 7ae1 85a3 9c9a ab1e dd2a 3315 858d ca99
00000040: 889c 8ca0 05fc 6a9f 1c7e 9a14 8156 bc20
00000050: 0400 0000 0400 0000 0400 0080 0400 0080
00000060: 0400 0000 3266 ec84 0400 0000 0400 0080
00000070: 0400 0080 1be4 841d 7ea1 3791 0400 0080
00000080: 4f05 eea4 92d0 211f da91 55a7 b226 83a5
00000090: d533 0ea5 d2e6 84a8 1e3a ecaa 1f77 9b9d
-2.074389e-14 -3.9488236e-17 5.6159873e-13 -6.8011655e-26 -7.445726e-20 -7.6151e-20 2.0872617e-32 -4.1383682e-14
1.0896841e-20 1.6273028e-27 -1.0841769e-24 6e-45 -1.4515382e-17 1.8169274e-20 3.6182575e-26 -2.094347e-23
-2.3820506e-19 -4.9759893e-20 1.5599768e-26 3.1905682e-19 6e-45 6e-45 -6e-45 -6e-45
6e-45 -5.5577185e-36 6e-45 -6e-45 -6e-45 3.5175965e-21 -1.4485918e-28 -6e-45
-1.0322504e-16 3.42656e-20 -2.9638754e-15 -2.2751098e-16 -1.2334098e-16 -1.4755046e-14 -4.1962348e-13 -4.1151327e-21

exp_avg_sq f4 [40]
00000000: 1cd4 031e 2a52 9717 8996 9e19 c3b8 d916
00000010: ea6b 6119 ed48 b316 e80f 4719 ae54 2d1a
00000020: 5441 bb15 335d 8717 3211 f517 9a36 8d14
00000030: 57aa db18 cd77 a817 ad75 8618 ce77 8a18
00000040: 2e56 b016 e884 db16 5f8d 1815 41e1 a516
00000050: f251 ee1a 62da 8418 6f83 2c1a eef1 c81a
00000060: c38c b917 bd9f 9619 4029 0a1a 1681 b219
00000070: b60c d217 e296 901b fc97 9418 fe17 061d
00000080: e410 3318 19c3 f316 0951 9b18 b96a 161a
00000090: cb24 2219 7f81 9917 d66b 941a e509 0d19
6.9789454e-21 9.778887e-25 1.6397618e-23 3.5174842e-25 1.16540204e-23 2.8965032e-25 1.0291271e-23 3.5843965e-23
7.563177e-26 8.747697e-25 1.5837095e-24 1.4258898e-26 5.6782172e-24 1.0886988e-24 3.475701e-24 3.5793136e-24
2.848872e-25 3.5465234e-25 3.0807678e-26 2.6799343e-25 9.856688e-23 3.434171e-24 3.5674938e-23 8.310892e-23
1.1990878e-24 1.5574154e-23 2.8571053e-23 1.8456906e-23 1.3574141e-24 2.3920307e-22 3.841057e-24 1.7747156e-21
2.3143735e-24 3.9381891e-25 4.0148386e-24 3.1105483e-23 8.382634e-24 9.920083e-25 6.1385584e-23 7.291527e-24

exp_avg f4 [3, 10]
00000000: fe4e 5a3c 319a b0ad 5140 5d2d ecbe 1a2d
00000010: 9dfc 7c1f fe4e 5a3c e8a8 53bc 5829 5d2d
00000020: 050b c91e 2ac6 08ad fb4e 5abc 2a22 243b
00000030: 97f8 062e a5bf 85ba fae1 32a7 fb4e 5abc
00000040: 5da0 2a3c 8d04 072e 7fa1 24ab 2c22 243b
00000050: cc5f 4aad 3022 24bb ea77 ef28 b5bf 853a
00000060: ffe0 3227 cc5f 4aad 3022 243b feb0 3e27
00000070: 7ea1 242b 2e22 24bb
0.013324497 -2.0077358e-11 1.2576677e-11 8.79628e-12 5.3572032e-20 0.013324497 -0.012918688 1.2571576e-11
2.128626e-20 -7.774706e-12 -0.0133244945 0.0025044777 3.0688865e-11 -0.0010204209 -2.4824964e-15 -0.0133244945
0.01041421 3.0699488e-11 -5.8488625e-13 0.0025044782 -1.1503642e-11 -0.0025044791 2.6586335e-14 0.0010204228
2.4824433e-15 -1.1503642e-11 0.0025044791 2.6463744e-15 5.848862e-13 -0.0025044787

exp_avg_sq f4 [3, 10]
00000000: 24bd 523b d275 761d 57c7 461c 2ed3 7b1d
00000010: 07b9 801c 24bd 523b 99a1 333b 4ce9 2b1c
00000020: 9a74 991c 9a4e 131c 23bd 523b d287 343b
00000030: 2efe 881d 3634 533b 1c97 731c 23bd 523b
00000040: 5cec 163b 5e05 0320 759b a71c d387 343b
00000050: 9f7c b71d d187 343b af8a 4d1b 3534 533b
00000060: 8127 cf1a 7965 101d d287 343b 33c2 fd1f
00000070: 9be4 0c1b d487 343b
0.0032156194 3.261874e-21 6.5770345e-22 3.332875e-21 8.518158e-22 0.0032156194 0.0027409552 5.6880683e-22
1.0154831e-21 4.873981e-22 0.0032156191 0.0027546776 3.6261716e-21 0.0032227165 8.059726e-22 0.0032156191
0.0023029065 1.1097907e-19 1.1091318e-21 0.0027546778 4.856855e-21 0.0027546773 1.7002014e-22 0.0032227163
8.5677015e-23 1.9110701e-21 0.0027546776 1.07470943e-19 1.1654395e-22 0.002754678

exp_avg f4 [3]
00000000: 59f5 8abc da09 603c 5a83 573b
-0.016962694 0.013674224 0.0032884688

exp_avg_sq f4 [3]
00000000: 00d9 9a3b b019 823b 819f 9b3b
0.0047255754 0.0039703473 0.004749239
