results/baseline_lstm_task4_seed42/model_lstm_ntask4_nchar5_seed42.pt (torch, 21247 bytes, 21 tensors)

embedding.weight f4 [5, 10]
00000000: 70a2 c83e c8be 83c0 7711 3940 30af bdc0
00000010: 354f 11c0 bf9a a33f c04d 9a40 bdd5 8c40
00000020: afe0 85c0 8548 0a41 b43c 26c0 3785 983e
00000030: b188 e2bf fff3 82bf a1fe 9ec0 51e9 1d40
00000040: 6bfb 75c0 84a4 d240 f3a4 85c0 4472 debf
00000050: eb02 63c0 2b54 ad3f 7f8f 90c0 0fbc 1e40
00000060: 57b9 773f 31b1 5c40 201c 5a3f e570 a93f
00000070: fc68 4ec0 eccf fbbf 4b6f adbf c815 843f
00000080: 2934 14c0 ff47 d1bf 9430 2840 bebe 1441
00000090: 1d16 f1be 1bed 7340 fce4 aac0 dfa8 fd3f
000000a0: 2ff9 34c0 c377 a6bd a9e0 87bf fc4e 99bf
000000b0: 9c12 b13f a23b 8c40 0e8a 46bf b476 6a40
000000c0: 6406 31c0 0e9f ef3d
0.3918643 -4.1170387 2.891691 -5.927635 -2.2704594 1.27816 4.821991 4.401091
-4.183677 8.642705 -2.597455 0.29789135 -1.7697965 -1.0230712 -4.9685826 2.4673655
-3.8434703 6.5825825 -4.1763854 -1.7378621 -3.547053 1.3541311 -4.5175166 2.4802282
0.9676718 3.448315 0.85199165 1.3237578 -3.2251577 -1.9672828 -1.3549589 1.0319147
-2.3156836 -1.6350096 2.627965 9.296568 -0.47087184 3.8113468 -5.340452 1.981716
-2.827709 -0.081283115 -1.0615436 -1.1977229 1.3833804 4.3822794 -0.77554405 3.663495
-2.766015 0.11700259

lstm.weight_ih_l0 f4 [40, 10]
00000000: 569a a240 69c3 40c0 eeb8 4a40 9c26 97c0
00000010: 7432 1940 0173 5dc0 782d a33e c349 12c0
00000020: 55c8 5a40 f852 8abf d05a f1bf 15f0 a83c
00000030: 2ecd 9bc0 cb96 e23f 1971 6540 dbf5 3840
00000040: dc85 8dbf f7f3 2340 bae1 2fc0 b88e 8dc0
00000050: 77c8 2a40 ee9d 6d3f a104 a33f 4f57 1ac0
00000060: 46d0 0640 6dab 82c0 7b72 7f3f 6924 41c0
00000070: 3e48 2b40 39cd 973f b644 8d40 7af8 ffbf
00000080: 17dd da3f 8104 6dc0 24d1 6b40 ce21 a040
00000090: faf1 1840 36ad 9140 6813 9ec0 a471 0740
000000a0: d3de ae40 1122 71c0 6007 3bbf b9ca a03e
000000b0: 69f4 9440 6a84 39c0 252e 9c3f 04dd 94bf
000000c0: bf78 2240 d6ab 03c0 4e57 e9c0 a117 f340
000000d0: de7d 3fc0 5adf ef40 3d54 dec0 eadd d9bf
000000e0: daac e5c0 aecb 62c0 d841 c23f 3bfe 6dbf
000000f0: 892f 973f beca ccbf fb39 9640 5e9e babf
00000100: 5288 65bf bb0f 0dc0 2409 3c40 c9e4 f5bf
00000110: 85fa 2040 e3ec 4a40 8ef9 46c0 fe36 a440
00000120: 4fd2 9840 69d8 10bf 8d10 84c0 ef4d 9dbf
00000130: fb4c 6240 7ceb 1fc0 22c4 d73f fb71 9440
00000140: 0cbe 613f 774f 313e 0ec3 25bf 84af 74bf
00000150: 5eb5 37bf 34cf 13c0 2e6e f8be 42cb 2bbf
00000160: 66fb 113f 8bc7 3cbf 0b47 42c0 5ca6 11bf
00000170: 83a1 963f dd11 91be a630 1abf b5f2 2240
00000180: 9874 25be f17d ba3f 0505 43bf c3d7 ec3f
00000190: 70a9 96bf a675 0840 f3f1 06c0 a3a6 2a40
000001a0: e6c7 49c0 17f4 8f3f 500f 27c0 7f44 c83f
000001b0: 2703 b5bf c596 62bf 0865 443e 0e1f 20c0
000001c0: d8b5 9cc0 103b 333f f571 7740 e79f cd3e
000001d0: 2cf9 80c0 31b8 85be 9033 53bf ea7f 8ac0
000001e0: d9c3 cebe 7846 253f affc d33e 938f 343f
000001f0: 8ef8 9cbf 8619 d2bf 5be4 513f eeed 9cbf
00000200: 7ff3 c13f f485 603f bb85 7a40 19c7 dabf
00000210: 3b53 6940 b33c 2640 30fd 4c40 5c8d 5bc0
00000220: 02c8 4240 dbab 3ac0 3064 4f40 d81d 9240
00000230: b3d2 0440 62ef c9bf 70d0 c3bf 780f b3bf
00000240: 854e 0d40 3d7a 1340 a41a a6bf 9059 ba3f
00000250: 9037 0ac0 8cff afbf fd29 0ac0 c9aa f0bf
00000260: 9b0b 28c0 1383 bb40 2bd3 9740 7f3d 6bbf
00000270: d2fe 8840 83ba 3cc0 92e2 ef3e 4198 e4bf
00000280: 80ec 8e40 aa3b 5fc0 164d 1fbf 006c 87bf
00000290: d667 3d40 56e8 6ebf 9b8c 42c0 c96b fe3d
000002a0: 98ee 3c3f 1f3e 8fc0 d135 85bf afce 35be
000002b0: 1a0b 20be 6c71 3c3f 4987 12be 52db 6e40
000002c0: 539d 1d40 add9 8e3f 3611 6abf aaa0 9f3f
000002d0: bfcb bbbe 8f0b 423f e35f 61bf e854 823f
000002e0: 4a13 143f 1ee9 07bf 7d59 213f 6da5 4fbf
000002f0: ade6 063f aff2 d5be 8a7b 0ebf 12a7 b63f
00000300: b4e9 c03f f57e abc0 752f 8240 1722 3540
00000310: b7b0 4d40 e24e eebe 4539 86bf 3686 4d41
00000320: 7fb8 23bf 46dd 583f cf2b 1d3f 8914 163f
00000330: 752c d0bf be84 5bc0 e266 81bf 05e1 44c0
00000340: 53f5 6740 5048 88be 93c5 94bf f2dc e03f
00000350: 62ac 4dc0 ab35 c13f 64c1 6bbf 18fe 3840
00000360: 043c a63f 6a2b 3540 cb1f 54c0 55eb e8bf
00000370: fb10 0c3e 9536 22bb 9f74 e83e ac62 19bf
00000380: 0f9f 553e 5a04 19bf b670 233f 2b6c abbe
00000390: 15a8 1a3f 403b 043f 9135 223f 681a d9be
000003a0: 198b 90bf c9f8 d3be 4b17 253f 25a8 a73f
000003b0: 9d7d cabd f0e2 023f 394a b1bf fc91 c13e
000003c0: 06a7 b8bf e848 6f3f 4774 ae3f cf96 2f3f
000003d0: 479b d6bf 81b7 d3bf 0790 bf3f 1718 aabf
000003e0: a80b 1540 ba35 853d add4 34c0 aab7 5140
000003f0: 984b 9940 c2ee 11c0 82bd 94c0 906f 0bbf
5.08134 -3.011927 3.1675372 -4.723463 2.3937044 -3.4601443 0.31870627 -2.285752
3.4184773 -1.080657 -1.8855839 0.020622293 -4.8687963 1.7702268 3.585028 2.8900058
-1.1056476 2.5617654 -2.7481523 -4.4236717 2.6684854 0.92819107 1.2735788 -2.411579
2.106462 -4.083426 0.9978406 -3.0178473 2.6762843 1.1859504 4.4146376 -1.9997704
1.7098721 -3.7034 3.68464 5.0041265 2.389769 4.552394 -4.939869 2.116311
5.4647 -3.7677042 -0.7305813 0.31404665 4.654835 -2.898707 1.2201582 -1.1629949
2.5386198 -2.057363 -7.2919073 7.5966344 -2.9920573 7.4960146 -6.947783 -1.7020848
-7.17735 -3.5436816 1.5176344 -0.9296605 1.1811382 -1.5999372 4.6945777 -1.457958
-0.89661133 -2.204085 2.938058 -1.9210445 2.5152905 3.1707084 -3.1089816 5.131713
4.7756724 -0.56580216 -4.1270204 -1.2289408 3.5359485 -2.4987478 1.685673 4.6389136
0.88180614 0.1731547 -0.64750755 -0.95580316 -0.7176112 -2.3095217 -0.4852156 -0.6710702
0.5702423 -0.7374198 -3.035586 -0.5689447 1.176804 -0.2833394 -0.6023048 2.5460637
-0.16157758 1.4569684 -0.76179534 1.8503345 -1.1770458 2.1321807 -2.1085174 2.6664207
-3.1528258 1.1246365 -2.6103096 1.5645903 -1.4141587 -0.88511306 0.19179165 -2.5018954
-4.8971977 0.70012 3.8663304 0.40161058 -4.0304165 -0.2611709 -0.82500553 -4.3281145
-0.40383795 0.6456065 0.4140372 0.70531577 -1.2263353 -1.6414039 0.8198907 -1.226011
1.5152434 0.87704396 3.9144123 -1.709201 3.645705 2.5974548 3.2029533 -3.430503
3.0434575 -2.9167392 3.24049 4.566143 2.07536 -1.5776179 -1.5297985 -1.3989096
2.2079175 2.3043358 -1.297688 1.4558582 -2.1596413 -1.3749862 -2.1588128 -1.880212
-2.6257083 5.8597503 4.7445273 -0.9189071 4.281106 -2.9488838 0.46852547 -1.7858964
4.4663696 -3.4880166 -0.62227 -1.0579834 2.9594626 -0.93323267 -3.0398319 0.12422902
0.73801565 -4.476333 -1.0407048 -0.17754625 -0.15629235 0.7361057 -0.1430942 3.7321362
2.4627273 1.1160179 -0.9143251 1.2470906 -0.36678883 0.75798887 -0.88036937 1.0182161
0.5784193 -0.53090084 0.63027173 -0.81111795 0.52695733 -0.41786715 -0.55657256 1.4269736
1.507132 -5.3592477 4.068293 2.8302057 3.2139108 -0.46544558 -1.0486227 12.845266
-0.63953394 0.84712636 0.6139497 0.58625084 -1.6263567 -3.429977 -1.0109522 -3.076234
3.6243484 -0.2661767 -1.1622795 1.7567427 -3.2136464 1.5094503 -0.92091966 2.8905087
1.2987065 2.8307748 -3.3144405 -1.8196818 0.13678353 -0.0024751772 0.45401475 -0.59916186
0.20861457 -0.59772265 0.6384386 -0.33480963 0.6041272 0.5165291 0.63362986 -0.4240296
-1.1292449 -0.41400746 0.6448867 1.3098189 -0.0988724 0.5112753 -1.3850776 0.3780669
-1.4425972 0.9347062 1.3629235 0.6858949 -1.6766137 -1.6540376 1.4965829 -1.3288602
2.3288364 0.06504388 -2.8254807 3.276835 4.7904778 -2.2801976 -4.6481333 -0.54467106

lstm.weight_hh_l0 f4 [40, 10]
00000000: 5043 f9be f3ee 183e 6013 89be 1f05 303f
00000010: b15b 9abe 507f 25bf 7423 bd3e 4bf1 273f
00000020: 73f9 013f b007 98be 3a01 c9bd 4b33 83be
00000030: 856b 27bf 2082 2c3f af38 60bf dec9 85be
00000040: 5a00 4f3f a76e a3be 601e 1d3f ae30 6cbe
00000050: 8be1 a03f 8481 cdbf 6098 9640 dba4 9dbf
00000060: f452 1240 2d51 fe3f 7224 cebe c3e6 39bc
00000070: d4ed 90bf 0e23 b53f 7f46 16bf d5b8 0b3f
00000080: 771d 5abf ce87 8440 6516 88bf 88f2 75bf
00000090: 3692 193f 0cfa 713f c355 2f3f d967 15bf
000000a0: a2c5 9c3f 37e5 49bf 3359 f7bd f22c 1ebf
000000b0: 12f7 80be 7fcc 10bf 1419 96bf 378a 75bf
000000c0: 2201 03bf c1f1 6c3f 239d 083f 8c6c b1be
000000d0: fe08 3e3b c298 d9bd f4de 97bd 971b 7a3e
000000e0: 1b4f 8abe c5ae a6bd 5b86 19be 50ed b63e
000000f0: f3d1 4d3f c0fd d43e ba0b c53e 9cc2 343e
00000100: a0a9 d3bf 7f92 c43f 0696 383f bbf9 e7bf
00000110: ad06 183c 81f7 a0bd c513 853f f520 0cbf
00000120: af54 cebd b9b4 8bbe d677 a4be dd8c cbbd
00000130: 06b3 953d 2c4b 763e b966 70bf 58b3 c03c
00000140: 42ce 053f 996f 21bf 6b4f afbe 6db3 a03d
00000150: cb3d 9b3e e7e9 273e 0b11 cfbd 1057 f8bc
00000160: 5571 653e baa4 50be 2334 143f a0a2 58bf
00000170: 9862 87be 363a cc3e 2bdc 27bf 0e63 01bf
00000180: 764d 89be 816d 18bf bcd6 2cbf 6bb8 a03e
00000190: 5ba9 f4be ab63 913e c029 2cbf 9e6d 113f
000001a0: 662f 03bf dda5 b0be ba61 b83e 86b4 b73e
000001b0: 636c 003f bd14 c5be 12bb 05c0 7a12 60be
000001c0: 8e66 d3be 55fe 983e b2d3 6c3f 85b8 cfbf
000001d0: 3d9b ebbe 1c78 0c40 ff5c 093f c203 cdbf
000001e0: 1789 8a3f 5a77 a6bf 0985 bd3e 22a3 8dbf
000001f0: 585e 603f d301 853f 7b64 78bf 562c 89bf
00000200: 25f8 9dbf 1d1f 3d3f 818a a03f be99 9f3f
00000210: 0113 5ebf 74b2 dabf 8709 d4bf de29 09c0
00000220: 9aa4 b640 89da c0bf dd60 663f 679d 96bf
00000230: 6f78 3b3f 5d28 ebbe d11b 02bf 355b ee3d
00000240: 27c2 c4be 6c8a 74be 26a8 953d 264e 323d
00000250: 6f53 a2be 7c24 02bc d7c5 3a3e d810 68be
00000260: ce1a b73e 1ad3 25bf 331c ea3d 4a6e 1f3c
00000270: 6fb0 ba3d 1a76 753f dce1 7cbe cc66 923e
00000280: 34d5 37bf f739 d03e c4fa 263f efc4 273e
00000290: 87e9 913f 32f8 b73f 7975 03c0 58a9 a73f
000002a0: 225c 8abe e862 2ec0 4bba f73e 2f55 e2be
000002b0: 67d5 8abf e0fa db3c 15f8 53bf 17a3 04bf
000002c0: b744 9e3e bac2 0c3f f0a2 09bf 08a6 afbe
000002d0: ccf2 ab3e 7e13 d2be 9086 b0be 2364 2c3f
000002e0: 8f44 f3be 8217 17be d94f 203e 3ae2 903e
000002f0: 4257 943e cb3c fcbe 15a6 ea3e c798 22bf
00000300: 363a dc3d 5932 97bf f307 953e 72b4 ed3e
00000310: 69a4 f7be 0915 cc3f 3ae4 65bf 6a4c e8bd
00000320: 548f b73e 0c7c eabe 8329 2f3f b8ad 21bf
00000330: 446f 3e3f a1f6 3b3f 3fcc ffbe ae17 57bf
00000340: 5670 17bf 5eec e63e f33a 66bf b42b 233f
00000350: a2d1 e9be 1b5f 1d3f 8da8 76bf 5807 1dbf
00000360: 48d1 343f 5f15 063f 0d44 f73e b425 38bf
00000370: 5031 21bd 12a3 92bd 3b65 64bf 7c97 1ebe
00000380: 9655 153f 4482 1b3f 55ec c5be 057b a7be
00000390: a108 f7bc d325 d93e de92 ff3e 5b6b 99be
000003a0: a955 43bf c95f 5f3f 34bc 21bf 48d4 48bf
000003b0: 01a6 553f d389 733f 1156 c3be a4c3 80bf
000003c0: 6c5b 4abf be08 553f 9a45 f13e 114e ae3d
000003d0: 7190 413f d558 573f 0883 76bf 0f8a 23bf
000003e0: e4e9 163f 0280 973e 57a6 59bf f060 a83b
000003f0: 57c3 f03e 35ad 263e f1f6 3b3f 477c 303f
-0.48684168 0.14934902 -0.26772594 0.68757814 -0.3014808 -0.6464739 0.3694111 0.6560256
0.50771254 -0.29693365 -0.09814687 -0.2562507 -0.65398437 0.67386055 -0.8758649 -0.26130575
0.8085991 -0.3192036 0.61374474 -0.23065445 1.256883 -1.605515 4.7061005 -1.2315935
2.286313 1.9868523 -0.4026218 -0.011346522 -1.1322579 1.4151323 -0.5870132 0.54578906
-0.8520121 4.1415777 -1.0631834 -0.960732 0.59988725 0.94522166 0.68490237 -0.58361584
1.2247813 -0.7886538 -0.1207756 -0.6178733 -0.251885 -0.56562036 -1.1726403 -0.95914024
-0.51173604 0.9255639 0.5336477 -0.34653127 0.002899706 -0.10624839 -0.07415572 0.24424587
-0.27013478 -0.081388034 -0.14992659 0.3572793 0.8039848 0.41599846 0.3848551 0.17652363
-1.653614 1.5357207 0.7210392 -1.8123087 0.009278935 -0.078597076 1.0396658 -0.5473779
-0.10074746 -0.27286318 -0.32122678 -0.09938977 0.07309537 0.24052113 -0.9390674 0.023523018
0.5226785 -0.6306091 -0.3424028 0.07846723 0.30320582 0.1639782 -0.101106726 -0.030314952
0.22406514 -0.20375338 0.57892054 -0.84623146 -0.2644241 0.3988816 -0.65570325 -0.5054177
-0.2681691 -0.5954209 -0.6751516 0.313907 -0.47785458 0.28396353 -0.67251205 0.5680789
-0.512442 -0.34501544 0.3601206 0.35879916 0.50165385 -0.38492385 -2.0895429 -0.21882048
-0.4128918 0.2988154 0.9251052 -1.6228186 -0.46016875 2.194831 0.53657526 -1.6016772
1.0823087 -1.3005173 0.3701556 -1.1065409 0.8764396 1.0391182 -0.9702832 -1.0716655
-1.2341353 0.738756 1.2542268 1.2468793 -0.8674775 -1.708571 -1.6565408 -2.1431804
5.707593 -1.5066692 0.8999155 -1.1766785 0.7323064 -0.45929232 -0.50823694 0.1163849
-0.38429376 -0.23880929 0.073074624 0.04353156 -0.3170428 -0.007943269 0.18239532 -0.22662675
0.35762638 -0.6477524 0.1143116 0.009730885 0.09115683 0.95883334 -0.24695534 0.28594053
-0.718097 0.40669224 0.6522639 0.16383718 1.1399392 1.4372618 -2.054045 1.3098555
-0.27023417 -2.7247868 0.48384318 -0.44205615 -1.0846375 0.026853025 -0.8280042 -0.51811355
0.309118 0.5498463 -0.5376425 -0.3430636 0.33583677 -0.41030496 -0.34477663 0.67340297
-0.47513244 -0.14755061 0.1565546 0.28297597 0.28972822 -0.4926513 0.45829836 -0.6351437
0.1075329 -1.181224 0.29107627 0.4642673 -0.48367622 1.594392 -0.8980137 -0.113427
0.35851538 -0.45797765 0.68422717 -0.631557 0.7438853 0.734232 -0.49960515 -0.8402051
-0.59155786 0.4510221 -0.899337 0.6373856 -0.4566775 0.61473244 -0.9635094 -0.6133933
0.7063184 0.5237636 0.48294106 -0.7193253 -0.03935367 -0.071600094 -0.89216965 -0.15487474
0.5833372 0.60745645 -0.3865687 -0.32711044 -0.030155482 0.4241167 0.49916738 -0.29964718
-0.7630258 0.8725553 -0.631778 -0.78448915 0.83456427 0.9513218 -0.381516 -1.0059705
-0.7904575 0.83216465 0.47123414 0.08510984 0.75611025 0.8411992 -0.9629369 -0.63882536
0.5895064 0.2958985 -0.8501944 0.005138509 0.47024032 0.1627701 0.7342368 0.6893963

lstm.bias_ih_l0 f4 [40]
00000000: fc60 a1c0 6321 7740 f5b4 9cc0 d9bc 7040
00000010: edea e5bf 3477 0ebf bb58 39bf e718 00bf
00000020: d7b7 45c0 0a22 a340 5991 1840 5996 29bf
00000030: 63f6 80bd fe50 bcbe 5522 663e cec0 fbbe
00000040: 8fb3 0ac0 0ed9 a240 769a d93e 3bd2 6840
00000050: af9d 94bf 8e08 b13f 0722 33bf bdc7 2a3f
00000060: f47b 09bf 6c6b 653f 6eda 5c3f 377c 9c3f
00000070: e816 dd3e c5f1 70c0 be16 09c0 658e cdbf
00000080: afab babf f025 b2c0 6ac4 53c0 3f2d 06c1
00000090: dcda 05c0 c4ea 3cc0 45e2 8fbf f18d 94c0
-5.043089 3.8614128 -4.8970895 3.7615263 -1.7962319 -0.5565064 -0.72401017 -0.50038
-3.0893457 5.097905 2.3838713 -0.6624504 -0.062969945 -0.36780542 0.22474034 -0.49170536
-2.1672094 5.088996 0.42500657 3.6378314 -1.1610621 1.3830736 -0.69973797 0.66711026
-0.5370476 0.8961704 0.862708 1.2225407 0.4318154 -3.7647564 -2.142013 -1.605908
-1.4583644 -5.567131 -3.3088632 -8.386046 -2.091483 -2.951829 -1.1240927 -4.642327

lstm.bias_hh_l0 f4 [40]
00000000: fc60 a1c0 6521 7740 f5b4 9cc0 d6bc 7040
00000010: edea e5bf 3477 0ebf bd58 39bf ef18 00bf
00000020: d7b7 45c0 0922 a340 5a91 1840 5b96 29bf
00000030: 63f6 80bd fe50 bcbe 5d22 663e cec0 fbbe
00000040: 8fb3 0ac0 0ed9 a240 769a d93e 3cd2 6840
00000050: af9d 94bf 8c08 b13f 0822 33bf bdc7 2a3f
00000060: f57b 09bf 6f6b 653f 6eda 5c3f 377c 9c3f
00000070: e616 dd3e c5f1 70c0 be16 09c0 648e cdbf
00000080: adab babf f025 b2c0 67c4 53c0 3f2d 06c1
00000090: dcda 05c0 c7ea 3cc0 45e2 8fbf f08d 94c0
-5.043089 3.8614132 -4.8970895 3.7615256 -1.7962319 -0.5565064 -0.7240103 -0.50038046
-3.0893457 5.0979047 2.3838716 -0.6624505 -0.062969945 -0.36780542 0.22474046 -0.49170536
-2.1672094 5.088996 0.42500657 3.6378317 -1.1610621 1.3830733 -0.699738 0.66711026
-0.5370477 0.89617056 0.862708 1.2225407 0.43181533 -3.7647564 -2.142013 -1.6059079
-1.4583641 -5.567131 -3.3088624 -8.386046 -2.091483 -2.9518297 -1.1240927 -4.6423264

output_proj.weight f4 [5, 10]
00000000: 0bd7 1e40 544e af3f f027 a03f f4bc 713f
00000010: 9819 fbbf 4af2 4dc0 0052 8ac1 30a0 e140
00000020: a444 29bf 9705 843f 46ed f2bf 26a3 66bf
00000030: cb3a 24c0 8a8e 1cbe f2e7 c63e 7165 af3e
00000040: 7087 8a3f d1a9 313f a59b 833e fecf 3740
00000050: 1409 893f 41e8 53be f1ae 033f 6677 193f
00000060: fe94 b03f 0cc0 0ec0 b977 9c3c dee8 40bc
00000070: 6306 91bd 37c6 8240 cde1 d2bd 83a9 e63e
00000080: c188 a03e 8e99 d9bf ea7c d2be c870 1f40
00000090: c8d4 c03e da2a 803e 5995 d13d 07e2 fbc0
000000a0: 21bd 743f 1d4a 1cbe 6165 ec3f 4cd8 d83e
000000b0: e3a0 bfbf e9ac 9f40 c842 05bf fa00 78bf
000000c0: f63e a53e 4b6a 9340
2.4818752 1.3695779 1.2512188 0.94428945 -1.9617186 -3.2179132 -17.29004 7.050804
-0.6612036 1.0314206 -1.897866 -0.90092695 -2.5660884 -0.1528875 0.38848835 0.3425708
1.0822582 0.69399744 0.25704685 2.8720698 1.0705895 -0.20694067 0.51438814 0.5994781
1.3795469 -2.2304716 0.019100057 -0.01177427 -0.07081296 4.086696 -0.10296974 0.45051202
0.31354335 -1.6999986 -0.41110927 2.4912586 0.3766234 0.25032693 0.10233564 -7.871341
0.9560109 -0.15262647 1.8468438 0.4235252 -1.4970974 4.989857 -0.52055025 -0.9687649
0.32274598 4.606725

output_proj.bias f4 [5]
00000000: c30c a4bf 6e97 553e be40 0d3e 23ec 3f3d
00000010: b13e 443e
-1.2816395 0.20858547 0.13794228 0.046856057 0.1916454

exp_avg f4 [5, 10]
00000000: 360f 88a9 5c3d b428 1190 f3a8 23f8 5f29
00000010: c24c f1a7 0e40 ab29 cb31 17a8 37ca 5529
00000020: 646e 7ca9 5631 1928 e6f1 e629 2cdc 03aa
00000030: 46e0 17aa 7af3 99a8 d25d aa29 49e4 48a9
00000040: 7551 e1a9 cf2b 2c29 d060 c6a8 e76f 17aa
00000050: 64cf 35a8 deaa 0f28 1dce 79a8 e520 64a8
00000060: bc28 a328 5798 0f29 5ffc 0e29 d191 8929
00000070: 86a2 0aa9 9327 8a29 99a9 b3a2 0a01 8d23
00000080: 10dc 0723 1e79 4da3 d4af 2b22 6089 39a3
00000090: ad24 b823 71b3 80a3 1479 6e23 532a 5323
000000a0: e82d 8faa 8a25 ec2a d156 db2a 75e1 40a9
000000b0: d720 beaa 78fd e2a9 4844 a22a dda9 66aa
000000c0: 8723 1b2a 8ac5 d42a
-6.042252e-14 2.0010625e-14 -2.7040898e-14 4.973117e-14 -6.697416e-15 7.605037e-14 -8.392981e-15 4.7470894e-14
-5.605099e-14 8.503904e-15 1.02560145e-13 -1.1711525e-13 -1.3489305e-13 -1.7092003e-14 7.565792e-14 -4.4606927e-14
-1.0006138e-13 3.822967e-14 -2.2024402e-14 -1.3450318e-13 -1.0092489e-14 7.9751455e-15 -1.386697e-14 -1.2663675e-14
1.8114301e-14 3.1884512e-14 3.174923e-14 6.109317e-14 -3.0783122e-14 6.135296e-14 -4.8697616e-18 1.528769e-17
7.364965e-18 -1.113872e-17 2.3267904e-18 -1.005796e-17 1.9964853e-17 -1.3953784e-17 1.2927645e-17 1.14472954e-17
-2.5433757e-13 4.194807e-13 3.8962456e-13 -4.2828117e-14 -3.3773567e-13 -1.0080386e-13 2.882436e-13 -2.0487037e-13
1.3779092e-13 3.7795835e-13

exp_avg_sq f4 [5, 10]
00000000: 8587 2e1b fd7c 5d1d 5e18 3f1c 024c 441c
00000010: 7767 d61b 1353 461c a979 101b 485a c81d
00000020: c27f 961d 93d8 2a1c c3e3 ec1a 04b5 de19
00000030: 9ac0 c11a b589 181c 8fe6 6a1a 62b4 551c
00000040: c7c0 041b 0a67 681c 8268 831c e486 0e1c
00000050: 95f6 3d1a 4bd0 871a 38ba f219 7d1f e91a
00000060: a345 d419 90db 351a 38a2 a81a f2d2 5f1a
00000070: 4165 c919 3912 571a e408 5c1a 32ff d31a
00000080: 7994 7b1b 2764 221b 6e10 8f1a 5544 9819
00000090: 69c6 431b c128 f71a 2771 0c1a 630c 5f1c
000000a0: 4408 f81b b1a1 631c 0cb1 ab1d e31c ea1a
000000b0: 9029 bb1a b4e7 a41d e06c 591d a846 9b1d
000000c0: 9219 931d bbc6 ec1c
1.4436731e-22 2.9313724e-21 6.3228093e-22 6.49492e-22 3.5470193e-22 6.5620075e-22 1.1950711e-22 5.3032908e-21
3.9836768e-21 5.6528197e-22 9.797528e-23 2.3027374e-23 8.0134094e-23 5.0470563e-22 4.857631e-23 7.070893e-22
1.0981074e-22 7.6895536e-22 8.695867e-22 4.71582e-22 3.928347e-23 5.6171207e-23 2.5097427e-23 9.6417413e-23
2.1948412e-23 3.7607284e-23 6.974525e-23 4.628572e-23 2.0823809e-23 4.4475678e-23 4.5502115e-23 8.7679845e-23
2.0810207e-22 1.3432687e-22 5.916996e-23 1.574403e-23 1.6194132e-22 1.0222265e-22 2.9042725e-23 7.380052e-22
4.10335e-22 7.531698e-22 4.5446385e-21 9.68268e-23 7.7408535e-23 4.3650014e-21 2.8775998e-21 4.1101215e-21
3.8937015e-21 1.5668541e-21

exp_avg f4 [40, 10]
00000000: 4225 8ea7 88ad 3a29 021e 03a9 3c63 8629
00000010: d3e5 cd28 39d2 67a8 71a4 5aa9 be8e 47a9
00000020: 0eb3 3d29 27f1 c3a9 4c42 9411 d7b4 4293
00000030: 9ac1 0813 d52a 8c93 bfc0 d692 92ca 7112
00000040: af0b 6413 dc23 5013 a2db 4593 785e cc13
00000050: 3db4 131f 4afa c1a0 943e 8820 8aa4 0ba1
00000060: fef2 55a0 e8e2 f01f 3131 e320 715c cf20
00000070: 131e c5a0 ac9a 4b21 0bd1 5712 07c8 a491
00000080: 816e 8912 27e8 1692 f581 6b91 11cf 5192
00000090: b95a 4f91 c215 a191 2b3b 4412 eb64 ef11
000000a0: 6355 d69c 0f83 0ca1 8fe2 a820 6148 48a1
000000b0: 0f01 99a0 b149 6d20 a62f 2e21 cc7c 2121
000000c0: ea43 21a1 9d38 9521 7ebd 8a0d cc4d ff0a
000000d0: 4c57 d00c 3e10 eb0c 7bc0 078d fc03 d78d
000000e0: c935 980c b5bf b38d cab6 870d 88ac 378b
000000f0: 28d4 a280 e6ad 0480 3120 3d80 f7f7 4480
00000100: 83a8 4f00 3d58 fc00 46a8 2c80 5af4 d200
00000110: 6c46 9f80 0bbd 0600 cd0a 3baa ba4f 84a8
00000120: fd4d 39a9 58dc a8a9 c502 822a 2db6 a62a
00000130: 5049 fc28 a34e 1e2a 0024 0baa c548 6c29
00000140: 94ee c2a9 caa7 7f29 25b3 c7a9 a7d8 1d29
00000150: 3ff5 15aa 6612 8e29 44cb 49aa ed87 332a
00000160: 3cc3 bda9 b89e 2eaa 0400 0080 0400 0080
00000170: 0400 0080 0400 0000 0400 0080 0400 0080
00000180: 0400 0080 0400 0000 0400 0080 0400 0080
00000190: 0400 0000 0400 0000 0400 0080 0400 0080
000001a0: 0400 0000 0400 0000 0400 0000 0400 0000
000001b0: 0400 0080 0400 0000 5af5 959e 3e99 031d
000001c0: c028 499e 0fe1 ec9d f828 099f b793 911e
000001d0: 469b d79e f1c8 3a1f 76d4 ed9e 7940 419e
000001e0: 1903 a7a0 2d0b ff1f ebb5 d4a0 0994 6920
000001f0: b050 b61f fc5c a220 a883 a01f 4a40 f91f
00000200: c3d9 97a0 aa41 39a0 0600 0000 0100 0000
00000210: 0400 0000 0400 0000 0400 0080 0a00 0080
00000220: 0400 0000 0800 0080 0600 0000 0100 0080
00000230: 3798 a119 36fc 599b b988 181b 07e2 9c9b
00000240: 855b f09a 8497 881a a7b3 7f1b 4878 691b
00000250: 8e40 5e9b 8fdf e41b b409 0091 13b5 6c8e
00000260: 9d24 4090 c1db 5890 4c6c 7a10 7b4e 4611
00000270: 7475 0c90 e2d8 2511 515a fa90 497d a80e
00000280: 379e ce05 6390 3603 a370 1b05 3f58 2e05
00000290: d764 4a85 f30c 2086 cbbc e304 90b4 0586
000002a0: 11da c905 5bf9 8083 0400 0080 0400 0080
000002b0: 0400 0080 0400 0000 0400 0080 0400 0000
000002c0: 0400 0080 0400 0000 0400 0080 0400 0080
000002d0: 7652 a426 e938 fd24 ec6d 9925 8ed0 3926
000002e0: 6b3b 22a6 a194 fea6 28fc e225 443c e6a6
000002f0: 6b40 9b26 e66f 04a5 f7e6 cb14 0eaf 1b94
00000300: 4bd8 0115 5a93 8e94 c481 de93 073a c694
00000310: b2e7 c393 8a31 1894 0766 b914 d92d 6214
00000320: 0400 0080 0400 0080 0400 0080 0400 0000
00000330: 0400 0080 0400 0080 0400 0080 0400 0000
00000340: 0400 0080 0400 0080 abca f191 57c5 9e13
00000350: 3e08 5f93 6498 e413 131e 2f13 622a c592
00000360: f2f4 b993 9fb9 a993 3857 a113 68a6 2694
00000370: 8f2b a617 9d3a 5a99 1e47 1919 d919 9d99
00000380: 7ab2 f098 4580 8718 8898 7f19 1849 6919
00000390: dec2 5d99 120f e519 0400 0000 0400 0080
000003a0: 0400 0000 0400 0080 0400 0000 0400 0000
000003b0: 0400 0000 0400 0000 0400 0080 0400 0000
000003c0: 0400 0000 0400 0080 0400 0000 0400 0080
000003d0: 0400 0000 0400 0000 0400 0000 0400 0000
000003e0: 0400 0080 0400 0000 b1e1 a98b 7849 1c89
000003f0: 3e1a ff8a 9be9 0f8b b138 260b 75a3 030c
-3.9453312e-15 4.145081e-14 -2.911387e-14 5.96801e-14 2.2859242e-14 -1.2868661e-14 -4.8548354e-14 -4.4310685e-14
4.2121736e-14 -8.701573e-14 2.3391141e-28 -2.4575403e-27 1.7261066e-27 -3.5383204e-27 -1.3552814e-27 7.629588e-28
2.8783406e-27 2.627097e-27 -2.4973183e-27 5.1589993e-27 3.127755e-20 -3.28611e-19 2.3080707e-19 -4.73128e-19
-1.8122201e-19 1.0201934e-19 3.8487848e-19 3.5128337e-19 -3.3393e-19 6.898378e-19 6.8099703e-28 -2.5997914e-28
8.673157e-28 -4.7617804e-28 -1.8578277e-28 -6.6204e-28 -1.6357377e-28 -2.541473e-28 6.1919625e-28 3.7769747e-28
-1.4183404e-21 -4.76073e-19 2.861023e-19 -6.785843e-19 -2.5919909e-19 2.0099063e-19 5.9016555e-19 5.471409e-19
-5.4638805e-19 1.0111618e-18 8.550525e-31 2.458487e-32 3.2100014e-31 3.6217258e-31 -4.1831777e-31 -1.3251357e-30
2.345168e-31 -1.10778785e-30 8.364022e-31 -3.5374316e-32 -1.4953458e-38 -4.29725e-40 -5.613513e-39 -6.333767e-39
7.315455e-39 2.3174199e-38 -4.101127e-39 1.9373111e-38 -1.4627106e-38 6.18829e-40 -1.6612684e-13 -1.468952e-14
-4.1145896e-14 -7.498922e-14 2.309456e-13 2.9613933e-13 2.8009414e-14 1.4060502e-13 -1.235817e-13 5.2465644e-14
-8.6567174e-14 5.6766908e-14 -8.868452e-14 3.504892e-14 -1.3318945e-13 6.3092584e-14 -1.7922908e-13 1.5945552e-13
-8.427154e-14 -1.5509371e-13 -6e-45 -6e-45 -6e-45 6e-45 -6e-45 -6e-45
-6e-45 6e-45 -6e-45 -6e-45 6e-45 6e-45 -6e-45 -6e-45
6e-45 6e-45 6e-45 6e-45 -6e-45 6e-45 -1.5877464e-20 1.741693e-21
-1.0649278e-20 -6.2701385e-21 -2.9044767e-20 1.5413566e-20 -2.282823e-20 3.9553247e-20 -2.5181223e-20 -1.02306676e-20
-2.829295e-19 1.0801519e-19 -3.603458e-19 1.9784848e-19 7.7213484e-20 2.75054e-19 6.798044e-20 1.0556196e-19
-2.5724498e-19 -1.5691836e-19 8e-45 1e-45 6e-45 6e-45 -6e-45 -1.4e-44
6e-45 -1.1e-44 8e-45 -1e-45 1.6708489e-23 -1.8031313e-22 1.2617323e-22 -2.5954102e-22
-9.940953e-23 5.649307e-23 2.1151154e-22 1.9312173e-22 -1.8384268e-22 3.7863907e-22 -1.010041e-28 -2.917643e-30
-3.789353e-29 -4.276778e-29 4.9387235e-29 1.564363e-28 -2.7700614e-29 1.3083037e-28 -9.874677e-29 4.1535843e-30
1.9430266e-35 5.365074e-37 7.308753e-36 8.197649e-36 -9.516516e-36 -3.010217e-35 5.3540822e-36 -2.5147176e-35
1.8982054e-35 -7.580413e-37 -6e-45 -6e-45 -6e-45 6e-45 -6e-45 6e-45
-6e-45 6e-45 -6e-45 -6e-45 1.1402137e-15 1.0981767e-16 2.6615755e-16 6.4467413e-16
-5.6285567e-16 -1.7665076e-15 3.9375618e-16 -1.5975791e-15 1.0772746e-15 -1.1487088e-16 2.0588861e-26 -7.860024e-27
2.6221968e-26 -1.4396456e-26 -5.6168637e-27 -2.0015779e-26 -4.945339e-27 -7.683809e-27 1.8720469e-26 1.1419126e-26
-6e-45 -6e-45 -6e-45 6e-45 -6e-45 -6e-45 -6e-45 6e-45
-6e-45 -6e-45 -3.8148e-28 4.00794e-27 -2.815062e-27 5.770556e-27 2.2102933e-27 -1.2442896e-27
-4.69421e-27 -4.2844634e-27 4.072812e-27 -8.413676e-27 1.0738494e-24 -1.1282173e-23 7.924277e-24 -1.624386e-23
-6.221876e-24 3.50262e-24 1.32139945e-23 1.2060579e-23 -1.1464785e-23 2.3684132e-23 6e-45 -6e-45
6e-45 -6e-45 6e-45 6e-45 6e-45 6e-45 -6e-45 6e-45
6e-45 -6e-45 6e-45 -6e-45 6e-45 6e-45 6e-45 6e-45
-6e-45 6e-45 -6.5436015e-32 -1.8812362e-33 -2.4565478e-32 -2.7716543e-32 3.2013087e-32 1.0141061e-31

exp_avg_sq f4 [40, 10]
00000000: 4dac 8017 3312 6616 d7ac 9017 1ccb 7617
00000010: deab 2c17 d2f6 fb18 bbb8 0817 1563 0b18
00000020: 89be 9b18 96f2 8b17 98ee 8216 857e f816
00000030: a59a 4217 7ce4 9816 04a1 0b16 e8c1 ff17
00000040: fcbb 1718 9301 2518 abe5 2018 6b16 7617
00000050: 94f3 f414 e1c1 4915 b7bc 1e16 aaac 9315
00000060: ffb4 c515 f179 7615 6c09 db16 0e85 c416
00000070: dec9 3016 8ecb 3916 2004 cd11 3335 400f
00000080: 31b0 7f13 23b2 fb12 1ec4 310f 14b1 6313
00000090: adeb 8613 4b84 0b13 972c de12 c9e5 f414
000000a0: 21f2 fe13 6f8b 7c13 38d3 de14 2ee6 a112
000000b0: 3fdf 7714 9623 5f15 2029 2014 a056 9114
000000c0: d728 0315 f565 2f15 1bc0 521b 2941 e219
000000d0: 0408 981c d168 d91b 8471 7f19 2e3c 6f1b
000000e0: dc3d aa1b b746 d11a 02d8 9f1a 9766 b31d
000000f0: f1a0 3016 410d 8a15 727c d115 bb46 0c16
00000100: 2b8c 0516 6cff 1f15 3adc 8e14 adbb b514
00000110: 1511 5815 881f 8616 0beb b019 9253 8c17
00000120: 6919 0d1a 513f a718 ab9e c919 ee07 521a
00000130: 2d85 0418 ccac 191a c7e3 ab19 7b62 9d1a
00000140: 0553 dc17 b5a9 5115 d024 3a17 91a8 0017
00000150: c588 d318 25ea d217 7be2 5d18 1c49 3d19
00000160: 329d 9d18 ede0 2517 ecbe 1c17 1d6e 1817
00000170: 5a89 b518 fd25 f417 25a1 a917 a383 1c18
00000180: 6400 ba17 2bf9 2e18 7d14 bf18 012c 3818
00000190: 26e1 fb13 e68f 1215 f6e2 3714 8697 f214
000001a0: 429b 6c13 b53d 9315 3371 1d15 2abf 7415
000001b0: a169 8815 939b 5814 4c58 1716 d654 c515
000001c0: 7bf1 ea16 d31c 7f16 289d 1a16 c76c c916
000001d0: c09a 8c16 33dc 8416 9ea7 9f16 55a8 2718
000001e0: e7bd d410 a11a e510 22b8 d610 fba9 7110
000001f0: 85c8 c010 6b64 1311 e9dc 6310 86bf fe10
00000200: ca1d bb10 a6e9 4c10 22cd 4817 7ad9 8114
00000210: a60f 8017 c612 8315 c0f7 6517 68bc 7e18
00000220: 1d5a 9117 d442 7518 d0af 0d18 4db6 7917
00000230: 7776 c314 979b ca15 7e33 7f15 40a4 de15
00000240: 701f 9e15 827d 7513 9a3e d715 f28b 1b15
00000250: 073e 3d15 f20e ba15 412e e918 f14f a316
00000260: bb5b 2c1a 1cb9 a718 172e a617 ea43 ee19
00000270: b600 9f18 5b23 9019 f845 f719 4535 8c19
00000280: 8b76 2517 b79e 3816 42e3 ea16 e631 9915
00000290: 45cb d514 a589 aa18 6be4 8c15 ae6e ff16
000002a0: 8b6b 2818 66ba e616 77d4 3616 7c90 b115
000002b0: e55c 6b16 7663 f015 1f84 1416 79a3 1716
000002c0: e586 4915 174d 1b16 840e c915 5503 8416
000002d0: f550 7310 73cf ce10 d421 990f 96d6 8a10
000002e0: 70c0 9c0f 8aa8 4512 0be6 4610 5b5e 1f12
000002f0: 5794 1912 91e0 130f 5ea3 5118 4c49 d718
00000300: c1fe 7619 95cc 1919 6b25 4418 6d39 651b
00000310: aec9 381a e16e e81a e31e 291b 248a 4119
00000320: e6b8 4014 73a4 a715 1403 6014 69d8 8915
00000330: 7b35 5b14 1c7e a014 1b58 cf13 8406 8614
00000340: 2502 9413 f4ae 2414 ee23 b718 564f 6b17
00000350: 5e5d 8218 b117 9718 0462 c417 a9d1 cc17
00000360: 6d83 f216 0561 1c16 1385 a417 72a4 d617
00000370: 78de 4614 7998 9614 d985 5b14 d7f7 4814
00000380: bbe3 8614 4a90 8314 3415 8214 2cdc bc14
00000390: b062 3714 06fe d713 9fd5 2d13 067d 9b11
000003a0: ad58 3e10 60e7 fd10 5ea2 3013 1c20 3d12
000003b0: 4cbe de10 6537 7411 ca86 5511 3598 9d12
000003c0: e31e 2914 4b1a c414 116f 7114 2d34 dc14
000003d0: b55e d214 a2cc 7913 84e6 d414 5774 3614
000003e0: c182 4d14 e6b4 ce14 7a5b 9e16 9d23 3516
000003f0: 53b0 2e18 e7cd d515 dce9 ff17 146c a216
8.315301e-25 1.8584995e-25 9.349413e-25 7.9743247e-25 5.5793124e-25 6.5131204e-24 4.4177133e-25 1.8015353e-24
4.0258952e-24 9.043902e-25 2.1153207e-25 4.0146406e-25 6.287997e-25 2.4701118e-25 1.1279138e-25 1.6527938e-24
1.96112e-24 2.1326545e-24 2.0795468e-24 7.951518e-25 2.4733778e-26 4.074457e-26 1.2822686e-25 5.964524e-26
7.985323e-26 4.97755e-26 3.5387304e-25 3.1749477e-25 1.4280865e-25 1.5008412e-25 3.234584e-28 9.476577e-30
3.2272394e-27 1.5884241e-27 8.7645446e-30 2.8738734e-27 3.405875e-27 1.7609492e-27 1.4021162e-27 2.4728338e-26
6.435737e-27 3.1875618e-27 2.2499583e-26 1.0217272e-27 1.2514341e-26 4.5062564e-26 8.086046e-27 1.4675426e-26
2.6487456e-26 3.54214e-26 1.7432865e-22 2.339417e-23 1.0060588e-21 3.5967375e-22 1.3206115e-23 1.9789062e-22
2.8164117e-22 8.655462e-23 6.610984e-23 4.748698e-21 1.4267951e-25 5.575867e-26 8.461077e-26 1.1331429e-25
1.0787884e-25 3.2311287e-26 1.44252e-26 1.8350354e-26 4.3634328e-26 2.1668767e-25 1.8292907e-23 9.068384e-25
2.9178643e-23 4.323242e-24 2.0846998e-23 4.3433388e-23 1.7127837e-24 3.1779243e-23 1.7772984e-23 6.509278e-23
1.4238124e-24 4.234109e-26 6.0146305e-25 4.157179e-25 5.4680324e-24 1.3630038e-24 2.8677924e-24 9.785835e-24
4.0742276e-24 5.359827e-25 5.0647296e-25 4.925283e-25 4.6926093e-24 1.577772e-24 1.0962048e-24 2.0228987e-24
1.2020067e-24 2.261477e-24 4.939303e-24 2.3803659e-24 6.358332e-27 2.959798e-26 9.283899e-27 2.4495521e-26
2.9863936e-27 5.9470184e-26 3.1795196e-26 4.942621e-26 5.5096616e-26 1.0935895e-26 1.2225544e-25 7.9701514e-26
3.7957135e-25 2.0607831e-25 1.2489611e-25 3.254195e-25 2.271588e-25 2.1464715e-25 2.5793617e-25 2.166923e-24
8.3911847e-29 9.03656e-29 8.469182e-29 4.7659818e-29 7.6039596e-29 1.1627199e-28 4.493804e-29 1.00480424e-28
7.380439e-29 4.0411902e-29 6.48824e-25 1.311145e-26 8.275756e-25 5.29401e-26 7.4306595e-25 3.2923851e-24
9.393153e-25 3.1699247e-24 1.8312585e-24 8.0686335e-25 1.9736694e-26 8.183263e-26 5.153746e-26 8.9924227e-26
6.386529e-26 3.0985228e-27 8.6936576e-26 3.1412398e-26 3.8217177e-26 7.514838e-26 6.0275793e-24 2.638452e-25
3.5642866e-23 4.33554e-24 1.0739133e-24 2.4636053e-23 4.1101255e-24 1.4903531e-23 2.5567462e-23 1.4497176e-23
5.3464e-25 1.4913483e-25 3.794816e-25 6.1874934e-26 2.158768e-26 4.4082956e-24 5.690593e-26 4.126732e-25
2.1767786e-24 3.7276138e-25 1.4768885e-25 7.1717687e-26 1.9012461e-25 9.709215e-26 1.1997035e-25 1.2249266e-25
4.069804e-26 1.2545126e-25 8.1206155e-26 2.1327853e-25 4.7985667e-29 8.15723e-29 1.5099995e-29 5.4762024e-29
1.5456912e-29 6.236998e-28 3.9225833e-29 5.0287856e-28 4.846113e-28 7.2909095e-30 2.7095096e-24 5.565021e-24
1.2769349e-23 7.95123e-24 2.5351298e-24 1.8960991e-22 3.8213224e-23 9.6132086e-23 1.3989332e-22 1.00057634e-23
9.7299876e-27 6.771022e-26 1.1309717e-26 5.5675294e-26 1.10672216e-26 1.6205613e-26 5.2341025e-27 1.3533112e-26
3.7362567e-27 8.3143875e-27 4.734067e-24 7.603273e-25 3.369849e-24 3.9056507e-24 1.2690946e-24 1.3236117e-24
3.918015e-25 1.2632194e-25 1.0631844e-24 1.3870938e-24 1.004032e-26 1.520627e-26 1.1083071e-26 1.0146297e-26
1.3620366e-26 1.3284532e-26 1.3135009e-26 1.9069991e-26 9.2586016e-27 5.4524117e-27 2.1940993e-27 2.453174e-28
3.7539206e-29 1.00147394e-28 2.2294376e-27 5.967746e-28 8.785676e-29 1.9265276e-28 1.6844272e-28 9.945615e-28
8.538411e-27 1.9801313e-26 1.21892946e-26 2.2234903e-26 2.1241936e-26 3.152911e-27 2.1497452e-26 9.211596e-27
1.0375642e-26 2.0872036e-26 2.5584007e-25 1.4632301e-25 2.2577994e-24 8.635487e-26 1.6538023e-24 2.6240718e-25

exp_avg f4 [40, 10]
00000000: 0400 0080 9eae 3695 0b00 0000 fefc 3080
00000010: 1ff7 5b0a 874c cf83 187f c081 187f c001
00000020: fedf 6116 a76f 1f09 0400 0080 2b31 1200
00000030: 0400 0080 0400 0000 0000 0080 0400 0080
00000040: 0400 0000 0400 0080 e3e1 1180 0100 0000
00000050: 0d00 0000 5e8e 740d 0400 0000 4200 0000
00000060: 4ee5 9a82 37d7 0000 e490 de89 e490 de09
00000070: acd0 138f 906b 5581 0200 0080 2103 0580
00000080: 0400 0000 0400 0000 0400 0000 0400 0000
00000090: e831 258d e831 250d a9c0 0000 0400 0000
000000a0: 1a3b 8f89 bf0f 9d0d 8e32 6401 75b8 0600
000000b0: bc2a 7482 b96f 0080 d1ef cf1d d1ef cf9d
000000c0: 3594 698c adbb 8881 0b00 0080 4a06 0000
000000d0: 0400 0080 0400 0000 0400 0080 0400 0080
000000e0: 397e 4a0c 397e 4a8c 6904 0080 0400 0080
000000f0: 0400 0000 0400 0080 0400 0000 0400 0080
00000100: 0400 0000 0400 0000 3402 0080 3402 0000
00000110: 0400 0000 0400 0000 0400 0000 e424 2896
00000120: 0c00 0000 79f1 bc80 263d f70a b653 bb04
00000130: 0f00 b902 0f00 b982 0264 fc16 99df 1d0a
00000140: 9c3d 3094 982a 9497 1f56 140d 4c73 a008
00000150: 3bca d20b 6de3 ca05 689f 1a28 689f 1aa8
00000160: 72b4 0918 4a36 960b 0400 0080 0400 0080
00000170: 0400 0000 0400 0080 0400 0000 0400 0080
00000180: 0400 0000 0400 0080 0400 0000 0400 0000
00000190: 0400 0080 0400 0000 0400 0080 0400 0080
000001a0: 0400 0080 0400 0080 0400 0080 0400 0000
000001b0: 0400 0080 0400 0080 7eed 6088 2ea9 a10a
000001c0: 9d19 3001 d100 0000 0414 6680 0400 0080
000001d0: 1435 4580 1435 4500 74c8 2c88 e0b9 0280
000001e0: c843 cf01 4b56 1584 2df6 2000 771d 4a00
000001f0: df02 0000 0400 0080 976f 8f1f 976f 8f9f
00000200: ffa9 dc8c 1400 0000 0400 0000 0400 0000
00000210: 0400 0000 0400 0000 0400 0080 0400 0000
00000220: 0200 0000 0200 0080 0400 0080 0400 0080
00000230: 4ee8 cf80 59cf c207 7f00 0000 0400 0000
00000240: a180 0080 0900 0080 fe8b 1b15 fe8b 1b95
00000250: 7bb3 5806 9c2a 0080 8f02 0080 55f6 0000
00000260: 0100 0000 0400 0000 0100 0000 0400 0000
00000270: 0400 0000 0400 0000 cb46 0080 0400 0000
00000280: 0400 0080 0400 0080 0400 0080 0400 0080
00000290: 0400 0000 0400 0080 1192 de84 1192 de04
000002a0: 0200 0080 0400 0000 0400 0080 0400 0000
000002b0: 0400 0000 0400 0000 0400 0080 0400 0080
000002c0: 0400 0000 0400 0080 0400 0080 0400 0080
000002d0: 7b1a c50d d5d9 3711 1a2c 7283 7ed8 c300
000002e0: d8a7 3283 bc46 2380 f464 3d20 f464 3da0
000002f0: 7e68 fa91 ab98 2185 4d4c 0c00 e8b4 2681
00000300: 0d00 0000 0300 0080 0c00 0000 0400 0080
00000310: ef7d 4c11 ef7d 4c91 fa86 2e00 0100 0000
00000320: 0400 0080 0400 0080 0400 0000 0400 0000
00000330: 0400 0000 0000 0000 0400 0080 0400 0000
00000340: 0300 0080 0400 0080 0300 0080 44ab 1d80
00000350: 0400 0000 0400 0080 0100 0080 0400 0000
00000360: 0400 0080 0400 0000 f329 1d00 0100 0080
00000370: 0400 0000 bb90 0906 0400 0080 0400 0000
00000380: c715 0080 0400 0000 3967 1080 3967 1000
00000390: 874b a687 c103 0080 0400 0000 0400 0000
000003a0: 0100 0080 0400 0000 0400 0080 0400 0080
000003b0: 0400 0080 0400 0080 0400 0000 0400 0000
000003c0: 0400 0080 0400 0000 0400 0080 0400 0000
000003d0: 0400 0000 0400 0080 0400 0000 0400 0080
000003e0: 0400 0080 0400 0000 0100 0000 5e00 0080
000003f0: 0400 0080 0400 0000 0400 0080 0400 0000
-6e-45 -3.6892356e-26 1.5e-44 -4.49886e-39 1.0590945e-32 -1.2183936e-36 -7.071203e-38 7.071203e-38
1.8246035e-25 1.9191428e-33 -6e-45 1.670677e-39 -6e-45 6e-45 -0.0 -6e-45
6e-45 -6e-45 -1.642236e-39 1e-45 1.8e-44 7.5359673e-31 6e-45 9.2e-44
-2.275988e-37 7.7205e-41 -5.358081e-33 5.358081e-33 -7.287848e-30 -3.9199094e-38 -3e-45 -4.603e-40
6e-45 6e-45 6e-45 6e-45 -5.0904623e-31 5.0904623e-31 6.9113e-41 6e-45
-3.4481577e-33 9.679663e-31 4.1913257e-38 6.17184e-40 -1.7938553e-37 -4.0079e-41 5.504041e-21 -5.504041e-21
-1.7994267e-31 -5.022781e-38 -1.5e-44 2.256e-42 -6e-45 6e-45 -6e-45 -6e-45
1.5599498e-31 -1.5599498e-31 -1.582e-42 -6e-45 6e-45 -6e-45 6e-45 -6e-45
6e-45 6e-45 -7.9e-43 7.9e-43 6e-45 6e-45 6e-45 -1.3582573e-25
1.7e-44 -1.7351697e-38 2.3808236e-32 4.4040365e-36 2.718334e-37 -2.718334e-37 4.077591e-25 7.601329e-33
-8.8978795e-27 -9.575028e-25 4.5709686e-31 9.656756e-34 8.119334e-32 1.9079532e-35 8.583283e-15 -8.583283e-15
1.7797937e-24 5.7859583e-32 -6e-45 -6e-45 6e-45 -6e-45 6e-45 -6e-45
6e-45 -6e-45 6e-45 6e-45 -6e-45 6e-45 -6e-45 -6e-45
-6e-45 -6e-45 -6e-45 6e-45 -6e-45 -6e-45 -6.768672e-34 1.5567374e-32
3.234447e-38 2.93e-43 -9.374401e-39 -6e-45 -6.35569e-39 6.35569e-39 -5.1995e-34 -2.5035e-40
7.613705e-38 -1.755449e-36 3.027047e-39 6.806397e-39 1.03e-42 -6e-45 6.0747466e-20 -6.0747466e-20
-3.399868e-31 2.8e-44 6e-45 6e-45 6e-45 6e-45 -6e-45 6e-45
3e-45 -3e-45 -6e-45 -6e-45 -1.9093283e-38 2.9311744e-34 1.78e-43 6e-45
-4.6143e-41 -1.3e-44 3.1412435e-26 -3.1412435e-26 4.0756946e-35 -1.5285e-41 -9.18e-43 8.8367e-41
1e-45 6e-45 1e-45 6e-45 6e-45 6e-45 -2.5396e-41 6e-45
-6e-45 -6e-45 -6e-45 -6e-45 6e-45 -6e-45 -5.232609e-36 5.232609e-36
-3e-45 6e-45 -6e-45 6e-45 6e-45 6e-45 -6e-45 -6e-45
6e-45 -6e-45 -6e-45 -6e-45 1.2147437e-30 1.4503279e-28 -7.1168034e-37 1.7985585e-38
-5.2502174e-37 -3.239617e-39 1.6042325e-19 -1.6042325e-19 -3.9507444e-28 -7.598224e-36 1.129398e-39 -3.0619179e-38
1.8e-44 -4e-45 1.7e-44 -6e-45 1.6131569e-28 -1.6131569e-28 4.272853e-39 1e-45
-6e-45 -6e-45 6e-45 6e-45 6e-45 0.0 -6e-45 6e-45
-4e-45 -6e-45 -4e-45 -2.724668e-39 6e-45 -6e-45 -1e-45 6e-45
-6e-45 6e-45 2.678278e-39 -1e-45 6e-45 2.5873167e-35 -6e-45 6e-45
-7.812e-42 6e-45 -1.506397e-39 1.506397e-39 -2.5021295e-34 -1.347e-42 6e-45 6e-45
-1e-45 6e-45 -6e-45 -6e-45 -6e-45 -6e-45 6e-45 6e-45
-6e-45 6e-45 -6e-45 6e-45 6e-45 -6e-45 6e-45 -6e-45
-6e-45 6e-45 1e-45 -1.32e-43 -6e-45 6e-45 -6e-45 6e-45

exp_avg_sq f4 [40, 10]
00000000: 5ccd f610 c817 5211 fe42 bd12 f9d1 0013
00000010: bfbf ce12 7368 ce12 02f4 e312 3912 e212
00000020: d8a1 1112 4b33 f312 f01a 1d12 e057 c512
00000030: bdbb 5613 4f32 8f13 510b 8313 75d8 8c13
00000040: 09e0 9013 f362 cb13 fbf5 a012 11e4 a113
00000050: 3ba2 1c12 91e0 8d12 da31 a612 57c9 4112
00000060: fac9 2312 f03e f811 2bb4 de11 3694 e011
00000070: 7dbe 4812 bcc5 2212 20d4 330d 424d a00d
00000080: cff7 4e0d 3c4d 8710 aa1c 950e c772 530e
00000090: c2bf 2d0e 9b94 760e 7c07 150d c67d 450e
000000a0: 4a43 6010 9262 1b11 8c9d 380e 196e 8810
000000b0: c6e2 b810 a716 2010 0ffc ca0f dbf1 810f
000000c0: 6296 4910 39ec 3510 0dc5 6b10 f27c 1211
000000d0: fa6d 940d 9096 8b10 ceae 8c0f 4ffc 770f
000000e0: 6616 8d0f 5846 150f 7b25 6610 50ec 1010
000000f0: 6f46 4d13 f405 1313 34f6 8d0f 3e9c a510
00000100: 4b4f e412 9094 2c13 f6d1 0113 5094 8113
00000110: 473e a110 5c75 0912 82d1 1a0f 5cf8 0b10
00000120: 4598 b90c 06b2 660f 00f5 020f 5336 f00e
00000130: 9c5a c30e 5dcd 1d0e c281 e30e 44c1 460f
00000140: 8df3 3f10 0e3e 2111 e8cd 2610 a116 0611
00000150: 34d9 0211 edfd f210 4d9a c812 baca c512
00000160: 3e94 0e10 19c6 0b11 c674 600e b801 1a0f
00000170: 169d e90d 4e3b c20e 24a2 180f e37a 4d0e
00000180: 8330 210e 59bd 5a0e 7f04 6b0e e3f3 810e
00000190: 8dd3 ed10 d2c6 2d11 2867 ed12 33fe 1a13
000001a0: 9c3d fb12 045a fb12 1039 0c13 c540 0a13
000001b0: 800b 2e12 0cbb 1313 53e2 0415 0b78 bb14
000001c0: f385 9f13 7752 d013 97ff d314 6c5f d414
000001d0: 3d6a e714 72dd 3615 77b3 e812 eaa4 2315
000001e0: de4e 2b12 9263 8612 e2f1 7f10 0466 3512
000001f0: bfdb ff11 3f80 b511 8604 b911 6a59 be11
00000200: faa1 5812 4f56 0c12 9d66 cb0c b01c 8f0c
00000210: 3f64 120c bf36 e416 ed5b 260d b36b 240c
00000220: 270f 8b15 c60e 8b15 e7c3 c60a 705c a30c
00000230: a696 b50f 8d7e 7810 e648 980e fc07 bb0f
00000240: 53b7 0411 75f6 1110 8e9e 4e0f d308 fa0e
00000250: 1230 aa0f 8d7e 780f defc 8810 922a 2711
00000260: c61b 490d 0797 8f10 d0f6 9a0f 7fc1 690f
00000270: 811a 8c0f aa18 b910 f7ae 8610 e9aa 0a10
00000280: 1ed9 7e13 e435 8b11 17ad ef0f b3f0 3511
00000290: 7326 c112 bc42 c412 8c1d 9214 b6d8 ff13
000002a0: f758 4911 eb7c b012 9875 4a0f b910 1610
000002b0: f199 330d 06a8 300f d49f 640f bd39 810f
000002c0: cfd0 9b0f 6066 e10e 0a6a 490f 59cd 680f
000002d0: 94b1 810e ac2d 950f 3c3f 680f db01 d50f
000002e0: ce37 1010 adc3 f10f 314f c90f c84c b60f
000002f0: 7b25 e60e 1db7 ea0f f03e 780e fc58 2c0f
00000300: 57df 240e fdab 270f a19f 2b0f c477 4c0e
00000310: e525 3b0e 9464 a70e 1e02 550e a697 b60e
00000320: bc74 c212 842b 1b13 71e6 c014 1b3f 0015
00000330: 6269 fb14 cfd6 dc14 b48a e914 f484 e614
00000340: 5774 0e14 12f9 f414 6727 8e13 8c1e 2314
00000350: 0d6e 8715 e1d2 ad15 a537 2916 c50c c615
00000360: 3762 a915 90e7 a115 5d98 c214 8f34 a615
00000370: ca43 eb15 5194 0d16 490b 8713 c51b c815
00000380: 9e4c e315 e94b 9015 f3ed 7a15 608a 9e15
00000390: 8ec2 f615 939b d815 7fe2 c710 f2a6 3012
000003a0: 07dc f011 44f2 8f10 d6ac 9014 bd8b 9f13
000003b0: eb08 8f12 f87d 1a12 c3ac 3110 96bd af11
000003c0: 0235 3411 678b ca12 fc14 1b12 95c6 f010
000003d0: 86d5 0615 1b20 1814 a23c 0b13 cdba 7b12
000003e0: f97f 2d11 cb2e c411 b82f be10 222e be11
000003f0: ad54 ab10 7868 a310 3c35 b313 0730 cc12
9.73463e-29 1.6573407e-28 1.1944092e-27 1.6259396e-27 1.3047697e-27 1.3026176e-27 1.4385867e-27 1.4267097e-27
4.595342e-28 1.5348101e-27 4.957367e-28 1.2454111e-27 2.710316e-27 3.6147883e-27 3.3080208e-27 3.555441e-27
3.6571626e-27 5.1341976e-27 1.0158058e-27 4.0867005e-27 4.9424885e-28 8.953711e-28 1.0488362e-27 6.114823e-28
5.1682686e-28 3.916629e-28 3.5136461e-28 3.543231e-28 6.3343667e-28 5.1361913e-28 5.541397e-31 9.87936e-31
6.377694e-31 5.336711e-29 3.675894e-30 2.6063021e-30 2.1416224e-30 3.0393392e-30 4.592318e-31 2.4342682e-30
4.4228048e-29 1.2257718e-28 2.2755607e-30 5.3812174e-29 7.2924603e-29 3.1571887e-29 2.0015827e-29 1.2813541e-29
3.975611e-29 3.5877935e-29 4.649738e-29 1.1555871e-28 9.14768e-31 5.505781e-29 1.3872398e-29 1.2226633e-29
1.3912301e-29 7.359815e-30 4.5388376e-29 2.858104e-29 2.5909364e-27 1.8556944e-27 1.3998507e-29 6.5321754e-29
1.440837e-27 2.17827e-27 1.6385608e-27 3.2710426e-27 6.3599256e-29 4.3374234e-28 7.633136e-30 2.7604246e-29
2.8595407e-31 1.13741616e-29 6.45668e-30 5.921688e-30 4.8158465e-30 1.9450623e-30 5.6084773e-30 9.799375e-30
3.7855733e-29 1.2719783e-28 3.2896352e-29 1.0577709e-28 1.0322123e-28 9.5843404e-29 1.2659813e-27 1.2482424e-27
2.8118764e-29 1.102621e-28 2.7666356e-30 7.593117e-30 1.4397551e-30 4.78818e-30 7.525406e-30 2.5327369e-30
1.986814e-30 2.6961742e-30 2.8968151e-30 3.203581e-30 9.380596e-29 1.370856e-28 1.4982233e-27 1.9562863e-27
1.5855515e-27 1.5862518e-27 1.7698618e-27 1.7449983e-27 5.4918894e-28 1.864623e-27 2.6835726e-26 1.8929523e-26
4.0269327e-27 5.25879e-27 2.1406368e-26 2.1444167e-26 2.3366943e-26 3.6929297e-26 1.46855e-27 3.3047682e-26
5.4055297e-28 8.481135e-28 5.0476222e-29 5.7239274e-28 4.0367335e-28 2.8635803e-28 2.9190641e-28 3.003182e-28
6.8357234e-28 4.4282594e-28 3.133886e-31 2.2049904e-31 1.1277598e-31 3.6869936e-25 5.126335e-31 1.266651e-31
5.616556e-26 5.616496e-26 1.9140397e-32 2.516976e-31 1.7906006e-29 4.9006867e-29 3.754109e-30 1.8442699e-29
1.0469455e-28 2.878607e-29 1.0187121e-29 6.1638256e-30 1.678181e-29 1.2251717e-29 5.4032145e-29 1.3187095e-28
6.197134e-31 5.663625e-29 1.5280641e-29 1.1525053e-29 1.3815275e-29 7.3007635e-29 5.3123257e-29 2.7347366e-29
3.2166354e-27 2.1963546e-28 2.3633891e-29 1.4352554e-28 1.2189491e-27 1.238579e-27 1.4753887e-26 6.4584743e-27
1.5883519e-28 1.1137956e-27 9.982017e-30 2.9595167e-29 5.5343934e-31 8.70983e-30 1.127205e-29 1.2742622e-29
1.536461e-29 5.5565366e-30 9.9304875e-30 1.1478032e-29 3.1971957e-30 1.4710127e-29 1.14506616e-29 2.1004136e-29
2.8441983e-29 2.3839806e-29 1.9850634e-29 1.797616e-29 5.673547e-30 2.3144714e-29 3.0598663e-30 8.4973925e-30
2.0322095e-30 8.2668594e-30 8.461694e-30 2.5202606e-30 2.3067775e-30 4.126553e-30 2.6255296e-30 4.5012496e-30
1.22718985e-27 1.9585205e-27 1.9477939e-26 2.5899176e-26 2.538609e-26 2.229905e-26 2.3581696e-26 2.3276506e-26
7.192112e-27 2.4735945e-26 3.5884693e-27 8.235421e-27 5.4699695e-26 7.020685e-26 1.366927e-25 7.999171e-26
6.841351e-26 6.5392723e-26 1.964909e-26 6.712979e-26 9.5022696e-26 1.143669e-25 3.408992e-27 8.082317e-26
9.180545e-26 5.82809e-26 5.0674807e-26 6.403401e-26 9.966556e-26 8.748716e-26 7.884063e-29 5.5741584e-28
3.8000926e-28 5.6776824e-29 1.4608456e-26 4.0275035e-27 9.026767e-28 4.87491e-28 3.5040186e-29 2.7726973e-28
1.421583e-28 1.2782358e-27 4.893524e-28 9.496927e-29 2.7229525e-26 7.6803706e-27 1.757416e-27 7.9431885e-28
1.3686728e-28 3.0952186e-28 7.501531e-29 3.0005146e-28 6.757807e-29 6.4453123e-29 4.5238446e-27 1.288605e-27

exp_avg f4 [40]
00000000: fa5e 35a8 db2b 3d12 9d76 bc1f 2960 7391
00000010: d8ed 1d20 4642 c48c 4095 3900 3d4f 8029
00000020: b63f b528 0400 0000 0400 0000 0047 e61d
00000030: 0056 bc1f 0400 0080 46a4 541a 6915 3510
00000040: 5b02 1285 0400 0000 1930 eba5 a0f0 e593
00000050: 0400 0000 e041 9a92 6e06 5418 0400 0000
00000060: 0400 0000 7c4f f00a 0400 0000 7cda f525
00000070: 76bc 181f 0400 0080 4a80 9ba8 8fe1 11a8
00000080: 6a76 bc1f 76b4 3f1b 7fe2 1d20 c64c 2a9a
00000090: 391f 1285 203d ea94 5448 b528 6055 3c9f
-1.0068113e-14 5.969194e-28 7.9817326e-20 -1.9198952e-28 1.3377113e-19 -3.0238468e-31 5.288164e-39 5.6980875e-14
2.0122667e-14 6e-45 6e-45 6.0953905e-21 7.976337e-20 -6e-45 4.397327e-23 3.571245e-29
-6.8653196e-36 6e-45 -4.0798594e-16 -5.8045e-27 6e-45 -9.735006e-28 2.7403604e-24 6e-45
6e-45 2.3141058e-32 6e-45 4.2648776e-16 3.2343143e-20 -6e-45 -1.7264093e-14 -8.098027e-15
7.9816997e-20 1.585746e-22 1.3373359e-19 -3.5217193e-23 -6.870622e-36 -2.3652071e-26 2.0126404e-14 -3.988117e-20

exp_avg_sq f4 [40]
00000000: 7620 6e17 b9fc 0f17 0dca 6915 1270 1412
00000010: 372e 9314 6e9e 3f1a ef65 0a15 2225 a118
00000020: af7b 9816 0295 a117 623a f114 cc62 4a16
00000030: bafe 2713 85e2 9d16 848c 7515 afe7 8718
00000040: 61c1 9516 7bce 8b15 a157 bf12 442b 2e19
00000050: 5e66 0617 b816 0719 c39a 2917 4c4f 8f17
00000060: 3b56 2e18 ef7e 3a17 cf2f ef17 1fb2 f318
00000070: 4a9f 8917 bbe0 141c f1f5 9d18 f249 8c18
00000080: 450b eb15 4fc4 df1a f2a6 0119 ad07 231b
00000090: e153 2819 eef5 b719 e46e 9b17 28d3 eb18
7.694292e-25 4.6524773e-25 4.7213365e-26 4.6838703e-28 1.4861435e-26 3.9625853e-23 2.794929e-26 4.165502e-24
2.463498e-25 1.0441996e-24 2.4357809e-26 1.6348605e-25 2.1203953e-27 2.5507672e-25 4.9588203e-26 3.5130623e-24
2.4194288e-25 5.646742e-26 1.2075397e-27 9.0043266e-24 4.342694e-25 6.9839244e-24 5.480218e-25 9.261176e-25
2.2532508e-24 6.0260054e-25 1.5457082e-24 6.2993884e-24 8.893628e-25 4.925955e-22 4.0831886e-24 3.6263817e-24
9.4933524e-26 9.254779e-23 6.702858e-24 1.3485524e-22 8.702336e-24 1.9021087e-23 1.0044633e-24 6.095929e-24

exp_avg f4 [40]
00000000: fa5e 35a8 db2b 3d12 9d76 bc1f 2a60 7391
00000010: d7ed 1d20 4642 c48c 4095 3900 394f 8029
00000020: ad3f b528 0400 0000 0400 0000 0047 e61d
00000030: 0056 bc1f 0400 0080 48a4 541a 6915 3510
00000040: 5b02 1285 0400 0000 1b30 eba5 9cf0 e593
00000050: 0400 0000 e041 9a92 6e06 5418 0400 0000
00000060: 0400 0000 7c4f f00a 0400 0000 7bda f525
00000070: 76bc 181f 0400 0080 4a80 9ba8 92e1 11a8
00000080: 6a76 bc1f 76b4 3f1b 7de2 1d20 c74c 2a9a
00000090: 3a1f 1285 203d ea94 4948 b528 5f55 3c9f
-1.0068113e-14 5.969194e-28 7.9817326e-20 -1.9198953e-28 1.3377112e-19 -3.0238468e-31 5.288164e-39 5.698085e-14
2.0122652e-14 6e-45 6e-45 6.0953905e-21 7.976337e-20 -6e-45 4.3973278e-23 3.571245e-29
-6.8653196e-36 6e-45 -4.07986e-16 -5.8044986e-27 6e-45 -9.735006e-28 2.7403604e-24 6e-45
6e-45 2.3141058e-32 6e-45 4.2648773e-16 3.2343143e-20 -6e-45 -1.7264093e-14 -8.09803e-15
7.9816997e-20 1.585746e-22 1.3373356e-19 -3.5217196e-23 -6.8706224e-36 -2.3652071e-26 2.0126385e-14 -3.9881166e-20

exp_avg_sq f4 [40]
00000000: 7620 6e17 9dfc 0f17 0dca 6915 1270 1412
00000010: 372e 9314 6e9e 3f1a ef65 0a15 2225 a118
00000020: ad7b 9816 0295 a117 623a f114 cc62 4a16
00000030: bafe 2713 85e2 9d16 848c 7515 afe7 8718
00000040: 61c1 9516 7bce 8b15 a157 bf12 442b 2e19
00000050: 5e66 0617 b816 0719 c39a 2917 4c4f 8f17
00000060: 4556 2e18 ef7e 3a17 d92f ef17 1fb2 f318
00000070: 4a9f 8917 bbe0 141c f1f5 9d18 e249 8c18
00000080: 450b eb15 4fc4 df1a f2a6 0119 ad07 231b
00000090: e153 2819 f4f5 b719 e46e 9b17 28d3 eb18
7.694292e-25 4.6524635e-25 4.7213365e-26 4.6838703e-28 1.4861435e-26 3.9625853e-23 2.794929e-26 4.165502e-24
2.4634975e-25 1.0441996e-24 2.4357809e-26 1.6348605e-25 2.1203953e-27 2.5507672e-25 4.9588203e-26 3.5130623e-24
2.4194288e-25 5.646742e-26 1.2075397e-27 9.0043266e-24 4.342694e-25 6.9839244e-24 5.480218e-25 9.261176e-25
2.2532528e-24 6.0260054e-25 1.5457091e-24 6.2993884e-24 8.893628e-25 4.925955e-22 4.0831886e-24 3.6263754e-24
9.4933524e-26 9.254779e-23 6.702858e-24 1.3485524e-22 8.702336e-24 1.9021096e-23 1.0044633e-24 6.095929e-24

exp_avg f4 [5, 10]
00000000: ae5d 61a7 d9fc 0fa9 a169 aa1e 82e0 4316
00000010: 30f1 d49e 9c28 9917 6b36 872d 6b36 87ad
00000020: fbf0 3a29 8f3b 101d 912b 5b27 f177 b1a9
00000030: 2388 059f 94cf 661b 360c 1e1f 9d61 1498
00000040: 56a7 df3a 56a7 dfba 7d1f 742a 5c5f 831d
00000050: a29d 8226 597e f7a7 aaf7 3a9e 0d5e 1f9c
00000060: 8e11 be9d 8a76 a918 ea2f 9abb ea2f 9a3b
00000070: fd21 6faa 7ace 4f1c 4435 8527 ef38 0ca9
00000080: 5701 121f 94b3 4d9b dc54 a21f e28a 0718
00000090: fd5e c7ba fd5e c73a 9c3d 2b29 2079 211d
000000a0: 9bc3 a2a7 5985 272a 72c0 4b9e d00a 191c
000000b0: 8f3d b09f 5055 c998 d51d 943b d51d 94bb
000000c0: 3712 bda9 bf19 1b9e
-3.1275806e-15 -3.197169e-14 1.8043137e-20 1.5822817e-25 -2.2546126e-20 9.8976445e-25 1.537189e-11 -1.537189e-11
4.1509314e-14 1.9089032e-21 3.0415973e-15 -7.8811855e-14 -2.8276455e-20 1.9092226e-22 3.3467902e-20 -1.9177834e-24
0.001706342 -0.001706342 2.1682478e-13 3.477401e-21 9.063289e-16 -6.869326e-15 -9.897974e-21 -5.2730245e-22
-5.0310732e-21 4.380517e-24 -0.004705419 0.004705419 -2.1239256e-13 6.875742e-22 3.6972666e-15 -3.1135627e-14
3.091781e-20 -1.7015227e-22 6.875006e-20 1.7518459e-24 -0.0015210804 0.0015210804 3.8023065e-14 2.1370793e-21
-4.517611e-15 1.4878844e-13 -1.0786527e-20 5.063743e-22 -7.464074e-20 -5.2043426e-24 0.004520158 -0.004520158
-8.396446e-14 -8.210956e-21
