results/baseline_lstm_task2_seed42/model_lstm_ntask2_nchar2_seed42.pt (torch, 20479 bytes, 21 tensors)

embedding.weight f4 [2, 10]
0	0xc01ce837	-2.4516733
1	0x40007f91	2.007786
2	0x3fefe92f	1.8743037
3	0x3ff59896	1.918719
4	0xc0018acc	-2.0240965
5	0x3fafaf04	1.3725286
6	0xc008bf8a	-2.1366906
7	0xc00019f7	-2.0015848
8	0xbffeb77d	-1.9899746
9	0xbff36036	-1.9013736
10	0x3f0a3c84	0.5399859
11	0xbfbfecd1	-1.4994146
12	0xbf8232e0	-1.0171776
13	0xbf6fa776	-0.936149
14	0x3f9e1d6a	1.2352726
15	0xbfe1e5cb	-1.7648252
16	0x3fbaee8a	1.4604046
17	0x3f161f0e	0.58641136
18	0x3f7f5ba4	0.9974921
19	0x3f82ce42	1.0219195

lstm.weight_ih_l0 f4 [40, 10]
0	0xbe2d15fe	-0.1690292
1	0x3f0c7de1	0.54879576
2	0x3f82a3d0	1.0206242
3	0x3e749671	0.23885514
4	0xbf385ccb	-0.7201659
5	0x3ef2f8e2	0.47455508
6	0xbf66e567	-0.9019379
7	0x3d638414	0.05554588
8	0xbf002f98	-0.5007262
9	0xbf99515d	-1.1977955
10	0xbff36624	-1.9015546
11	0x3fd18cf4	1.637114
12	0x3ffa93b9	1.9576331
13	0x3e92ac04	0.28646863
14	0xbfc46e4e	-1.5346162
15	0xbe98159a	-0.2970398
16	0xbf642557	-0.89119476
17	0x3f81392f	1.0095576
18	0xbf958196	-1.1680171
19	0xbf58af62	-0.8464261
20	0x40a18d51	5.0485005
21	0xc01a0d2c	-2.407054
22	0xc02dbb2a	-2.7145486
23	0xc033d47f	-2.8098447
24	0x401568b1	2.3345149
25	0xc06f2443	-3.7365882
26	0x3ff8f20b	1.9448866
27	0x408542b2	4.1643915
28	0x40237b92	2.5544171
29	0x4025fb01	2.593445
30	0xbfe985ce	-1.8243959
31	0x3ff4dce5	1.9129912
32	0x3ea00ea4	0.3126117
33	0x4033dbb0	2.8102837
34	0xbf8bb3c1	-1.0914232
35	0xbd4a2a22	-0.049356587
36	0xbf4456a9	-0.7669473
37	0xc019a2b3	-2.4005554
38	0xc003603a	-2.0527482
39	0xc0191ed3	-2.3925064
40	0xbf1c54cd	-0.61066896
41	0xbf67ac98	-0.9049773
42	0x3ef0aaba	0.47005254
43	0xc04a60d4	-3.16216
44	0xbea6b725	-0.32561603
45	0xc05990fb	-3.399474
46	0xbf2f6c6f	-0.6852483
47	0x4045a06c	3.0879164
48	0x3e066970	0.13126159
49	0x403e0560	2.969078
50	0xbf8b1701	-1.0866395
51	0x3f842b78	1.0325766
52	0x3f947525	1.159825
53	0x3f454b34	0.77067876
54	0xbfad0097	-1.3515805
55	0x3f4f3168	0.8093476
56	0xbf9b99e9	-1.2156345
57	0xbf2d5bbc	-0.677181
58	0xbf860a1d	-1.0471836
59	0xbfc14016	-1.5097682
60	0x401842cb	2.3790767
61	0xc000a7d2	-2.010243
62	0xc002592b	-2.0366924
63	0xbdd1c6aa	-0.1024297
64	0x405e2511	3.4710124
65	0x3fced20d	1.6157852
66	0x4046dcc4	3.1072245
67	0xbf81684b	-1.0109953
68	0x40194abb	2.3951862
69	0x3f93c849	1.1545497
70	0xc00f4c56	-2.2390342
71	0x40309a99	2.759436
72	0x4099d717	4.807506
73	0xbd2c2521	-0.042027596
74	0xc0606e75	-3.5067418
75	0xbf878474	-1.0587296
76	0xc069d799	-3.653784
77	0x405321d5	3.29894
78	0xc065bcc2	-3.5896459
79	0xbe50a592	-0.2037566
80	0x3fb0cba6	1.3812149
81	0xbfd3183b	-1.649177
82	0xc00c68dd	-2.1939003
83	0x3d5bcffa	0.05366514
84	0x40463471	3.0969508
85	0x3fc1a294	1.512774
86	0x402af85f	2.6714094
87	0xbf3f3774	-0.7469399
88	0x40223837	2.534681
89	0x3f51fe03	0.82028216
90	0xc00857fd	-2.1303704
91	0x4012071c	2.281684
92	0x40390376	2.8908362
93	0xbf037af3	-0.5135948
94	0xc0327930	-2.7886467
95	0xbf903c49	-1.1268398
96	0xc03bb908	-2.9331684
97	0x3fd33cf6	1.6502979
98	0xc02f00fa	-2.7344346
99	0x3d179c91	0.037014548
100	0xbe1c2175	-0.15247138
101	0xbee497de	-0.44647115
102	0x3dfe6ffb	0.12423702
103	0xbe24d6b1	-0.16097523
104	0xbf35326b	-0.70780057
105	0xbf1eccfa	-0.6203152
106	0x3e35f563	0.17769389
107	0x3ebeac13	0.37240657
108	0xbc89a711	-0.016803296
109	0xbe334a41	-0.17508794
110	0x3ebd1ee4	0.3693763
111	0x4014039e	2.3127208
112	0x3fe5a2d2	1.7940314
113	0x3f06d824	0.52673554
114	0xc00097b1	-2.0092585
115	0xbf28acb6	-0.65888536
116	0xc000c8ac	-2.012248
117	0x3fbb0ca7	1.4613236
118	0xbff113e1	-1.8834192
119	0xc0013ff2	-2.019528
120	0xc01ce441	-2.4514315
121	0x3eecf8d7	0.462836
122	0x40006206	2.0059829
123	0x3f17a140	0.5923042
124	0xbfab125e	-1.336498
125	0xbf610949	-0.87904793
126	0xbfae1753	-1.3600868
127	0x3f796ab4	0.9742844
128	0xbf9243f0	-1.1426983
129	0x3da755a5	0.08170632
130	0xbf954ea6	-1.1664627
131	0x3f35db24	0.7103751
132	0x3f6d18dc	0.9261606
133	0x3e359f93	0.17736654
134	0xbfc97187	-1.5737771
135	0xc04cd50f	-3.200504
136	0xbf9d7327	-1.2300767
137	0x4033b401	2.8078616
138	0xbfab8c0e	-1.3402116
139	0xbf1de176	-0.6167215
140	0xbf5534b6	-0.83283556
141	0xbeea0a49	-0.45710972
142	0x3eedc1aa	0.46436816
143	0xc0565b8d	-3.3493378
144	0xbf041595	-0.5159543
145	0xc014450e	-2.3167148
146	0xbf0628ff	-0.52406305
147	0x403938e3	2.894097
148	0xbe550b26	-0.20805034
149	0x403a2e4a	2.9090753
150	0xbee343e5	-0.44387737
151	0x3f9b3dc9	1.212823
152	0x3de3d45f	0.11124491
153	0x3ecd7739	0.40130022
154	0xbfcdcbf5	-1.6077868
155	0x3edb7198	0.42860103
156	0xbf9e1e47	-1.235299
157	0xbf1e0c1f	-0.61737245
158	0xbf72c1d1	-0.9482699
159	0xbf840383	-1.0313572
160	0x3eb9bae7	0.36275408
161	0xbf1b209c	-0.6059663
162	0xbf575e23	-0.84128016
163	0x3f5dccb1	0.8664046
164	0x4026b87e	2.6050105
165	0x4012dc2f	2.294689
166	0x3ff6916c	1.9263129
167	0xbfa4c69a	-1.2873108
168	0x3fda1e5a	1.7040513
169	0x3ec7040a	0.3887027
170	0x3e4febce	0.20304796
171	0xbfd2a75d	-1.6457325
172	0xbf089da1	-0.5336552
173	0xc02b3caf	-2.6755788
174	0x3e7351a2	0.23761609
175	0xc0252981	-2.5806582
176	0xbd8c4f40	-0.06851053
177	0x4049d3ef	3.1535604
178	0x3fb62d55	1.4232584
179	0x4019765f	2.3978498
180	0xbecb79d8	-0.39741397
181	0xbf8bf992	-1.0935538
182	0xbec2fe83	-0.38084802
183	0x3f5605b5	0.8360246
184	0x3f6cd3ef	0.92510885
185	0x3fac219e	1.3447759
186	0x3f27da76	0.6556772
187	0xbf463efd	-0.7743986
188	0x3f278054	0.6543019
189	0x3f3f5026	0.7473167
190	0xc016820d	-2.3516877
191	0xbe80d20f	-0.25160262
192	0x4006624a	2.099749
193	0xbfdccd5b	-1.725017
194	0xbff42a7f	-1.9075469
195	0xbf397bdc	-0.7245462
196	0xbfe6f6fc	-1.8044124
197	0x3f2a716f	0.66579336
198	0xbfb96218	-1.4483061
199	0x405a9ac5	3.4156964
200	0x3ecdb28e	0.4017529
201	0xbe43dd7b	-0.19127457
202	0xbf4fbfce	-0.81152046
203	0xbf7a3366	-0.9773468
204	0x3f9f2478	1.2433004
205	0xbf69928b	-0.9123923
206	0x3f52d7a5	0.823603
207	0x3f22e767	0.6363434
208	0x3f608720	0.87706184
209	0xbe5f5376	-0.21809182
210	0xbf1b58cd	-0.60682374
211	0x3f7306ad	0.9493206
212	0x404c7883	3.1948555
213	0x3f8cbf1e	1.0995824
214	0xbffd1949	-1.9773341
215	0xbf5e6821	-0.8687764
216	0xbfd90d57	-1.6957196
217	0x3f2c577d	0.67320997
218	0xc000d32e	-2.0128894
219	0xbf8933f3	-1.0718979
220	0x3f106f48	0.564198
221	0xbef30e4f	-0.47471854
222	0xbf75710b	-0.95875615
223	0xbe9e01e2	-0.3086081
224	0x3f22459b	0.6338746
225	0xbe685f64	-0.22692639
226	0x3e8dccf4	0.2769543
227	0xbec8490b	-0.39118227
228	0x3eca555d	0.39518252
229	0x3f786cdc	0.97041106
230	0xc0505799	-3.2553465
231	0x4087951d	4.2369523
232	0x3ff8146c	1.9381232
233	0x405d9488	3.4621906
234	0xc029135b	-2.6418064
235	0x406eb892	3.7300153
236	0xc033ef71	-2.8114893
237	0xc04e82f1	-3.226742
238	0xc045dcc5	-3.0915997
239	0xc08979ab	-4.296102
240	0x403ed5ad	2.9817917
241	0xc04804e9	-3.1252997
242	0xc054c124	-3.3242884
243	0x3ecb9055	0.39758554
244	0x404ee58a	3.23276
245	0x3f87f4b9	1.0621558
246	0x405fddbc	3.4979086
247	0xbf6b4ae6	-0.9191116
248	0x407546e0	3.8324509
249	0xbeadd641	-0.33952525
250	0xbef48464	-0.47757256
251	0x3f6ab7b7	0.91686577
252	0x3fa1fee1	1.2655908
253	0x3f610d85	0.87911254
254	0xbfa0c969	-1.2561466
255	0x3eb4f936	0.35346383

lstm.weight_hh_l0 f4 [40, 10]
0	0xbe3a0f83	-0.1816998
1	0xbeeb0b89	-0.45907238
2	0x3e608141	0.21924306
3	0x3f15a008	0.58447313
4	0xbf138da8	-0.57638025
5	0x3e58c9bd	0.21170707
6	0xbe18f492	-0.14937046
7	0xbedbd90e	-0.42939037
8	0xbe34bf77	-0.17651163
9	0xbe344201	-0.17603303
10	0x3eede090	0.4646039
11	0x3e970058	0.2949245
12	0x3f05436d	0.5205601
13	0xbeabd390	-0.33559847
14	0xbfa454bb	-1.2838358
15	0xbce434e4	-0.027857251
16	0x3f944701	1.1584169
17	0xbe255923	-0.16147284
18	0xbf72c59f	-0.94832796
19	0xbf7816c8	-0.9690976
20	0x3f0c2ea8	0.5475869
21	0xc01c3f21	-2.441353
22	0x401a4fc0	2.4111176
23	0x3f6d40b1	0.92676836
24	0xbfbef090	-1.4917164
25	0xbfbc06a1	-1.4689523
26	0xbf1275ee	-0.57211196
27	0xbef13c0a	-0.4711612
28	0x3e2107f5	0.15725692
29	0xc049d6f2	-3.1537442
30	0xbf7d9636	-0.9905733
31	0x408f43e5	4.477038
32	0xc0893134	-4.2872562
33	0xc0112039	-2.2675917
34	0x3e974214	0.295426
35	0x40924574	4.570978
36	0xbe4c9cc2	-0.19981673
37	0xc07691b3	-3.8526428
38	0x3f087533	0.5330383
39	0x409b9dd1	4.8630147
40	0x3dfbce4a	0.12295206
41	0x3f8f0737	1.1174077
42	0xbea8f803	-0.33001718
43	0xc02cfcaa	-2.7029214
44	0xbf38ccc6	-0.7218746
45	0x3ffb9ced	1.9657265
46	0xc02319f4	-2.548459
47	0xc0041be6	-2.0642028
48	0x40285f24	2.630807
49	0xbfee5637	-1.8620061
50	0x3d0f3ea9	0.034971867
51	0x3e3d50d8	0.1848787
52	0xbe95ad94	-0.29233992
53	0x3e5b457d	0.21413226
54	0xbf28933d	-0.6584967
55	0x3f10beea	0.5654131
56	0x3a200d60	0.00061055087
57	0xbf91865e	-1.1369131
58	0x3eca4f0c	0.39513433
59	0xbf21bce0	-0.63178825
60	0xbf6f5de0	-0.93502617
61	0xc0149683	-2.3216865
62	0x3e1d1f74	0.1534403
63	0x3fe302cc	1.7735229
64	0x3f96daee	1.1785562
65	0xbfb0ed50	-1.3822422
66	0x3f10d440	0.5657387
67	0x403733de	2.8625407
68	0x3b90e152	0.0044213915
69	0xbf1f8ec9	-0.6232725
70	0xbedb0049	-0.42773655
71	0x3f85063e	1.039253
72	0xbe6a57f6	-0.22885117
73	0xbfb4c918	-1.4123869
74	0xbf62d496	-0.8860563
75	0x3fe8f256	1.8198955
76	0xbfd5c531	-1.6700803
77	0xbfa7208e	-1.305681
78	0x3fe41db0	1.782156
79	0x3f75f153	0.96071357
80	0xbf7161e4	-0.94289994
81	0xbff274a2	-1.8941844
82	0xbd9dd42c	-0.07706484
83	0x3fcdc5d3	1.6075996
84	0x3ef64584	0.4809991
85	0xbf31b769	-0.69420487
86	0x3d8ec52c	0.06971201
87	0x4000aee4	2.0106745
88	0xbdcca9e8	-0.099933445
89	0xbf00ea17	-0.5035719
90	0x3f5877ed	0.8455799
91	0x3f178d1d	0.59199697
92	0x3f0b38cf	0.5438356
93	0xbe92d41b	-0.2867745
94	0xbfec3895	-1.8454767
95	0x3f61dd87	0.8822865
96	0xbf8e1429	-1.1099902
97	0xbf97e494	-1.1866632
98	0x3f9c3627	1.2204026
99	0xbf13c133	-0.57716674
100	0xbfa9beef	-1.3261393
101	0x403781f1	2.867306
102	0xc0329575	-2.7903721
103	0xc086f060	-4.2168427
104	0x3f5962d3	0.8491642
105	0x3fc6cb5c	1.553081
106	0xbf8dd53e	-1.1080701
107	0xc0409b75	-3.0094883
108	0x3f674be4	0.90350175
109	0x402f8b93	2.742894
110	0xbf086d0c	-0.5329139
111	0x3f918c4b	1.1370939
112	0xbefe84cb	-0.49710688
113	0xbeaa814f	-0.3330178
114	0xbfc8eb2d	-1.569677
115	0x3fddec87	1.7337807
116	0x3f8d9bb6	1.1063144
117	0xbf12919d	-0.5725344
118	0xbf9ca1c1	-1.2236863
119	0x3f1f1313	0.6213848
120	0x3db5347d	0.08847902
121	0xbde3c23e	-0.11121033
122	0x3ef37358	0.47548938
123	0xc00e747a	-2.2258592
124	0xbf5cca4e	-0.8624619
125	0x3f46a405	0.77594024
126	0xc003026b	-2.0470226
127	0xc02b5217	-2.6768854
128	0x3f82ee93	1.0229057
129	0xbd953c1d	-0.07286856
130	0xbfbc6fcd	-1.4721619
131	0x4030c5b0	2.762066
132	0xbfc9d7d7	-1.5768994
133	0xbfeb9384	-1.8404393
134	0x3eb65fbc	0.35619915
135	0x4043f0f7	3.0615823
136	0xbf395915	-0.72401553
137	0xc00522dd	-2.080253
138	0x3f383df7	0.7196955
139	0x402f08ad	2.7349045
140	0xbf3aead1	-0.7301455
141	0x3e849949	0.25898197
142	0xbeb479ff	-0.35249326
143	0xc03bae70	-2.9325218
144	0xbe80fc36	-0.25192422
145	0x3fb52083	1.4150547
146	0xc01bb77f	-2.4330747
147	0xbfa1a043	-1.2627033
148	0x4019f97d	2.4058526
149	0xc01c8c65	-2.446069
150	0x3e5332c6	0.20624837
151	0x3debb69d	0.1150944
152	0xbdb01781	-0.08598233
153	0xbfd85693	-1.690142
154	0xbf806631	-1.0031186
155	0x3ef52264	0.478778
156	0xbd7f4226	-0.062318943
157	0xbf6f2ea7	-0.9343056
158	0xbd9bc77f	-0.0760641
159	0xbf42624c	-0.7593124
160	0x3e81d266	0.25355834
161	0xc01a5968	-2.411707
162	0x3f20fb14	0.62883115
163	0x402fcd41	2.7469027
164	0x3f94c168	1.1621523
165	0xbf835fe4	-1.0263638
166	0xbe68ca6f	-0.22733472
167	0x3fd4c889	1.6623698
168	0x3eebf9ec	0.46089113
169	0xbdbf12d2	-0.093297616
170	0x3fd2e16d	1.6475044
171	0xbd86e70c	-0.065870374
172	0x3f9719df	1.180477
173	0xbf87e270	-1.0615978
174	0xbef4ee53	-0.47838077
175	0xbe9de0a6	-0.30835456
176	0xbf25a7ad	-0.6470898
177	0xbffd9970	-1.981245
178	0x3dff5487	0.12467294
179	0x3e1ab25d	0.15107103
180	0xbea23c4f	-0.31686637
181	0xbf3962ee	-0.7241658
182	0x3ed9796d	0.42475453
183	0x3fda3475	1.7047259
184	0x3eb3f23c	0.35145748
185	0xbebb815b	-0.36622128
186	0x3b785bed	0.003789659
187	0x3fba5626	1.455754
188	0x3f16b18e	0.58864677
189	0x3e9d489f	0.30719468
190	0xbe99b1e2	-0.30018526
191	0x3e8d026d	0.27540913
192	0x3eaa92ba	0.33315068
193	0xbe38c1a0	-0.18042612
194	0x3db8a845	0.0901647
195	0x3f0e1ad0	0.5550966
196	0xc0105157	-2.2549646
197	0xbf481624	-0.78158784
198	0x400e8a0e	2.2271762
199	0x3f82adf1	1.0209333
200	0xbec6c9ab	-0.38825735
201	0x3ee80c45	0.4532186
202	0xbf0860ef	-0.5327291
203	0xbf7638fa	-0.9618069
204	0xbe96dcae	-0.2946524
205	0x3e9b4d4b	0.30332407
206	0x3f29af0b	0.6628272
207	0xbed618a6	-0.4181568
208	0xbebae1be	-0.36500353
209	0xbf20d56b	-0.6282565
210	0xbdccf8d9	-0.100084014
211	0x3f81d0ff	1.0141906
212	0x3f511c66	0.8168396
213	0x3f37c2e7	0.7178177
214	0x3ec37cfe	0.381813
215	0x3f6f0d47	0.93379635
216	0xbe37d01f	-0.17950486
217	0xc0611ecb	-3.5175045
218	0x3da8c675	0.08240978
219	0x3f8b0d8a	1.0863507
220	0x3eb48262	0.35255724
221	0xbe9dd878	-0.30829215
222	0xbf369d2b	-0.7133357
223	0x3f954c5a	1.1663926
224	0x3f54d9f9	0.831451
225	0xbec5b91a	-0.38617784
226	0x3f1f2325	0.62163
227	0x3f01fada	0.50773394
228	0xbf21da05	-0.63223296
229	0xbeeb3f1b	-0.45946583
230	0x3eff54d1	0.49869397
231	0xbf6596d3	-0.89683264
232	0xbe8b4547	-0.27201292
233	0xbef52520	-0.47879887
234	0xbe96bdbf	-0.2944164
235	0xbfba94b3	-1.4576629
236	0x3f7141ce	0.94241035
237	0x4005d7f7	2.0913064
238	0xbf9c8049	-1.222665
239	0xc00fc9f8	-2.2467022
240	0x3f2f1031	0.6838408
241	0xbfa3074d	-1.2736603
242	0x3f8862e0	1.0655174
243	0x40047cde	2.0701213
244	0x3fc3578a	1.526109
245	0xbffa78b8	-1.956809
246	0x403423ed	2.8146927
247	0x3ffa8736	1.9572513
248	0xc008a0dd	-2.1348183
249	0xbfa640f3	-1.2988571
250	0x3ec5b4ee	0.386146
251	0xbf7add3c	-0.97993827
252	0x3f146f5c	0.5798242
253	0x3d46dc7e	0.04855012
254	0xbe9c69cb	-0.30549464
255	0xbeb52182	-0.35377127

lstm.bias_ih_l0 f4 [40]
0	0x3ea4987f	0.32147595
1	0xbe8873dd	-0.26650897
2	0xbfd9ddcc	-1.7020812
3	0x3fc4f8cb	1.5388426
4	0x3fc779de	1.5584066
5	0x3e9e36eb	0.30901274
6	0xbf8a4719	-1.0802947
7	0x40112af0	2.2682457
8	0xbec87d80	-0.3915825
9	0x3ff70082	1.929703
10	0x3fdfeeb5	1.7494723
11	0x3f6ec032	0.93262017
12	0x3fce0117	1.6094083
13	0x404d907d	3.2119439
14	0x401736fd	2.3627312
15	0x3f0cce74	0.5500252
16	0x3f9fac09	1.2474376
17	0x3fc72c47	1.5560387
18	0x3fd38f33	1.6528076
19	0x403c9a1e	2.9469066
20	0xbf030bae	-0.51189697
21	0x3f89a4af	1.0753382
22	0xbea17134	-0.3153168
23	0xbecf89f3	-0.40534934
24	0xc00ea785	-2.2289746
25	0x3e559cd3	0.20860605
26	0xbf1d464c	-0.6143539
27	0xbfe4bc05	-1.7869879
28	0x3ed3fc77	0.41403553
29	0x3fdc7c69	1.7225467
30	0xc0339fb0	-2.8066216
31	0x3f125ad8	0.57169867
32	0xbeebd708	-0.46062493
33	0x3ff5335b	1.9156297
34	0x3fe1bb13	1.7635216
35	0x3f573d2e	0.8407773
36	0xc0170ec2	-2.3602757
37	0x3ffa8a2b	1.9573416
38	0xc0189de3	-2.3846366
39	0xc002611e	-2.0371776

lstm.bias_hh_l0 f4 [40]
0	0x3ea49880	0.32147598
1	0xbe8873db	-0.2665089
2	0xbfd9ddcc	-1.7020812
3	0x3fc4f8cb	1.5388426
4	0x3fc779de	1.5584066
5	0x3e9e36e8	0.30901265
6	0xbf8a4719	-1.0802947
7	0x40112af1	2.268246
8	0xbec87d7b	-0.39158234
9	0x3ff70080	1.9297028
10	0x3fdfeeb5	1.7494723
11	0x3f6ec032	0.93262017
12	0x3fce0114	1.6094079
13	0x404d907d	3.2119439
14	0x401736fc	2.362731
15	0x3f0cce74	0.5500252
16	0x3f9fac09	1.2474376
17	0x3fc72c47	1.5560387
18	0x3fd38f33	1.6528076
19	0x403c9a1e	2.9469066
20	0xbf030bac	-0.51189685
21	0x3f89a4af	1.0753382
22	0xbea17132	-0.31531674
23	0xbecf89ff	-0.4053497
24	0xc00ea787	-2.228975
25	0x3e559cd8	0.20860612
26	0xbf1d464c	-0.6143539
27	0xbfe4bc06	-1.786988
28	0x3ed3fc73	0.4140354
29	0x3fdc7c65	1.7225462
30	0xc0339fb1	-2.8066218
31	0x3f125ad2	0.5716983
32	0xbeebd704	-0.4606248
33	0x3ff5335b	1.9156297
34	0x3fe1bb15	1.7635218
35	0x3f573d31	0.84077746
36	0xc0170ec1	-2.3602755
37	0x3ffa8a2b	1.9573416
38	0xc0189de3	-2.3846366
39	0xc002611d	-2.0371773

output_proj.weight f4 [2, 10]
0	0x3fc706f3	1.5548996
1	0xbfb49a8b	-1.4109663
2	0x3ecd361a	0.4008034
3	0xbf56f261	-0.8396359
4	0xc0ff18ba	-7.9717684
5	0xbfacc32d	-1.3497063
6	0xc06e8705	-3.726991
7	0xc036ed25	-2.8582242
8	0xc09c02e4	-4.875353
9	0xbf9851b7	-1.1899937
10	0xbf396bb3	-0.7242996
11	0x3fab7e14	1.3397851
12	0xbee2805f	-0.44238564
13	0x3f53f5b9	0.8279682
14	0x40b9fbe6	5.8119993
15	0x3f9c9cfa	1.2235405
16	0x3ffd8f46	1.9809349
17	0x403baa98	2.9322872
18	0x4034fdab	2.8279827
19	0x3f774f0c	0.9660499

output_proj.bias f4 [2]
0	0x400dbe5e	2.214744
1	0xc00dbf0a	-2.214785

exp_avg f4 [2, 10]
0	0xaa038ebf	-1.1684662e-13
1	0x2b85bc68	9.502512e-13
2	0x2aad213b	3.0754032e-13
3	0x2bd93f50	1.543635e-12
4	0xaa189c60	-1.3554565e-13
5	0x2bd1b03b	1.4899257e-12
6	0x292ff568	3.9070662e-14
7	0xac000ed6	-1.819813e-12
8	0xab670f2f	-8.208876e-13
9	0xabc298ce	-1.3826941e-12
10	0xa8c9a4a6	-2.2386888e-14
11	0x28be0964	2.109831e-14
12	0x28898e02	1.5271642e-14
13	0x27f6b593	6.847558e-15
14	0xa8de07db	-2.4650358e-14
15	0x2970ec99	5.349592e-14
16	0xa90b4538	-3.0924238e-14
17	0xa7d7c098	-5.98833e-15
18	0xa8872123	-1.5002382e-14
19	0xa84f3f09	-1.1504477e-14

exp_avg_sq f4 [2, 10]
0	0x1aaa3f48	7.041259e-23
1	0x1c79a804	8.2604344e-22
2	0x1bc4a6ee	3.2533356e-22
3	0x1c427ff2	6.435458e-22
4	0x1bb755c1	3.0330228e-22
5	0x1c2d98a5	5.7438187e-22
6	0x1c3da1c4	6.274393e-22
7	0x1c1be2ed	5.1578493e-22
8	0x1c720ab3	8.008491e-22
9	0x1c44321b	6.491572e-22
10	0x171ff6aa	5.1687005e-25
11	0x187d2031	3.2715736e-24
12	0x17bfd163	1.2395942e-24
13	0x17978b25	9.793271e-25
14	0x18831694	3.3885504e-24
15	0x17e0c907	1.4526407e-24
16	0x180910ed	1.771538e-24
17	0x186bb4da	3.0464345e-24
18	0x18561c75	2.7673219e-24
19	0x18483162	2.5874326e-24

exp_avg f4 [40, 10]
0	0x2631f6b2	6.1743546e-16
1	0xa6f44230	-1.6948841e-15
2	0xa6a6009b	-1.1518728e-15
3	0xa698e467	-1.0609027e-15
4	0x26c9726b	1.397819e-15
5	0xa70f74b5	-1.9908504e-15
6	0x26ee02ab	1.6515291e-15
7	0x26407c87	6.678215e-16
8	0x26a2e0ff	1.1301993e-15
9	0x26a6c963	1.157315e-15
10	0x20a3343c	2.764784e-19
11	0xa1629702	-7.6771636e-19
12	0xa119b6ff	-5.208061e-19
13	0xa10d7842	-4.793182e-19
14	0x213aac51	6.324731e-19
15	0xa1855964	-9.036092e-19
16	0x215cb1dd	7.47743e-19
17	0x20b13c4d	3.002487e-19
18	0x2116bd6a	5.1072664e-19
19	0x211a6e6a	5.232336e-19
20	0x8fc8d573	-1.980374e-29
21	0x0fa47929	1.6218318e-29
22	0x0f9989aa	1.5139991e-29
23	0x0f9d2d9a	1.549896e-29
24	0x8fa5cede	-1.6349939e-29
25	0x0f60df1f	1.1087024e-29
26	0x8faf07f8	-1.7259402e-29
27	0x8fa3f779	-1.6168364e-29
28	0x8fa30394	-1.6074419e-29
29	0x8f9bc1ca	-1.5358825e-29
30	0x27efddae	6.657617e-15
31	0xa8a68359	-1.8486665e-14
32	0xa861eb65	-1.2541052e-14
33	0xa84fec1d	-1.1542007e-14
34	0x28892dfc	1.5229998e-14
35	0xa8c3fcc4	-2.1758969e-14
36	0x28a22e55	1.8005706e-14
37	0x28023e81	7.230003e-15
38	0x285d8c0a	1.22983306e-14
39	0x2862f8e9	1.2599494e-14
40	0x24a2de65	7.063305e-17
41	0xa4848076	-5.7463496e-17
42	0xa4780423	-5.3779932e-17
43	0xa47e17ce	-5.5097634e-17
44	0x2485cd5c	5.802745e-17
45	0xa433ee91	-3.901651e-17
46	0x248d1cb9	6.119766e-17
47	0x2484dcd7	5.761999e-17
48	0x2483bc29	5.713095e-17
49	0x247ba2a2	5.4564704e-17
50	0x21de62c1	1.5069445e-18
51	0xa29a60de	-4.1844346e-18
52	0xa251749c	-2.8386514e-18
53	0xa240c523	-2.6125215e-18
54	0x227e5d82	3.4472922e-18
55	0xa2b5b46b	-4.9251173e-18
56	0x22965cac	4.07557e-18
57	0x21f18161	1.6365042e-18
58	0x224d66dc	2.7837134e-18
59	0x22526e87	2.851882e-18
60	0xa68bb51d	-9.694153e-16
61	0x2741f7b2	2.6918406e-15
62	0x2703959a	1.8261001e-15
63	0x26f23458	1.6806311e-15
64	0xa71fcc33	-2.217638e-15
65	0x27644d35	3.168321e-15
66	0xa73cebd1	-2.6218077e-15
67	0xa697b804	-1.0527607e-15
68	0xa70109aa	-1.7907585e-15
69	0xa704329c	-1.8346115e-15
70	0x9904fcce	-6.8752936e-24
71	0x19b8a342	1.9091093e-23
72	0x197a82a8	1.2951083e-23
73	0x19668df1	1.1919386e-23
74	0x99981c83	-1.5727947e-23
75	0x19d951ff	2.2470392e-23
76	0x99b3d585	-1.8594406e-23
77	0x99106bd1	-7.466399e-24
78	0x9975a980	-1.2700433e-23
79	0x997bad91	-1.3011447e-23
80	0xa60f41e1	-4.9702374e-16
81	0x26c6e56a	1.3801193e-15
82	0x2686ed89	9.362502e-16
83	0x26785bda	8.6166766e-16
84	0xa6a3dba7	-1.1369934e-15
85	0x26ea1a41	1.6244128e-15
86	0xa6c1b8b8	-1.3442133e-15
87	0xa61b92ed	-5.397555e-16
88	0xa6845109	-9.181305e-16
89	0xa6878e88	-9.40614e-16
90	0x23e40625	2.4722412e-17
91	0xa49e4add	-6.86484e-17
92	0xa456c41f	-4.6569974e-17
93	0xa445a84d	-4.2860122e-17
94	0x2482683e	5.6555106e-17
95	0xa4ba4fc8	-8.0799796e-17
96	0x249a2c9d	6.686243e-17
97	0x23f7a0d8	2.6847914e-17
98	0x24529c07	4.566865e-17
99	0x2457c453	4.6786986e-17
100	0x27b85877	5.1166173e-15
101	0xa7821f37	-3.611609e-15
102	0xa7810419	-3.5809135e-15
103	0xa78623d9	-3.7231337e-15
104	0x2788a177	3.7922643e-15
105	0xa714b950	-2.0639584e-15
106	0x278d25ed	3.917648e-15
107	0x27939fde	4.0974025e-15
108	0x278a99f6	3.846962e-15
109	0x278311fd	3.6379307e-15
110	0xa3e0f645	-2.4390428e-17
111	0x249c2ab3	6.772655e-17
112	0x2453e1c5	4.5944566e-17
113	0x244300d3	4.2284583e-17
114	0xa480a7ec	-5.579562e-17
115	0x24b7cf4c	7.9714774e-17
116	0xa4981a96	-6.596453e-17
117	0xa3f44d9d	-2.6487404e-17
118	0xa44fc801	-4.505538e-17
119	0xa454de9a	-4.6158723e-17
120	0x18590ee9	2.805412e-24
121	0x9916ae19	-7.789977e-24
122	0x98cc700d	-5.2845906e-24
123	0x98bc26ec	-4.8636162e-24
124	0x18f84588	6.4176706e-24
125	0x99315a11	-9.168874e-24
126	0x1912c288	7.587308e-24
127	0x186bb84c	3.0466084e-24
128	0x18c87b2d	5.1823164e-24
129	0x18cd6402	5.309224e-24
130	0xa2b4038b	-4.879285e-18
131	0x2379edab	1.3548645e-17
132	0x23298c22	9.191183e-18
133	0x231c0a7b	8.458996e-18
134	0xa34de67a	-1.11618776e-17
135	0x23931580	1.5946878e-17
136	0xa3736d1b	-1.319616e-17
137	0xa2c37d91	-5.2987805e-18
138	0xa3264417	-9.013297e-18
139	0xa32a5666	-9.234014e-18
140	0xa1397531	-6.283554e-19
141	0x2200d761	1.7461255e-18
142	0x21aec964	1.1844006e-18
143	0x21a0daea	1.0899968e-18
144	0xa1d445fa	-1.4384201e-18
145	0x2217aaea	2.0554797e-18
146	0xa1faf8a2	-1.7006472e-18
147	0xa14974e2	-6.825614e-19
148	0xa1ab65d5	-1.1614365e-18
149	0xa1af99c5	-1.1899164e-18
150	0xa408b638	-2.9644644e-17
151	0x24bdcef3	8.231627e-17
152	0x2480c34c	5.5842e-17
153	0x246d02d5	5.1393582e-17
154	0xa49c5f05	-6.7815185e-17
155	0x24df67ff	9.688701e-17
156	0xa4b8dec9	-8.017469e-17
157	0xa4147733	-3.219335e-17
158	0xa47c8ab1	-5.4761266e-17
159	0xa4815cf2	-5.610229e-17
160	0xa0641343	-1.9318724e-19
161	0x211e53f7	5.364361e-19
162	0x20d6d06c	3.6390932e-19
163	0x20c5b3af	3.3492003e-19
164	0xa1026fba	-4.419358e-19
165	0x213a5a7d	6.313901e-19
166	0xa11a3575	-5.224798e-19
167	0xa077af20	-2.0979658e-19
168	0xa0d2a820	-3.568664e-19
169	0xa0d7d0c0	-3.6560556e-19
170	0x2bc6fdfb	1.413924e-12
171	0xaba2f88f	-1.1579781e-12
172	0xab98219a	-1.0809576e-12
173	0xab9bbf2e	-1.1066475e-12
174	0x2ba449ab	1.1673348e-12
175	0xab5ed44b	-7.916486e-13
176	0x2bad6ccf	1.232259e-12
177	0x2ba2799e	1.1544548e-12
178	0x2ba18632	1.1476985e-12
179	0x2b9a566f	1.0966348e-12
180	0xa232bb1a	-2.422255e-18
181	0x22f8251c	6.7259826e-18
182	0x22a8566f	4.5628006e-18
183	0x229aed85	4.1993267e-18
184	0xa2cc6e60	-5.5411175e-18
185	0x231208c3	7.916531e-18
186	0xa2f1b06d	-6.550998e-18
187	0xa24218c4	-2.6305013e-18
188	0xa2a5146e	-4.474497e-18
189	0xa2a91f4f	-4.584069e-18
190	0xa76bf429	-3.274516e-15
191	0x2823cf2b	9.09324e-15
192	0x27de3fa2	6.168637e-15
193	0x27cc8af8	5.6772044e-15
194	0xa806f385	-7.491299e-15
195	0x2840ceb5	1.07029635e-14
196	0xa81f8c0d	-8.856642e-15
197	0xa7801f8d	-3.5561344e-15
198	0xa7d9f246	-6.0492272e-15
199	0xa7df48bf	-6.1973805e-15
200	0x1d875b0a	3.5828335e-21
201	0x9e3becf9	-9.948702e-21
202	0x9dfef8b6	-6.74904e-21
203	0x9deaa8f2	-6.211397e-21
204	0x1e1ad1f6	8.196111e-21
205	0x9e5d30b1	-1.1709712e-20
206	0x1e37095b	9.689874e-21
207	0x1d92fe2a	3.8908678e-21
208	0x1dfa0968	6.6184175e-21
209	0x1e00146f	6.780489e-21
210	0x9af2de67	-1.00448164e-22
211	0x1ba898f7	2.789212e-22
212	0x1b64bf61	1.8921556e-22
213	0x1b52867c	1.7414247e-22
214	0x9b8ae599	-2.297856e-22
215	0x1bc670da	3.282928e-22
216	0x9ba43612	-2.7166466e-22
217	0x9b03dfee	-1.0908422e-22
218	0x9b60520c	-1.8555356e-22
219	0x9b65d051	-1.9009747e-22
220	0x217ae9b3	8.5012593e-19
221	0xa22e2e85	-2.3606024e-18
222	0xa1ec52f0	-1.6013935e-18
223	0xa1d97f8b	-1.4738252e-18
224	0x220f7f51	1.9447515e-18
225	0xa24d0372	-2.7784505e-18
226	0x2229a66c	2.2991874e-18
227	0x21883e1b	9.232158e-19
228	0x21e7c012	1.5704009e-18
229	0x21ed6cec	1.6088576e-18
230	0x00000004	6e-45
231	0x80000004	-6e-45
232	0x80000004	-6e-45
233	0x80000004	-6e-45
234	0x00000004	6e-45
235	0x80000004	-6e-45
236	0x00000004	6e-45
237	0x00000004	6e-45
238	0x00000004	6e-45
239	0x00000004	6e-45
240	0x80000004	-6e-45
241	0x00000004	6e-45
242	0x00000004	6e-45
243	0x00000004	6e-45
244	0x80000004	-6e-45
245	0x00000004	6e-45
246	0x80000004	-6e-45
247	0x80000004	-6e-45
248	0x80000004	-6e-45
249	0x80000004	-6e-45
250	0x00000004	6e-45
251	0x00000004	6e-45
252	0x80000004	-6e-45
253	0x00000004	6e-45
254	0x00000004	6e-45
255	0x00000004	6e-45

exp_avg_sq f4 [40, 10]
0	0x111e404c	1.2483815e-28
1	0x152281f1	3.2818145e-26
2	0x14d3effe	2.1400216e-26
3	0x15944ebc	5.9900945e-26
4	0x157ca309	5.1019607e-26
5	0x14aaa6f4	1.7231465e-26
6	0x15814696	5.221405e-26
7	0x131e9413	2.001541e-27
8	0x15160ddc	3.0303192e-26
9	0x158eb4f2	5.7638825e-26
10	0x10443179	3.8692297e-29
11	0x14feb729	2.571969e-26
12	0x149ca23b	1.5815963e-26
13	0x155ca24d	4.455668e-26
14	0x15486b5d	4.0474373e-26
15	0x14734148	1.2281239e-26
16	0x1549d875	4.076238e-26
17	0x130a71cb	1.7474153e-27
18	0x14f1c48e	2.4412308e-26
19	0x155b85d7	4.433228e-26
20	0x15a162e5	6.518341e-26
21	0x16103ddf	1.165175e-25
22	0x16141e46	1.1964897e-25
23	0x161a8eed	1.248512e-25
24	0x163d4151	1.5287909e-25
25	0x15356bbd	3.663765e-26
26	0x1648f45f	1.6232981e-25
27	0x1571c1dd	4.8822494e-26
28	0x16146d49	1.1989829e-25
29	0x16160600	1.2118797e-25
30	0x1641f92e	1.5669043e-25
31	0x1652e482	1.7035769e-25
32	0x170a4a1a	4.4683734e-25
33	0x16007a70	1.0378392e-25
34	0x16f81e8d	4.008584e-25
35	0x15d5dd55	8.6379215e-26
36	0x1704a928	4.2865006e-25
37	0x15a06ae8	6.4792154e-26
38	0x166b4191	1.9003838e-25
39	0x16048dc2	1.0707606e-25
40	0x173d767b	6.1218737e-25
41	0x176119b8	7.2733883e-25
42	0x1992385e	1.5118813e-23
43	0x1788d837	8.843374e-25
44	0x196273d7	1.170732e-23
45	0x19dade7a	2.263053e-23
46	0x19757e4b	1.2691708e-23
47	0x17eb3094	1.5198782e-24
48	0x17b62d9f	1.1772991e-24
49	0x17858d8d	8.630656e-25
50	0x11be008c	2.9977051e-28
51	0x13de6d15	5.614824e-27
52	0x13909986	3.6502096e-27
53	0x145118a4	1.0556663e-26
54	0x142a461c	8.596633e-27
55	0x1387c765	3.427541e-27
56	0x14307ee1	8.910752e-27
57	0x1227fa70	5.3004597e-28
58	0x13c702f0	5.023756e-27
59	0x144d39b0	1.0361232e-26
60	0x121612ab	4.7354664e-28
61	0x1319f899	1.9433883e-27
62	0x13bbfb62	4.745332e-27
63	0x130b39cf	1.7572768e-27
64	0x13b4b66d	4.5618274e-27
65	0x1415bf91	7.5603574e-27
66	0x13c4c150	4.9667977e-27
67	0x126ffd84	7.5727585e-28
68	0x12b7780f	1.157852e-27
69	0x132efce6	2.2086576e-27
70	0x13b610a9	4.5959687e-27
71	0x1386a04d	3.3984424e-27
72	0x160d0f8b	1.1394794e-25
73	0x1409fd74	6.966717e-27
74	0x15d7177f	8.687488e-26
75	0x16503dea	1.6821643e-25
76	0x15e86132	9.38574e-26
77	0x145f9f98	1.1290097e-26
78	0x1422d68f	8.221224e-27
79	0x13bed89d	4.817634e-27
80	0x1284b269	8.374353e-28
81	0x1246832f	6.263948e-28
82	0x1321f3ce	2.0441262e-27
83	0x12e2021b	1.4263124e-27
84	0x13161c00	1.8946467e-27
85	0x13a85237	4.2490232e-27
86	0x132a2a2f	2.1477815e-27
87	0x12837c0c	8.297842e-28
88	0x11dba8d9	3.4656168e-28
89	0x12bf3b51	1.2068417e-27
90	0x1386f034	3.4063214e-27
91	0x13ab3c8f	4.3226184e-27
92	0x15d620f4	8.64859e-26
93	0x140f4107	7.2324794e-27
94	0x15a8a9a8	6.812233e-26
95	0x161e3b32	1.2781817e-25
96	0x15b662dd	7.3665193e-26
97	0x142c58b2	8.701273e-27
98	0x141a1642	7.779403e-27
99	0x13f61e20	6.2128836e-27
100	0x128f3d2a	9.039647e-28
101	0x13a81c63	4.2437154e-27
102	0x133640dd	2.300361e-27
103	0x13f3095d	6.1351057e-27
104	0x13b4fb5e	4.5686255e-27
105	0x137d8524	3.1998733e-27
106	0x13d6c1f3	5.4212443e-27
107	0x125236e8	6.6331993e-28
108	0x13662392	2.9047619e-27
109	0x14010513	6.513836e-27
110	0x0eb2f993	4.412072e-30
111	0x1193a421	2.3293663e-28
112	0x1166dd72	1.8212039e-28
113	0x11eb5050	3.712596e-28
114	0x11c8c498	3.1675596e-28
115	0x1150e610	1.64792e-28
116	0x11df3f04	3.5222033e-28
117	0x0f2977c6	8.355411e-30
118	0x11673084	1.8237637e-28
119	0x11fcf7bb	3.9911265e-28
120	0x10328a52	3.5210868e-29
121	0x1305f6a8	1.6908571e-27
122	0x12d9e59a	1.3751226e-27
123	0x13711e85	3.0433524e-27
124	0x1355683a	2.6935767e-27
125	0x1313c407	1.8650657e-27
126	0x136d75ff	2.9971782e-27
127	0x11235ec6	1.2887637e-28
128	0x12df3c38	1.4088124e-27
129	0x137aebe1	3.1670733e-27
130	0x1769ebb7	7.5583874e-25
131	0x171cd72f	5.067792e-25
132	0x170a0338	4.4594268e-25
133	0x170e6072	4.6004406e-25
134	0x1720344e	5.1764806e-25
135	0x1695c5e8	2.4197145e-25
136	0x17335c1c	5.795428e-25
137	0x171d16d5	5.0758254e-25
138	0x1719ae31	4.9656827e-25
139	0x170c12b9	4.526007e-25
140	0x162eda40	1.4124476e-25
141	0x15d7f33b	8.722156e-26
142	0x18875f68	3.4993018e-24
143	0x162ca340	1.3945562e-25
144	0x184d1810	2.6507777e-24
145	0x18c913ba	5.19772e-24
146	0x185eea4e	2.8811121e-24
147	0x16d9f07c	3.5210008e-25
148	0x16904832	2.3310016e-25
149	0x160544e9	1.0765399e-25
150	0x112fc76f	1.3866521e-28
151	0x126d73f0	7.492692e-28
152	0x11b06128	2.782778e-28
153	0x12b37585	1.1325459e-27
154	0x1265968e	7.244523e-28
155	0x129af787	9.779787e-28
156	0x128beb92	8.830206e-28
157	0x1144863b	1.5503037e-28
158	0x11dc7f01	3.4788152e-28
159	0x12ed0150	1.4957126e-27
160	0x11633dfc	1.7926243e-28
161	0x11caad31	3.1976718e-28
162	0x122b1509	5.3984014e-28
163	0x112002b0	1.2622603e-28
164	0x119dba1c	2.488493e-28
165	0x124dca17	6.493569e-28
166	0x11a56ffe	2.610143e-28
167	0x11677a55	1.8260383e-28
168	0x105d1ce1	4.3606813e-29
169	0x11a2587a	2.5613621e-28
170	0x1b62cd43	1.8760605e-22
171	0x1b18090e	1.2576071e-22
172	0x1b048a32	1.0963437e-22
173	0x1b0acb43	1.148077e-22
174	0x1b1a9695	1.2787237e-22
175	0x1a8e00ab	5.87309e-23
176	0x1b2c48bf	1.4251012e-22
177	0x1b1705c5	1.2492291e-22
178	0x1b155c45	1.2354805e-22
179	0x1b084ebb	1.1275096e-22
180	0x117aa709	1.9772994e-28
181	0x116ea6e7	1.882632e-28
182	0x11968055	2.3744918e-28
183	0x11330fc5	1.412547e-28
184	0x10c6c3b2	7.8398746e-29
185	0x11d41dbb	3.3466025e-28
186	0x113048b7	1.3906359e-28
187	0x11d8d1f2	3.420818e-28
188	0x0ffa3019	2.467043e-29
189	0x11b00d37	2.7776048e-28
190	0x134d4660	2.5909335e-27
191	0x13a20962	4.09038e-27
192	0x158ec68c	5.7666595e-26
193	0x134f1989	2.6139663e-27
194	0x15598fca	4.393623e-26
195	0x15d36f85	8.539817e-26
196	0x1570634c	4.8545945e-26
197	0x13f77fa9	6.247745e-27
198	0x13c6a899	5.0148477e-27
199	0x1331b4db	2.242971e-27
200	0x14bf4189	1.931192e-26
201	0x16018904	1.0463772e-25
202	0x15a3d1f0	6.61664e-26
203	0x165ae649	1.7682565e-25
204	0x161708ec	1.2200498e-25
205	0x1601202b	1.0430687e-25
206	0x163c2e71	1.5201173e-25
207	0x15411df9	3.8999684e-26
208	0x15acda34	6.981451e-26
209	0x1678d974	2.0101897e-25
210	0x13e4c4f6	5.774951e-27
211	0x16b3f3dc	2.9072907e-25
212	0x16a7e968	2.7127605e-25
213	0x1714071e	4.783036e-25
214	0x1718b618	4.9343683e-25
215	0x162d86cf	1.4017367e-25
216	0x1719df25	4.9718614e-25
217	0x14fbc6b3	2.5422896e-26
218	0x16b14e4a	2.86453e-25
219	0x1719cd2f	4.9695944e-25
220	0x14757192	1.2391737e-26
221	0x14995928	1.5484218e-26
222	0x14058b7b	6.742292e-27
223	0x152c0396	3.4737952e-26
224	0x14fd4ba3	2.5576305e-26
225	0x15032644	2.6485426e-26
226	0x15111f9a	2.9307446e-26
227	0x1499d91d	1.5534688e-26
228	0x148bfb6a	1.4134579e-26
229	0x15413326	3.901639e-26
230	0x164cea26	1.6552873e-25
231	0x161da248	1.2733566e-25
232	0x160ee4d6	1.1542877e-25
233	0x16035454	1.0608705e-25
234	0x162614f2	1.3415982e-25
235	0x15ad9538	7.010957e-26
236	0x163d47e2	1.5289981e-25
237	0x162e432a	1.4076801e-25
238	0x161180a0	1.1753594e-25
239	0x160f6b74	1.1585354e-25
240	0x1733131f	5.7862154e-25
241	0x16f01ab7	3.879095e-25
242	0x1973bdeb	1.2601159e-23
243	0x17617800	7.285288e-25
244	0x193b0a7a	9.669789e-24
245	0x19b9a105	1.9193587e-23
246	0x194b7698	1.0518804e-23
247	0x17d0c2fc	1.3490906e-24
248	0x17811303	8.341229e-25
249	0x1755d335	6.9090593e-25
250	0x145f6979	1.1279424e-26
251	0x14924dce	1.4772921e-26
252	0x13d9e88c	5.500781e-27
253	0x15170600	3.049894e-26
254	0x1494a999	1.5011075e-26
255	0x1515b5b2	3.0233643e-26

exp_avg f4 [40, 10]
0	0xa0b57937	-3.0742806e-19
1	0x269cb3aa	1.0873373e-15
2	0x1be2c323	3.7514668e-22
3	0x269cbefa	1.0876439e-15
4	0x208c01eb	2.3718192e-19
5	0x269cb3aa	1.0873373e-15
6	0x208bfb2e	2.3713733e-19
7	0xa6768473	-8.5527897e-16
8	0x208bff6e	2.3716545e-19
9	0x20b58beb	3.0755183e-19
10	0x935201b0	-2.6506558e-27
11	0x2115a81e	5.0705665e-19
12	0x0dbf6696	1.17959805e-30
13	0x2115a81e	5.0705665e-19
14	0x1340d1db	2.4337274e-27
15	0x2115a81e	5.0705665e-19
16	0x1340c0e8	2.4328917e-27
17	0xa0e62ec6	-3.8994468e-19
18	0x1340d0b8	2.4336713e-27
19	0x1353275f	2.6651356e-27
20	0x00000003	4e-45
21	0x0ed2c2da	5.1956632e-30
22	0x80000004	-6e-45
23	0x0ed2c2da	5.1956632e-30
24	0x00000000	0.0
25	0x0ed2c2da	5.1956632e-30
26	0x00000004	6e-45
27	0x8ea38d5f	-4.0318738e-30
28	0x00000004	6e-45
29	0x00000004	6e-45
30	0x9f2d138c	-3.6650344e-20
31	0x28572ed7	1.1945054e-14
32	0x1a56f30c	4.4450494e-23
33	0x28572f03	1.19450916e-14
34	0x1f05c124	2.8323608e-20
35	0x28572ed7	1.1945054e-14
36	0x1f05b9ea	2.831763e-20
37	0xa8292721	-9.389869e-15
38	0x1f05bec8	2.8321656e-20
39	0x1f2d27f9	3.666724e-20
40	0x20d64557	3.6298895e-19
41	0xa40e5a73	-3.0867955e-17
42	0x9c0154ed	-4.2792284e-22
43	0xa41005fc	-3.123009e-17
44	0xa0a5f34c	-2.8113088e-19
45	0xa40e5a73	-3.0867955e-17
46	0xa0a5e68e	-2.8104656e-19
47	0x23b02c53	1.910073e-17
48	0xa0a5f065	-2.8111167e-19
49	0xa0d66ee1	-3.6326384e-19
50	0x96fb4e81	-4.060078e-25
51	0x224c124e	2.7656846e-18
52	0x1180b244	2.0304704e-28
53	0x224c1250	2.765685e-18
54	0x16e40b38	3.6842467e-25
55	0x224c124e	2.7656846e-18
56	0x16e3f7b2	3.6830146e-25
57	0xa21cd380	-2.125391e-18
58	0x16e409b3	3.6841508e-25
59	0x16fc96fd	4.0808083e-25
60	0x0731ed8d	1.338581e-34
61	0xa7003d88	-1.7796925e-15
62	0x00000262	8.55e-43
63	0xa7003d88	-1.7796925e-15
64	0x0d3ec400	5.8784197e-31
65	0xa7003d88	-1.7796925e-15
66	0x80000004	-6e-45
67	0x26c50b09	1.3672612e-15
68	0x80000004	-6e-45
69	0x80000004	-6e-45
70	0x118b77a0	2.2004058e-28
71	0x99743182	-1.2624502e-23
72	0x8b31c018	-3.4233475e-32
73	0x9974329b	-1.2624724e-23
74	0x9187ef9a	-2.144691e-28
75	0x99743182	-1.2624502e-23
76	0x9187e380	-2.1439452e-28
77	0x193b8fe4	9.696732e-24
78	0x9187ef4b	-2.144672e-28
79	0x918c7cd2	-2.2165032e-28
80	0x1db69b47	4.833555e-21
81	0xa68378dc	-9.12271e-16
82	0x98e17484	-5.8278788e-24
83	0xa6837909	-9.122758e-16
84	0x9d8c96af	-3.7213495e-21
85	0xa68378dc	-9.12271e-16
86	0x9d8c8efa	-3.7205526e-21
87	0x264a0c7b	7.009974e-16
88	0x9d8c942d	-3.72109e-21
89	0x9db6b4af	-4.836182e-21
90	0x9b501863	-1.7213237e-22
91	0x244c6542	4.4321217e-17
92	0x168265cc	2.1066876e-25
93	0x244c6575	4.4321386e-17
94	0x1b206b1f	1.3269502e-22
95	0x244c6542	4.4321217e-17
96	0x1b2063dd	1.3267157e-22
97	0xa420cd43	-3.4868333e-17
98	0x1b206842	1.3268577e-22
99	0x1b502c56	1.7219682e-22
100	0x228ec018	3.8692564e-18
101	0xa725f55b	-2.3031357e-15
102	0x9dafb0a3	-4.6504752e-21
103	0xa7263c84	-2.3069933e-15
104	0xa25d1de7	-2.9966915e-18
105	0xa725f55b	-2.3031357e-15
106	0xa25d1058	-2.9959737e-18
107	0x2716f651	2.095021e-15
108	0xa25d1a06	-2.9964862e-18
109	0xa28ed40e	-3.87137e-18
110	0x0f8fb0b0	1.4168946e-29
111	0xa44fe266	-4.5077737e-17
112	0x8ab72dbc	-1.7639462e-32
113	0xa44fe266	-4.5077737e-17
114	0x8f5aac5b	-1.0781424e-29
115	0xa44fe266	-4.5077737e-17
116	0x8f5aee70	-1.0794151e-29
117	0x241ea498	3.4400205e-17
118	0x8f5aeee1	-1.0794236e-29
119	0x8f8fb965	-1.41723e-29
120	0x98c7e941	-5.167582e-24
121	0x0f2a33db	8.391634e-30
122	0x1368c443	2.9379281e-27
123	0x18c82a4f	5.174151e-24
124	0x18b2bea8	4.6204435e-24
125	0x0f50a070	1.0286091e-29
126	0x18b2afe3	4.618952e-24
127	0x8d621c7a	-6.9675904e-31
128	0x18b2bd4f	4.6203074e-24
129	0x18c8d7de	5.191676e-24
130	0x2013df8a	1.2525347e-19
131	0xa31f54b8	-8.637347e-18
132	0x9b36748a	-1.5092343e-22
133	0xa321a272	-8.762227e-18
134	0x9fe4e918	-9.694738e-20
135	0xa31f54b8	-8.637347e-18
136	0x9fe4db85	-9.692492e-20
137	0x22fa5a90	6.7858523e-18
138	0x9fe4e515	-9.694074e-20
139	0xa013f354	-1.2531895e-19
140	0x21ab7b57	1.1620059e-18
141	0x9bae5f79	-2.8847583e-22
142	0x9cc48d46	-1.300671e-21
143	0xa1ab2c35	-1.1599112e-18
144	0xa1869883	-9.120563e-19
145	0x9baee541	-2.8934037e-22
146	0xa1868844	-9.116262e-19
147	0x1b7ac3cf	2.0742784e-22
148	0xa1869642	-9.119966e-19
149	0xa1abb0f7	-1.1634253e-18
150	0x11c3b9dc	3.088012e-28
151	0xa47ca592	-5.4784033e-17
152	0x8cfa59b0	-3.8572578e-31
153	0xa47ca592	-5.4784033e-17
154	0x9194f13e	-2.349896e-28
155	0xa47ca592	-5.4784033e-17
156	0x9194f0f6	-2.3498786e-28
157	0x2440d166	4.181073e-17
158	0x9194f12e	-2.3498921e-28
159	0x91c3c45e	-3.0886596e-28
160	0x20d2b03e	3.569201e-19
161	0x97b7fdce	-1.1890167e-24
162	0x9bf6bef2	-4.0820682e-22
163	0xa0d23a52	-3.5613977e-19
164	0xa0a47d44	-2.7865575e-19
165	0x97e1aa9f	-1.4583355e-24
166	0xa0a46c90	-2.7854521e-19
167	0x15ef056f	9.6539904e-26
168	0xa0a47a77	-2.786372e-19
169	0xa0d2e7b3	-3.572871e-19
170	0x91a64f4a	-2.6239048e-28
171	0xab3a1205	-6.610548e-13
172	0x0b324633	3.4334365e-32
173	0xab3a1205	-6.610548e-13
174	0x11f95340	3.933658e-28
175	0xab3a1205	-6.610548e-13
176	0x11a2b4d2	2.5670532e-28
177	0x2af742b0	4.3922288e-13
178	0x11a2c2ce	2.567915e-28
179	0x11a765e4	2.641075e-28
180	0x22a51a6f	4.4751327e-18
181	0x98b174ba	-4.587129e-24
182	0x9dc18489	-5.1223713e-21
183	0xa2a4bda4	-4.465308e-18
184	0xa280de82	-3.493006e-18
185	0x9919f6fb	-7.959792e-24
186	0xa280d165	-3.4916175e-18
187	0x99169217	-7.784321e-24
188	0xa280dc50	-3.4927734e-18
189	0xa2a545ac	-4.4797108e-18
190	0x22ceab0d	5.601752e-18
191	0xa7d3a980	-5.8748037e-15
192	0x9dfc5335	-6.678988e-21
193	0xa7d3dd06	-5.88039e-15
194	0xa2a06752	-4.347748e-18
195	0xa7d3a980	-5.8748037e-15
196	0xa2a05c5e	-4.3465884e-18
197	0x27a642d8	4.6146728e-15
198	0xa2a06486	-4.347452e-18
199	0xa2cecbdc	-5.6052256e-18
200	0x99f17443	-2.4965774e-23
201	0x1df1bce3	6.3987473e-21
202	0x1516c9b8	3.0451387e-26
203	0x1df2ad9a	6.4236366e-21
204	0x19ba4ddd	1.9263398e-23
205	0x1df1bce3	6.3987473e-21
206	0x19ba44d3	1.9259747e-23
207	0x9dbe2ef6	-5.0341138e-21
208	0x19ba4a8e	1.9262062e-23
209	0x19f18d6f	2.497594e-23
210	0x0914247d	1.7832009e-33
211	0x9b5ef5eb	-1.844287e-22
212	0x836f4832	-7.0318664e-37
213	0x9b5ef5eb	-1.844287e-22
214	0x89097782	-1.6546967e-33
215	0x9b5ef5eb	-1.844287e-22
216	0x89096c3a	-1.6541663e-33
217	0x1b2b4552	1.4167187e-22
218	0x89097813	-1.6547234e-33
219	0x8915003d	-1.7935335e-33
220	0x97aaa6eb	-1.1028129e-24
221	0x21e61e7b	1.5593474e-18
222	0x12411e86	6.0937685e-28
223	0x21e61e87	1.5593487e-18
224	0x17991d35	9.894766e-25
225	0x21e61e7b	1.5593474e-18
226	0x1799107a	9.891553e-25
227	0xa1b0f181	-1.1990149e-18
228	0x17991c15	9.894482e-25
229	0x17ab771c	1.1080683e-24
230	0x80000004	-6e-45
231	0x80000004	-6e-45
232	0x00000004	6e-45
233	0x80000004	-6e-45
234	0x00000004	6e-45
235	0x80000004	-6e-45
236	0x00000004	6e-45
237	0x00000004	6e-45
238	0x00000004	6e-45
239	0x00000004	6e-45
240	0x00000004	6e-45
241	0x80000004	-6e-45
242	0x00000004	6e-45
243	0x00000004	6e-45
244	0x00000004	6e-45
245	0x80000004	-6e-45
246	0x80000004	-6e-45
247	0x00000004	6e-45
248	0x00000004	6e-45
249	0x80000004	-6e-45
250	0x80000004	-6e-45
251	0x80000004	-6e-45
252	0x00000004	6e-45
253	0x00000004	6e-45
254	0x00000004	6e-45
255	0x80000004	-6e-45

exp_avg_sq f4 [40, 10]
0	0x142ca514	8.716337e-27
1	0x136b715b	2.9717059e-27
2	0x138ed134	3.605213e-27
3	0x114ca57e	1.6143759e-28
4	0x1236cb16	5.7679397e-28
5	0x1492df3d	1.4830285e-26
6	0x12c7d8b1	1.2612084e-27
7	0x1247d8aa	6.3060387e-28
8	0x12e89264	1.4677346e-27
9	0x13a90002	4.2661605e-27
10	0x146ebb75	1.2052899e-26
11	0x13c0f5fa	4.8710166e-27
12	0x13cf5ce8	5.234576e-27
13	0x10097b60	2.711353e-29
14	0x10e42091	8.998032e-29
15	0x149c9f36	1.5814772e-26
16	0x11335292	1.4146054e-28
17	0x129e8899	1.0004876e-27
18	0x11721167	1.9095796e-28
19	0x13fd0eda	6.3880824e-27
20	0x149a868a	1.5603092e-26
21	0x15065abc	2.713266e-26
22	0x147018d2	1.21217984e-26
23	0x14dac1e9	2.2088859e-26
24	0x11d68f11	3.3851418e-28
25	0x15569d50	4.3341054e-26
26	0x12361734	5.7457674e-28
27	0x148c76ca	1.4183241e-26
28	0x1242b95d	6.1444084e-28
29	0x150fd04d	2.904294e-26
30	0x12191b5b	4.8312006e-28
31	0x16abc270	2.7749247e-25
32	0x15c8d945	8.112215e-26
33	0x1416364e	7.5837744e-27
34	0x1305893f	1.6854628e-27
35	0x16b71648	2.9579306e-25
36	0x1351d66a	2.6485223e-27
37	0x16628584	1.8298265e-25
38	0x138484e5	3.345253e-27
39	0x16b15369	2.8648531e-25
40	0x1605add7	1.0798509e-25
41	0x17a84afd	1.0875675e-24
42	0x15b9f699	7.510997e-26
43	0x1a659942	4.747989e-23
44	0x17c0608e	1.2432083e-24
45	0x1a50ae8b	4.3154387e-23
46	0x18f051a9	6.2121e-24
47	0x19912f94	1.5011865e-23
48	0x184617d3	2.5602928e-24
49	0x166afb96	1.8981756e-25
50	0x12a4c9fb	1.0399647e-27
51	0x11ab4c4d	2.7026067e-28
52	0x122fc877	5.5467355e-28
53	0x10df9d6c	8.820054e-29
54	0x11b1e999	2.8069642e-28
55	0x12c54e61	1.245177e-27
56	0x13074fd0	1.7078746e-27
57	0x126b7b1b	7.4304664e-28
58	0x1309e51d	1.7404793e-27
59	0x1271df0b	7.6321113e-28
60	0x11ab40e0	2.7019025e-28
61	0x12737ab6	7.6828533e-28
62	0x1275d84e	7.7574985e-28
63	0x1317cc40	1.9159582e-27
64	0x114bdfa0	1.6082786e-28
65	0x137b0228	3.1681717e-27
66	0x12bb83c4	1.1833842e-27
67	0x1351cb80	2.6479842e-27
68	0x12c0980c	1.2154386e-27
69	0x12b73a81	1.1563346e-27
70	0x134b23af	2.5639796e-27
71	0x146f0171	1.2066701e-26
72	0x12146905	4.683001e-28
73	0x16ce37d6	3.3316332e-25
74	0x14292b66	8.540878e-27
75	0x16c0972b	3.1114673e-25
76	0x1555e011	4.3191765e-26
77	0x161d2857	1.2695088e-25
78	0x14ad4ddb	1.7499244e-26
79	0x139416b3	3.7382836e-27
80	0x1282f376	8.264171e-28
81	0x1224648b	5.1873204e-28
82	0x128e6aff	8.987836e-28
83	0x12c1ab3a	1.2222223e-27
84	0x123d9e0c	5.983269e-28
85	0x1339c102	2.3445443e-27
86	0x12fa6e36	1.5804387e-27
87	0x135b43d2	2.7675124e-27
88	0x132cad20	2.179481e-27
89	0x12d87e83	1.3662704e-27
90	0x13cc360a	5.1550127e-27
91	0x14396131	9.359281e-27
92	0x135a87f4	2.7582498e-27
93	0x1662829e	1.829735e-25
94	0x13ca27a9	5.1031077e-27
95	0x165bfde6	1.7770795e-25
96	0x14e70c62	2.3329923e-26
97	0x15ad092c	6.9888614e-26
98	0x14378966	9.266236e-27
99	0x13df7f71	5.641878e-27
100	0x13a4ea78	4.1630624e-27
101	0x1293b193	9.32078e-28
102	0x12af90dd	1.1079764e-27
103	0x12154174	4.7096787e-28
104	0x1271694e	7.617599e-28
105	0x14410e6e	9.746856e-27
106	0x12c88530	1.2654608e-27
107	0x1263a3d1	7.183049e-28
108	0x12fb0725	1.5842088e-27
109	0x12ba6690	1.1763534e-27
110	0x11f528c3	3.8679306e-28
111	0x111d76d5	1.2421734e-28
112	0x10e34fea	8.965884e-29
113	0x0f0f5964	7.06766e-30
114	0x1039364e	3.6526652e-29
115	0x126b2f77	7.421143e-28
116	0x10b817f9	7.261214e-29
117	0x107743ac	4.8764293e-29
118	0x10dd79fa	8.7357065e-29
119	0x1137b641	1.4492316e-28
120	0x137a3167	3.1578793e-27
121	0x12956bc6	9.42979e-28
122	0x12840c1d	8.333357e-28
123	0x12d9d75a	1.3747714e-27
124	0x119a882c	2.4380838e-28
125	0x13fed61a	6.4329735e-27
126	0x11bf7eeb	3.0212706e-28
127	0x12390d96	5.8392453e-28
128	0x11b3e695	2.8383328e-28
129	0x128a7d1f	8.739869e-28
130	0x113c43e7	1.4851509e-28
131	0x15c8f842	8.117104e-26
132	0x10e53e67	9.042072e-29
133	0x15b675fd	7.369537e-26
134	0x1307b6c3	1.7129504e-27
135	0x15cba5b7	8.22525e-26
136	0x13214948	2.0357187e-27
137	0x15c2d617	7.869375e-26
138	0x131431c7	1.8704768e-27
139	0x1416a595	7.60572e-27
140	0x15694d2c	4.7114853e-26
141	0x16c7a432	3.2253806e-25
142	0x14fe8d93	2.5703287e-26
143	0x19592142	1.12253534e-23
144	0x16d2e0aa	3.4069113e-25
145	0x1948d6bf	1.0383125e-23
146	0x17e33cc5	1.4684872e-24
147	0x188ad1a9	3.5883867e-24
148	0x17440a9a	6.3344397e-25
149	0x15f15184	9.7467734e-26
150	0x1293a994	9.318808e-28
151	0x113e8efb	1.5032416e-28
152	0x12637edf	7.178495e-28
153	0x11c1d5a1	3.058169e-28
154	0x121b18ad	4.893979e-28
155	0x130acff4	1.7520578e-27
156	0x1340aaee	2.4318082e-27
157	0x12a8a0b9	1.0641912e-27
158	0x13498055	2.543304e-27
159	0x12663594	7.2641243e-28
160	0x114527c5	1.5552815e-28
161	0x11c35da2	3.082328e-28
162	0x1335aa7a	2.2929463e-27
163	0x12414ecc	6.0997187e-28
164	0x10b61eef	7.1834003e-29
165	0x13930589	3.7113475e-27
166	0x132d3bec	2.1865214e-27
167	0x12cfeae2	1.312144e-27
168	0x132a025e	2.1458184e-27
169	0x12879e40	8.558709e-28
170	0x1184d08c	2.0954455e-28
171	0x19cd84a3	2.1250075e-23
172	0x112cde43	1.3636897e-28
173	0x19cd88ca	2.1251752e-23
174	0x11146567	1.1706388e-28
175	0x19cd89b8	2.1252127e-23
176	0x12bae861	1.1795536e-27
177	0x19af1df5	1.8106675e-23
178	0x12a20cd5	1.0226801e-27
179	0x121a125b	4.8616457e-28
180	0x114ccc1b	1.6155657e-28
181	0x119637ae	2.3700142e-28
182	0x12b5ec70	1.1480992e-27
183	0x1173202b	1.9179233e-28
184	0x118d7c18	2.2322356e-28
185	0x130a5eb2	1.7464737e-27
186	0x12966e29	9.493487e-28
187	0x1219d9bc	4.8546666e-28
188	0x1295d889	9.456602e-28
189	0x11873a8c	2.1335327e-28
190	0x11535fb5	1.6674457e-28
191	0x14e30bdd	2.2925822e-26
192	0x12f3fa4c	1.5397159e-27
193	0x163094eb	1.4264157e-25
194	0x13950e25	3.7626836e-27
195	0x1627ae5c	1.3545171e-25
196	0x14abdb63	1.735312e-26
197	0x15a5e4a3	6.7003694e-26
198	0x14026fe8	6.585392e-27
199	0x14741b38	1.232422e-26
200	0x1615c9ad	1.2099762e-25
201	0x1535b201	3.669308e-26
202	0x162f7638	1.4173691e-25
203	0x14501114	1.05046844e-26
204	0x151f52ea	3.2175202e-26
205	0x1702c34e	4.2251775e-25
206	0x15e100bc	9.0877935e-26
207	0x15319376	3.586119e-26
208	0x15dc8f67	8.908354e-26
209	0x151e83a5	3.2011695e-26
210	0x1533a4b2	3.6278684e-26
211	0x1481f78e	1.3123314e-26
212	0x141d213e	7.93303e-27
213	0x13653ced	2.8933902e-27
214	0x139ec84e	4.0082323e-27
215	0x164a9b69	1.6366469e-25
216	0x13ecfd48	5.982453e-27
217	0x15a32eb1	6.590884e-26
218	0x140b9c41	7.048522e-27
219	0x149984ca	1.5501428e-26
220	0x149432a8	1.4964161e-26
221	0x13f2da38	6.130457e-27
222	0x14189f25	7.7054246e-27
223	0x141bcec4	7.8662775e-27
224	0x1435b227	9.173299e-27
225	0x14ff20d7	2.5761373e-26
226	0x14b46996	1.8217002e-26
227	0x14e410f0	2.3028797e-26
228	0x14fcaf55	2.5514654e-26
229	0x14e78452	2.337723e-26
230	0x1504bdc3	2.6806883e-26
231	0x1557512a	4.348293e-26
232	0x15466a03	4.006941e-26
233	0x14309b2c	8.9163315e-27
234	0x15168f86	3.040548e-26
235	0x161ef518	1.2840476e-25
236	0x14a5a3ab	1.6725298e-26
237	0x14d6f6e9	2.1705867e-26
238	0x150711db	2.7277118e-26
239	0x153106d8	3.5750264e-26
240	0x162ee496	1.4127737e-25
241	0x17a0d214	1.0392789e-24
242	0x15b11551	7.152336e-26
243	0x1a4147ba	3.9969405e-23
244	0x17a901ad	1.0921792e-24
245	0x1a3026c9	3.6427277e-23
246	0x18e12586	5.8199026e-24
247	0x1981d485	1.3424123e-23
248	0x185b842b	2.8371814e-24
249	0x16b214f5	2.8770677e-25
250	0x14a76f11	1.6906499e-26
251	0x13c99da7	5.089499e-27
252	0x15308146	3.5644896e-26
253	0x14156887	7.543192e-27
254	0x1461f3d9	1.14076875e-26
255	0x156e3bb1	4.8110805e-26

exp_avg f4 [40]
0	0x26a186e6	1.1208183e-15
1	0x21171e76	5.1201105e-19
2	0x0f23d57b	8.077635e-30
3	0x285e1ab1	1.2329263e-14
4	0xa406e8c7	-2.9253788e-17
5	0x224deb18	2.7907138e-18
6	0xa7015cbc	-1.7952618e-15
7	0x997647a5	-1.27323704e-23
8	0xa684a637	-9.204393e-16
9	0x245323a3	4.5783517e-17
10	0xa7467fb8	-2.7547256e-15
11	0xa4504dc3	-4.5168677e-17
12	0x18c8fc3b	5.1953476e-24
13	0xa326af26	-9.035967e-18
14	0xa1abf37d	-1.1651862e-18
15	0xa47d2d41	-5.489896e-17
16	0xa0d32fbd	-3.577638e-19
17	0xab2254b5	-5.7671516e-13
18	0xa2a57e5d	-4.485713e-18
19	0xa7da8272	-6.0648584e-15
20	0x1dfaaa6a	6.6350653e-21
21	0x9b60e274	-1.8602017e-22
22	0x21e85542	1.5743499e-18
23	0x80000004	-6e-45
24	0x80000004	-6e-45
25	0x80000004	-6e-45
26	0xa71d52b9	-2.183297e-15
27	0x902db263	-3.4255658e-29
28	0xa76b8656	-3.2685625e-15
29	0x9e9b38cd	-1.6434756e-20
30	0xa7d9fe8b	-6.0505575e-15
31	0xa44dcf06	-4.4627645e-17
32	0x27c5e283	5.492407e-15
33	0xa8ed451f	-2.6342262e-14
34	0xa480cc3b	-5.585713e-17
35	0xa46fc428	-5.1991015e-17
36	0xa5016219	-1.1222203e-16
37	0x23281668	9.112043e-18
38	0xa5c3ce77	-3.3967014e-16
39	0x00224b7a	3.149483e-39

exp_avg_sq f4 [40]
0	0x16253918	1.334661e-25
1	0x15d7dbc9	8.718457e-26
2	0x161e8f97	1.2808447e-25
3	0x17115b4a	4.696725e-25
4	0x1a7c0f09	5.2124524e-23
5	0x1541bc09	3.9124373e-26
6	0x154f89de	4.1912075e-26
7	0x16fd2071	4.0894828e-25
8	0x15d9b1f8	8.792639e-26
9	0x16bb7150	3.028299e-25
10	0x1508e5c5	2.7646237e-26
11	0x132dfd42	2.1960536e-27
12	0x148b8e8c	1.4091638e-26
13	0x162e792b	1.4093842e-25
14	0x196f8527	1.23829e-23
15	0x14e028ac	2.2634262e-26
16	0x15259bad	3.344429e-26
17	0x1a16fe27	3.1224576e-23
18	0x14a110a8	1.6263415e-26
19	0x1679515b	2.0139731e-25
20	0x17fa38b4	1.6170185e-24
21	0x17e04d0e	1.4495112e-24
22	0x177fcaea	8.2651057e-25
23	0x16ffabd9	4.1305923e-25
24	0x1a68d53d	4.8148728e-23
25	0x17bfa9ec	1.238598e-24
26	0x18404f2d	2.4855392e-24
27	0x1905bf7d	6.9146096e-24
28	0x18544b92	2.7438511e-24
29	0x1917f9f5	7.8569955e-24
30	0x178fbecb	9.289321e-25
31	0x18e1a15f	5.832408e-24
32	0x179eab05	1.0253682e-24
33	0x188b7530	3.6048987e-24
34	0x17fc5f82	1.6309228e-24
35	0x1664ae1a	1.847263e-25
36	0x1a972b93	6.2522534e-23
37	0x168cf5c8	2.277333e-25
38	0x1a2b303a	3.5400928e-23
39	0x17ce1cc3	1.3319698e-24

exp_avg f4 [40]
0	0x26a186e6	1.1208183e-15
1	0x21171e76	5.1201105e-19
2	0x0f23d57b	8.077635e-30
3	0x285e1ab1	1.2329263e-14
4	0xa406e8c6	-2.9253785e-17
5	0x224deb18	2.7907138e-18
6	0xa7015cbc	-1.7952618e-15
7	0x997647a5	-1.27323704e-23
8	0xa684a637	-9.204393e-16
9	0x245323a3	4.5783517e-17
10	0xa7467fb8	-2.7547256e-15
11	0xa4504dc3	-4.5168677e-17
12	0x18c8fc3b	5.1953476e-24
13	0xa326af26	-9.035967e-18
14	0xa1abf37e	-1.1651863e-18
15	0xa47d2d41	-5.489896e-17
16	0xa0d32fbd	-3.577638e-19
17	0xab2254b4	-5.767151e-13
18	0xa2a57e5d	-4.485713e-18
19	0xa7da8272	-6.0648584e-15
20	0x1dfaaa6a	6.6350653e-21
21	0x9b60e274	-1.8602017e-22
22	0x21e85542	1.5743499e-18
23	0x80000004	-6e-45
24	0x80000004	-6e-45
25	0x80000004	-6e-45
26	0xa71d52b9	-2.183297e-15
27	0x902db263	-3.4255658e-29
28	0xa76b8656	-3.2685625e-15
29	0x9e9b38cd	-1.6434756e-20
30	0xa7d9fe89	-6.0505567e-15
31	0xa44dcf06	-4.4627645e-17
32	0x27c5e282	5.4924064e-15
33	0xa8ed451f	-2.6342262e-14
34	0xa480cc3d	-5.5857144e-17
35	0xa46fc428	-5.1991015e-17
36	0xa5016219	-1.1222203e-16
37	0x23281668	9.112043e-18
38	0xa5c3ce77	-3.3967014e-16
39	0x00224b79	3.149481e-39
