results/baseline_lstm_task2_seed42/model_lstm_ntask2_nchar2_seed42.pt (torch, 20479 bytes, 21 tensors)

embedding.weight f4 [2, 10]
00000000: c15d 0440 9ae5 fb3f a574 efbf c747 0840
00000010: 17ea fb3f 580b bcbf ce1a d9bf 3d87 db3f
00000020: e306 263f 5428 e4bf f3ad 043f 85c1 7c3f
00000030: e977 84bf 8245 6cc0 f81a 68c0 6285 3740
00000040: 5dbc 3240 0713 68c0 8ca2 0ec0 3c0e 5f40
2.0682223 1.9679444 -1.8707472 2.129381 1.9680814 -1.4690962 -1.6961305 1.7150646
0.6485426 -1.7824807 0.51827925 0.9873279 -1.0349094 -3.6917424 -3.626646 2.867516
2.7927468 -3.6261613 -2.228671 3.4852438

lstm.weight_ih_l0 f4 [40, 10]
00000000: 18e2 583d d32b 233f 2c1f 81bb feb4 7d3f
00000010: 6d28 083f eff7 dabf 6aa6 c3bd 4dd2 bb3d
00000020: 296f 3240 c1d6 a2be 8f38 4c40 26f5 5b40
00000030: 2747 4ac0 8c95 cf3f cae3 2240 1971 18c0
00000040: 6346 37c0 8a6a 2a40 eab3 a43f c249 ecbf
00000050: f12c 12c0 d01e 3fc0 d2c7 4b40 9aaf 5a3f
00000060: 6dd8 a9bf 85d9 07bf 99f3 2640 711d 35c0
00000070: c250 cc3f 9b3a acbe 3e92 bebe 4fc7 bf3e
00000080: 1ddf be3c c57c 5040 6d68 ce3f 8fc9 18c0
00000090: 7d65 32bf f5a7 c83e a018 da3f 10ae d0bf
000000a0: 19fb e03f a51d fa3e 6bed e0be 98de 63c0
000000b0: 48b9 b8bf feaf 1940 1d79 89be 7c2c 023f
000000c0: 87a9 14c0 2ffb 2f40 6fcd d03f 465a 443f
000000d0: 9348 9bbf 6fe5 3fc0 38fb babf 9525 2c40
000000e0: aa2b e7be bf65 0c3f ad50 17c0 7b4d 2440
000000f0: 46b6 37bf 5c61 3dbe 5ad7 a93e 2b4d 2240
00000100: 533c af3f 969e cdbf a192 2fbf caba 603f
00000110: b839 1840 ad6c e8bf ed9a 723f 5be2 6c3f
00000120: 1268 6dbf 4dfb 67c0 7df8 6dbf 157e 4340
00000130: b883 29bc c1e5 103f 0476 1fc0 2035 2440
00000140: ab71 10bf 1673 2ebf 1fd0 7f3f c50b 6540
00000150: 70e0 9b3f 1ee4 e4bf ba01 ccbe d32e 063f
00000160: db89 d63f 16c4 13c0 6b07 3b3f 7c4d 9ebf
00000170: a27a cf3f b1c3 1dbf 995c 85bf 6768 1c3f
00000180: 567e 993f 29a3 aabf 8737 4bbd 366d 403f
00000190: b2e9 913e 56a4 f23e e793 2740 c403 51c0
000001a0: 79b6 47c0 e741 033e 79f1 4140 ea1b 26c0
000001b0: d513 37bf a622 4240 2c61 5740 c100 4a40
000001c0: cd48 40c0 49c1 f4be 2c3e f33f 7ce7 50be
000001d0: 1c29 08c0 8d76 0440 5df1 c4bf ea93 64be
000001e0: 4fae 90bf 2c64 23c0 4567 4640 a35a 833f
000001f0: 73c0 37bf 4012 dbbf 952d 4640 b9ab 2dc0
00000200: f6ad 423f 0fa7 a4bf fdd9 403f 1b5f 5d3f
00000210: 2ad0 3bbf 0a52 883f 73b0 293f 1c06 6ebf
00000220: 8cbe 1bbf a243 7a3e 4fc3 d93f 1906 9bbe
00000230: 4e10 3340 ebfe c63f 3b1b 74bf f0d0 33c0
00000240: 80ae 6c3f 9d4a fd3f dab1 4fbf 0fc0 dc3f
00000250: e683 3dc0 aa29 d03f c814 1e40 dd83 c23f
00000260: 752c a3bf ef80 52c0 8ea3 c9bf a7eb 2340
00000270: 09a4 e8be 49c4 283f ea4f 44c0 5a82 6b40
00000280: 409f 4e3f e36f 6b3f 390d 67be dd02 d93f
00000290: 1a83 6b3f d63f 83bf 6e8b 87bf 0d5d 6e3f
000002a0: 6bd6 c13f d746 b6bf d525 1740 8277 993f
000002b0: a0b9 67bf 9693 42c0 fbfb cbbf e107 ef3f
000002c0: 5679 46be 27c0 9f3e 2912 21c0 298d 1e40
000002d0: 04fa 0240 7556 1040 c2c6 22c0 67e1 2440
000002e0: 6b05 1d40 0c47 13c0 4bc8 ebbf 6881 0840
000002f0: 9e58 503f 5f9a 2bc0 e44a e73e e9ed 06c0
00000300: 56e7 b93f 69d1 44bf 5a9f 6abf a1b2 d43f
00000310: da2a 7a3f fd0f 43bf f0bc 23bf f2ac 583f
00000320: c697 373f 71a0 653e 9ea3 55bf f428 58c0
00000330: dbcf e0bf 9c7f 2c40 4bda 30bf 4ccd 913f
00000340: 8e5f 2bc0 d9a8 3640 bbdf 45c0 f7ed 42c0
00000350: 1db8 2a40 58f2 a43e b4da 0ac0 8592 a93f
00000360: 3af9 0740 2148 0bc0 4992 e8be f5aa 7b3f
00000370: c05f 343f 6e6b 903f a879 abbf d272 8c40
00000380: 62af 5d40 c56a 6ec0 34b9 02c0 46d7 1240
00000390: 5090 5140 5644 99c0 11a9 6b3f 8a91 f4be
000003a0: 241e 1c3f 7369 41bf b987 65bd 63fb 6a3f
000003b0: 5617 383e 35b2 4abe 333b 2abf a9af 41bd
000003c0: b56b 103e b10f 903e ec1d 4dbf 7eab 00c0
000003d0: ba50 6ebf 4b46 083f b821 b73d e51d 5abe
000003e0: 3b47 72bf be54 ac3f fb65 cfbf c1af c2bf
000003f0: eee2 c03f 71ec 3840 ac90 4b3f 205b 20c0
0.052949995 0.63738745 -0.0039404836 0.991043 0.53186685 -1.7106913 -0.09553225 0.09170971
2.7880347 -0.3180447 3.190952 3.4368377 -3.1605928 1.6217513 2.5451531 -2.381903
-2.863671 2.6627526 1.2867405 -1.8460009 -2.283993 -2.9862556 3.184071 0.85424197
-1.3269173 -0.53066283 2.608618 -2.829922 1.5962145 -0.33638462 -0.3722095 0.37456748
0.023299748 3.2576153 1.6125618 -2.3873022 -0.6968611 0.3919064 1.7038765 -1.630312
1.7576629 0.48850742 -0.43931136 -3.560461 -1.4431543 2.4013667 -0.26850215 0.5084913
-2.3228471 2.749706 1.6312693 0.76700246 -1.2131523 -2.9983785 -1.4607916 2.6897938
-0.451505 0.5484275 -2.364299 2.567229 -0.717625 -0.18494171 0.33172113 2.53596
1.3690284 -1.6064022 -0.6858311 0.8778502 2.3785229 -1.8158165 0.9476765 0.9253289
-0.92736924 -3.6247132 -0.9295729 3.0545704 -0.010346346 0.56600577 -2.491578 2.5657425
-0.56423444 -0.6814436 0.9992694 3.5788434 1.2177868 -1.7882116 -0.39845067 0.524152
1.676082 -2.3088431 0.73058194 -1.2367396 1.62093 -0.61626726 -1.0418884 0.61096805
1.199168 -1.3331043 -0.049613502 0.7516664 0.28498608 0.47391003 2.6184022 -3.2658548
-3.1205122 0.12818108 3.0303633 -2.5954537 -0.71514636 3.0333648 3.365306 3.156296
-3.0044434 -0.47803715 1.9003348 -0.20400804 -2.127509 2.0697358 -1.5386158 -0.2232205
-1.1303195 -2.552989 3.100053 1.0262035 -0.7177803 -1.7114944 3.096532 -2.713606
0.76046693 -1.2863482 0.75332624 0.86473244 -0.7336451 1.0650036 0.66284865 -0.9297807
-0.60837626 0.24439862 1.7012728 -0.3027809 2.7978702 1.5546545 -0.9535405 -2.8096275
0.92453766 1.9788395 -0.81130755 1.7246112 -2.9611754 1.6262715 2.4700184 1.5196491
-1.2747942 -3.2891195 -1.5753038 2.561258 -0.4543765 0.6592451 -3.0673776 3.679831
0.80711746 0.919676 -0.22563638 1.6953999 0.9199692 -1.0253856 -1.0589426 0.93110734
1.514356 -1.4240369 2.361684 1.1989596 -0.90517616 -3.040258 -1.5936273 1.867428
-0.19382223 0.31201288 -2.5167334 2.4773657 2.0465097 2.255277 -2.5433812 2.5762575
2.4534557 -2.3012114 -1.84205 2.1328983 0.8138522 -2.681297 0.45174325 -2.108271
1.4523723 -0.76882035 -0.916494 1.6617013 0.97721636 -0.7619627 -0.6396017 0.84638894
0.7171596 0.22424485 -0.83452785 -3.3774996 -1.7563432 2.6952887 -0.6908309 1.1390777
-2.6777072 2.8540556 -3.0917804 -3.0457742 2.6674874 0.32216144 -2.1695986 1.3247839
2.1245866 -2.1762774 -0.45424107 0.98307735 0.704586 1.1282785 -1.3396502 4.389016
3.4638295 -3.7252667 -2.042554 2.2943892 3.2744331 -4.789592 0.9205485 -0.47767287
0.6098349 -0.7555153 -0.05603764 0.91789836 0.17977652 -0.19794543 -0.6649658 -0.047286663
0.14103587 0.28136972 -0.8012378 -2.010467 -0.9309193 0.5323226 0.08941978 -0.21300466
-0.9463994 1.3463361 -1.6202997 -1.5209886 1.5069253 2.8894312 0.79517627 -2.5055618

lstm.weight_hh_l0 f4 [40, 10]
00000000: a33a 6240 5a5a 0ac0 9adc 803f 350e 04bf
00000010: 4776 13bf 3a8e ea3e 1866 0f40 ea68 873e
00000020: 4fef 11c0 c01a bc3f 4e7f b5bf 8d02 5140
00000030: eae8 eebf da95 f7bf b452 05c0 9351 0a40
00000040: ebae 8fbf d26e 0440 5b81 973f 904f 33be
00000050: 1fae 4540 6e9e 27c0 1c40 ec3f 6bd4 863d
00000060: 012e 1c40 85e6 06c0 a79c 8abf 4b31 f0bf
00000070: 3c36 ab3e 9d85 253e 6cc8 d63f 52fb 93bf
00000080: c949 0540 306b 643f 0fc9 693f 2c43 35bf
00000090: 1275 023e 90d6 50bf bb50 07be dd09 8abc
000000a0: 369a 9abf a711 0840 69e2 93bf 5387 673f
000000b0: b390 24c0 f65a 1340 28c2 af3f 1e3d 1740
000000c0: 2b46 d6bf 72bc 2c3f 321f 83bf a27d c33f
000000d0: aa22 edbf add1 9e3f 199c 07c0 20f2 0440
000000e0: 8aa5 1740 0812 f83f 0096 0ec0 8d6d fb3e
000000f0: 2833 713f 0a36 8ebf 8361 5e3f f1e7 81bd
00000100: 5ba1 b93f 3720 8bbf 1617 07bf a418 9fbe
00000110: 68e1 dd3e 391a d8bc f127 72bf ce94 bc3f
00000120: a47e f8bf d320 e93f b4af 14c0 358a f63f
00000130: e21f 1e40 9654 0340 ab94 1bc0 ddc0 283f
00000140: b5bd d03f 6070 ebbe 95d5 e53f 83e3 98bd
00000150: 7d23 a93f f048 98bf 9587 8a3f fbc0 6ebf
00000160: 39b5 27bf 7c01 013e d584 a63f 1eb0 c6bf
00000170: 380a 843f ce44 fe3e 9482 73bf 90ed 473f
00000180: 4d71 ef3e 58ce 493e 713e 65bf 98b6 b73e
00000190: 4057 663f 1361 18c0 2a0a 2cbf 8657 4ebe
000001a0: 0192 013f 7c78 83bf fb1a 0340 05a8 6abf
000001b0: cf8c f0bf f021 f6be 5d35 35c0 73e9 0040
000001c0: 7fde b0be 8952 e83f 48a4 3ec0 3fde 5b40
000001d0: 5c98 453e aaab 3d40 4fdd 8a3e 68b1 0940
000001e0: c2fd 3d40 ecac 1ac0 cf1c 9f3f 648c 343f
000001f0: e7e7 0240 9e80 25c0 75f1 be3d 2d6f 08c0
00000200: 0cf7 febe 58f6 8abe abb1 a1bd 8339 ed3d
00000210: 99ac 9f3e 969f 8d3f 1f21 9fbe 2832 913f
00000220: 182a 87be adf7 333f c4e8 9cbd 1d13 9b3e
00000230: 79ec 1dbf a51d 893f 262d d6bf a44f 743f
00000240: cf09 50c0 30f8 1f40 357d da3f 7d39 0d40
00000250: 5b88 96bf ad7a c93f 3a2e 58bf e321 b53f
00000260: 1670 2ac0 1bb8 c23f 2567 26c0 dfae 0140
00000270: 3301 0b40 65ef e03f ce81 edbf 6be0 8f3e
00000280: 240c 633e 5772 00bf 9b4d 063f d851 2a3c
00000290: 4ac5 463f 44e8 f73d db14 0abf 2bbe a03e
000002a0: 47b3 d83e 3f06 fabc b157 1cbf 41fa 9e3f
000002b0: 993e e5bf f3bc b93f 08f8 2ec0 7c95 a73f
000002c0: 4473 bb3f 93a6 e23f 5ddb d1bf e885 013d
000002d0: 253c cabf f32a 3e40 e4a1 16be 06a7 3abf
000002e0: ed78 92bf a1f2 0f3f 574a 16bf 0157 3e3f
000002f0: b766 c33e 1c64 e2bd 3a2c 123e ed85 35bf
00000300: 97cc 1e3f 19d1 893f 133e 81bf b305 633f
00000310: 1b51 203f 32ab 643f b4c7 62bf 442f 45be
00000320: fa88 853e 41d0 8fbe 2f72 22bf 3ac2 0abf
00000330: 74a1 dc3e dffd 64bf 40a9 733f c01f edbe
00000340: 9685 44bf c6a8 0fbf f094 2040 01b2 3cc0
00000350: bc9e 0040 af3a 6ac0 8c06 1340 f5b0 12c0
00000360: 7f84 5340 92e4 ecbf 8f53 54c0 dd36 1bbf
00000370: e918 04bf ca4e fa3e bfdc 2440 278b 85bf
00000380: b6bc 3bbd 6cf0 f13e c4a3 a8bf aeb3 e73e
00000390: ad34 7f3f 06ae e33f 6126 4c3f 2dc0 ae3e
000003a0: 85c8 42bf f38f 26bf af05 57bf 65ab da3e
000003b0: d49a d9bd 3b84 1f3f d604 a73d cec7 07bd
000003c0: d263 f3be 5b9d 303f 6b88 423d 6881 6f3e
000003d0: 8964 22bf d106 903e a544 ec3e 2528 03bf
000003e0: 75bc f6be aa88 943e 2094 f33f 10c5 d7bf
000003f0: fb6a c63f 2687 bdbe 498c 1640 60fd 21c0
3.534829 -2.1617646 1.0067322 -0.5158418 -0.5760235 0.45811635 2.2406063 0.2644723
-2.2802312 1.4695663 -1.4179475 3.2657807 -1.866483 -1.9342606 -2.0831728 2.161229
-1.1225256 2.069264 1.1836351 -0.1751082 3.0887525 -2.6190448 1.8457065 0.06583484
2.4403079 -2.1078198 -1.0829057 -1.8765043 0.33439815 0.1616425 1.6779914 -1.1561072
2.0826285 0.89226055 0.91322416 -0.7080562 0.12739971 -0.81577396 -0.1321439 -0.016850406
-1.2078311 2.1260774 -1.155347 0.90440863 -2.5713317 2.3024268 1.3731127 2.3631053
-1.6740164 0.67475045 -1.0243895 1.5272715 -1.8526204 1.2407738 -2.1189024 2.0772781
2.3694787 1.9380503 -2.2279053 0.49107018 0.94218683 -1.1110241 0.8686754 -0.063430674
1.4502367 -1.0869206 -0.527696 -0.31073487 0.43336034 -0.026379691 -0.94592196 1.4732912
-1.9413648 1.8213142 -2.323224 1.9260927 2.470696 2.0520377 -2.430949 0.65919286
1.6307894 -0.45984173 1.7955805 -0.074652694 1.3213955 -1.1897259 1.0822626 -0.93263215
-0.655109 0.12598222 1.3009287 -1.5522497 1.0315619 0.4966187 -0.9512112 0.78096867
0.4676613 0.1970762 -0.89548403 0.35881495 0.8997688 -2.380925 -0.6720301 -0.20150575
0.5061341 -1.0271144 2.0485218 -0.9166263 -1.8792971 -0.48072767 -2.831382 2.0142486
-0.3454475 1.8150188 -2.978777 3.4354398 0.19296402 2.9636025 0.2712197 2.151453
2.9686131 -2.4168043 1.2430667 0.7052672 2.0454042 -2.5859752 0.09323398 -2.1317856
-0.49797857 -0.2714107 -0.078952156 0.11583235 0.3118637 1.1064327 -0.31079957 1.1343431
-0.26399302 0.702998 -0.07661584 0.3028802 -0.61688954 1.0712172 -1.6732528 0.9543402
-3.2505987 2.4995232 1.706946 2.2066338 -1.1760362 1.5740563 -0.84445536 1.4150966
-2.6630912 1.5212435 -2.6000454 2.0262983 2.1719482 1.7573057 -1.8555238 0.28100905
0.221726 -0.5017447 0.52462167 0.01039549 0.7764479 0.12104848 -0.5393807 0.31395087
0.42324278 -0.030520556 -0.61071306 1.2420121 -1.7909728 1.4510788 -2.7338886 1.3092494
1.4644551 1.7707084 -1.6395069 0.031621844 -1.5799605 2.9713714 -0.14710194 -0.7291111
-1.1443154 0.562296 -0.58707184 0.7435151 0.38164303 -0.110542506 0.14274684 -0.7090748
0.6203093 1.0766937 -1.0097069 0.8868057 0.6262376 0.89323723 -0.8858597 -0.19256312
0.26081067 -0.28088573 -0.6345548 -0.54202616 0.4309193 -0.89449877 0.9518013 -0.46313286
-0.76766336 -0.561169 2.5090904 -2.9483645 2.0096884 -3.6598318 2.2972746 -2.2920506
3.304962 -1.8507254 -3.3176 -0.6063059 -0.5160051 0.48888236 2.5759733 -1.0433091
-0.045834266 0.4725374 -1.3174977 0.45254272 0.9968975 1.7787483 0.7974606 0.34130993
-0.7608722 -0.650634 -0.8399305 0.4270889 -0.10625234 0.6231114 0.08155219 -0.033149533
-0.47537094 0.68990105 0.04749338 0.23389208 -0.63434654 0.281302 0.46146122 -0.5123313
-0.48190656 0.29010516 1.9029579 -1.6857014 1.5501398 -0.37017173 2.3523123 -2.5310898

lstm.bias_ih_l0 f4 [40]
00000000: 27e4 303f 493f bdbf d00b c23f bab1 753f
00000010: b4ba febf 6ba4 18c0 70e7 893f fad3 16c0
00000020: 9142 b53f c692 33bf 59c1 9bbe de6d 25c0
00000030: 9d75 0240 f715 843e 81d3 afbf 485b dfbf
00000040: 0b63 803f d479 a8bf 5047 063f dcad cb3e
00000050: e6ea d9bf 2e41 c63e 0379 95be 2f81 62bf
00000060: 31a3 433d e491 e13f dd8e 42bf 9114 bc3c
00000070: 3a9a 613f 47a4 09bf 7a6a 623e 3863 723f
00000080: 9f57 ca3f b803 bcbf 3918 f0bf d1a6 02c0
00000090: 381e 263e 97e4 02c0 225a 383f 13c0 24bf
0.6909813 -1.4784938 1.5159855 0.95974314 -1.9900727 -2.3850353 1.0773754 -2.356688
1.416094 -0.70145833 -0.3042095 -2.5848308 2.0384285 0.25798008 -1.3736421 -1.7449732
1.0030226 -1.3162179 0.52452564 0.39781082 -1.702481 0.38721603 -0.29193887 -0.8847837
0.047763053 1.7622647 -0.7599924 0.022959026 0.88125956 -0.5376629 0.2211093 0.94682646
1.580799 -1.4688635 -1.8757392 -2.0414317 0.16222465 -2.045202 0.7201253 -0.6435558

lstm.bias_hh_l0 f4 [40]
00000000: 2ae4 303f 473f bdbf cd0b c23f b8b1 753f
00000010: b3ba febf 6ba4 18c0 70e7 893f fad3 16c0
00000020: 8f42 b53f c592 33bf 4ec1 9bbe dc6d 25c0
00000030: 9d75 0240 f715 843e 80d3 afbf 485b dfbf
00000040: 0c63 803f d279 a8bf 4f47 063f e0ad cb3e
00000050: eaea d9bf 3141 c63e 1079 95be 2f81 62bf
00000060: 40a3 433d e491 e13f dd8e 42bf 9114 bc3c
00000070: 3d9a 613f 46a4 09bf 8b6a 623e 3663 723f
00000080: 9e57 ca3f ba03 bcbf 3718 f0bf d1a6 02c0
00000090: 361e 263e 96e4 02c0 225a 383f 13c0 24bf
0.6909815 -1.4784936 1.5159851 0.959743 -1.9900726 -2.3850353 1.0773754 -2.356688
1.4160937 -0.7014583 -0.30420917 -2.5848303 2.0384285 0.25798008 -1.373642 -1.7449732
1.0030227 -1.3162177 0.5245256 0.39781094 -1.7024815 0.38721612 -0.29193926 -0.8847837
0.04776311 1.7622647 -0.7599924 0.022959026 0.88125974 -0.53766286 0.22110955 0.94682634
1.5807989 -1.4688637 -1.875739 -2.0414317 0.16222462 -2.0452018 0.7201253 -0.6435558

output_proj.weight f4 [2, 10]
00000000: c481 1f40 bc0a 763f 3942 be40 90b3 7bbf
00000010: d730 dabf fb20 1e40 b1a0 a43f df5f f33f
00000020: d7cd 92bf f0e2 1c41 d6fb c7bf b532 69bf
00000030: c1f5 97c0 57dc 843f 440a 283f 6413 9abf
00000040: 53e6 babf 3a23 64bf e975 823f ff6a e6c0
2.4922953 0.9611013 5.945584 -0.98320866 -1.7046155 2.470763 1.2861539 1.9013633
-1.1469067 9.805405 -1.5623729 -0.91093 -4.7487493 1.0379742 0.65640664 -1.2037168
-1.4601539 -0.8911625 1.0192233 -7.200561

output_proj.bias f4 [2]
00000000: a094 8a40 e194 8ac0
4.3306427 -4.3306737

exp_avg f4 [2, 10]
00000000: 4a3a 3eac 05d0 a1ab 57c1 222c b4ef 90a9
00000010: 144f 89ab ff7b 1aab a1d5 c12b 28c7 ceab
00000020: 4033 102c bb18 762a ad5b ca25 9927 0426
00000030: 4c69 0ea6 f47f 5d24 5b97 9325 b951 74a4
00000040: 19ad e7a5 4979 dd25 fab4 cfa1 6e08 c1a3
-2.703298e-12 -1.1497475e-12 2.312891e-12 -6.4364665e-14 -9.756384e-13 -5.488387e-13 1.3772769e-12 -1.4692457e-12
2.049208e-12 2.1857769e-13 3.5103536e-16 4.5850365e-16 -4.940885e-16 4.8030117e-17 2.5602998e-16 -5.2978288e-17
-4.0189408e-16 3.8419575e-16 -1.407477e-18 -2.0928672e-17

exp_avg_sq f4 [2, 10]
00000000: b58f c51e f710 251f a86c 531f 4f94 321e
00000010: 8bdd 481e 2f8c 301d d5ca 291f 5878 3b1f
00000020: a9bf 771e d0dd 931d a4a8 511c cce3 b21b
00000030: 698c 1f1b aac3 1f1d 310f 9d1c ace2 a61c
00000040: 479f 2119 8378 8a1a d6d7 7b1c 5e0a 7b1d
2.0917622e-20 3.4954142e-20 4.4770866e-20 9.453911e-21 1.0633726e-20 2.336588e-21 3.595492e-20 3.9698336e-20
1.31157055e-20 3.9139925e-21 6.937026e-22 2.959484e-22 1.3197541e-22 2.114463e-21 1.0393315e-21 1.1043552e-21
8.355671e-24 5.727016e-23 8.3327895e-22 3.3224933e-21

exp_avg f4 [40, 10]
00000000: d68c 78a7 c97e 6ca7 dad0 6027 75ec 7fa7
00000010: 688a 6ca7 9191 3027 75da 4b27 4a22 4ea7
00000020: 36e7 9ba6 ff3b 5627 4c46 ad07 850b 2508
00000030: b9ff 2c88 ef47 1a89 808f 1789 faab ef08
00000040: 236c e908 518a 1789 ac46 ba88 b8a6 1109
00000050: 8cc2 12a6 5ed4 19a6 14ff 1426 8f93 eea4
00000060: f93a aba4 1100 3624 35fa df24 d20e a9a3
00000070: 45e5 b424 650b 5a24 050a d893 4cc7 4d94
00000080: 07b2 5714 9f5b 4015 50f7 3c15 6369 1595
00000090: 0b84 1195 d9f0 3c15 d73f e814 2b99 3595
000000a0: 3274 9ba7 a0ea 93a7 8d9c 8c27 9e0c a0a7
000000b0: 26ed 93a7 90d7 5c27 c0f8 7e27 abe8 80a7
000000c0: 44fb c2a6 d5f9 8527 b294 caaa 23c2 c0aa
000000d0: 2d3d b72a af91 d0aa 6ac5 c0aa 4ee5 8f2a
000000e0: 4c22 a62a 07fd a7aa 1c17 fea9 6a97 ae2a
000000f0: d10e 0000 2a1c 0000 841d 0080 5269 0080
00000100: 7767 0080 d051 0000 ac4f 0000 7667 0080
00000110: 8e3f 0080 6363 0000 66aa 2da4 c03e 25a4
00000120: a315 1d24 94cc 32a4 9041 25a4 b8b6 f623
00000130: c56b 0e24 bd02 10a4 a7d2 59a3 d8ab 1524
00000140: 815b c2a9 02e8 b8a9 76d3 af29 24ee c7a9
00000150: 85dd b8a9 f6f2 8929 b157 9f29 cc1d a1a9
00000160: 324c f3a8 6664 a729 0688 9f23 4a2c 1523
00000170: 0f68 dfa2 d419 ce24 99de c624 43b6 9aa4
00000180: 5764 9ea4 bb7e bf24 dcce 5324 5ef3 bba4
00000190: 62c1 2c95 e460 2495 f042 1c15 4edc 3195
000001a0: a463 2495 2e6b f514 8bac 0d15 5f41 0f95
000001b0: eeac 5894 cde2 1415 35df 459e 5f79 bc9e
000001c0: 9d8e c51e 9a2e b01f 5213 ad1f e6d8 889f
000001d0: 7047 859f 650d ad1f 10b8 541f c853 a69f
000001e0: 4e13 5aa2 b569 cfa2 0061 d922 cb84 c123
000001f0: 7a1c be23 0b52 96a3 0364 92a3 7918 be23
00000200: 44b3 6923 f8b3 b6a3 72ba 8524 6ebe fe24
00000210: 8182 05a5 1c1e eea5 49eb e9a5 88f4 b825
00000220: da21 b425 5de3 e9a5 10c0 8fa5 7bcc e025
00000230: 5930 9724 f4d8 8f24 adbf 88a4 43b3 9b24
00000240: 01ea 8f24 42d9 56a4 ab0c 78a4 7ed6 7a24
00000250: dcb4 bd23 c457 82a4 b343 8b1c ed81 841c
00000260: 95f0 7b9c c85e 8f1c e083 841c bcd3 459c
00000270: 0169 649c 84f5 661c 70a1 ae1b 6808 709c
00000280: 8c21 ed83 62de 6184 f8c0 6c04 4923 5305
00000290: 326a 4f05 adff 2385 f8b8 1f85 1a63 4f05
000002a0: 87ec fe04 e953 4785 6a6b 8917 91c0 8217
000002b0: 2c9a 7897 9b78 8d17 81c2 8217 e534 4397
000002c0: 6962 6197 4ce6 6317 5151 ac16 76da 6c97
000002d0: 0400 0080 0400 0080 0400 0000 0400 0000
000002e0: 0400 0000 0400 0080 0400 0080 0400 0000
000002f0: 0400 0000 0400 0080 6153 b89b 8efd 2f9c
00000300: 3b83 381c 4804 251d b419 221d 372a 009d
00000310: a2ac f99c b910 221d a32b c71c 3ec6 1b9d
00000320: 0400 0080 0400 0080 0400 0000 0400 0000
00000330: 0400 0000 0400 0080 0400 0000 0400 0080
00000340: 0400 0000 0400 0080 0400 0000 0400 0000
00000350: 0400 0080 0400 0000 0400 0000 0400 0080
00000360: 0400 0080 0400 0000 0400 0000 0400 0080
00000370: 0400 0080 0400 0080 0400 0000 0400 0080
00000380: 0400 0080 0400 0000 0400 0000 0400 0080
00000390: 0400 0080 0400 0000 12c6 a11d 03ee 991d
000003a0: fb53 929d 1f8e a61d 95f0 991d b4d1 659d
000003b0: 1fab 849d 3826 861d e5e7 ca1c 0a6c 8b9d
000003c0: 87e3 1b1d 8f54 141d 4301 0d9d 3a7f 201d
000003d0: 1657 141d b475 dd9c 58af ff9c fd44 011d
000003e0: d686 431c c659 069d 0400 0000 0400 0000
000003f0: 0400 0080 0400 0080 0400 0000 0400 0000
-3.4493261e-15 -3.282031e-15 3.1199463e-15 -3.5516543e-15 -3.282661e-15 2.4503818e-15 2.8290335e-15 -2.860683e-15
-1.0817955e-15 2.973099e-15 2.6071464e-34 4.9666423e-34 -5.205997e-34 -1.8570899e-33 -1.8243437e-33 1.4424721e-33
1.40486e-33 -1.8241e-33 -1.1211083e-33 1.753213e-33 -5.0917586e-16 -5.337035e-16 5.169351e-16 -1.0346602e-16
-7.425933e-17 3.9465015e-17 9.71347e-17 -1.8329293e-17 7.8450954e-17 4.7280866e-17 -5.4535946e-27 -1.03891595e-26
1.0889836e-26 3.8846368e-26 3.8161393e-26 -3.0173446e-26 -2.938668e-26 3.8156293e-26 2.3451194e-26 -3.6673487e-26
-4.314712e-15 -4.1055077e-15 3.902754e-15 -4.44226e-15 -4.1057813e-15 3.064799e-15 3.5384429e-15 -3.5779396e-15
-1.352956e-15 3.7185784e-15 -3.5985586e-13 -3.424076e-13 3.254978e-13 -3.704931e-13 -3.4243035e-13 2.5561015e-13
2.9511322e-13 -2.9840732e-13 -1.1283875e-13 3.1013674e-13 5.315e-42 1.0103e-41 -1.0588e-41 -3.7782e-41
-3.7116e-41 2.9349e-41 2.8581e-41 -3.7115e-41 -2.2799e-41 3.5653e-41 -3.7657728e-17 -3.5831823e-17
3.4062275e-17 -3.8770882e-17 -3.5834205e-17 2.6748758e-17 3.0882626e-17 -3.1227342e-17 -1.1808201e-17 3.2454782e-17
-8.631204e-14 -8.2114884e-14 7.808244e-14 -8.878686e-14 -8.209669e-14 6.126169e-14 7.0762305e-14 -7.155005e-14
-2.7011464e-14 7.433706e-14 1.7296423e-17 8.086685e-18 -6.0554447e-18 8.9382014e-17 8.624591e-17 -6.709562e-17
-6.869156e-17 8.3047736e-17 4.592855e-17 -8.15106e-17 -3.4887676e-26 -3.319597e-26 3.1556753e-26 -3.5918655e-26
-3.319814e-26 2.4780953e-26 2.8610836e-26 -2.893019e-26 -1.09393175e-26 3.0067276e-26 -1.0475251e-20 -1.9955472e-20
2.091717e-20 7.4615995e-20 7.330031e-20 -5.795707e-20 -5.6445874e-20 7.329051e-20 4.5045e-20 -7.044234e-20
-2.955473e-18 -5.6219384e-18 5.892067e-18 2.0981342e-17 2.0611902e-17 -1.6297779e-17 -1.5871708e-17 2.0610206e-17
1.2668916e-17 -1.98087e-17 5.7995406e-17 1.1047754e-16 -1.1580128e-16 -4.1306822e-16 -4.0578492e-16 3.2084613e-16
3.124796e-16 -4.0573124e-16 -2.4936692e-16 3.8996367e-16 6.5567715e-17 6.23839e-17 -5.930531e-17 6.7524216e-17
6.241278e-17 -4.6587878e-17 -5.3787158e-17 5.439179e-17 2.0568018e-17 -5.6527194e-17 9.215748e-22 8.768612e-22
-8.335988e-22 9.487447e-22 8.769116e-22 -6.5455493e-22 -7.5574586e-22 7.641794e-22 2.8890212e-22 -7.9420204e-22
-1.393731e-36 -2.6550736e-36 2.7830274e-36 9.927653e-36 9.752598e-36 -7.7111834e-36 -7.5101175e-36 9.751295e-36
5.993233e-36 -9.372347e-36 8.880533e-25 8.449664e-25 -8.0327714e-25 9.142357e-25 8.450153e-25 -6.307466e-25
-7.282563e-25 7.363833e-25 2.7839417e-25 -7.653145e-25 -6e-45 -6e-45 6e-45 6e-45
6e-45 -6e-45 -6e-45 6e-45 6e-45 -6e-45 -3.049413e-22 -5.8230355e-22
6.1050104e-22 2.1839782e-21 2.145381e-21 -1.6962484e-21 -1.6522062e-21 2.1449167e-21 1.3179995e-21 -2.0616568e-21
-6e-45 -6e-45 6e-45 6e-45 6e-45 -6e-45 6e-45 -6e-45
6e-45 -6e-45 6e-45 6e-45 -6e-45 6e-45 6e-45 -6e-45
-6e-45 6e-45 6e-45 -6e-45 -6e-45 -6e-45 6e-45 -6e-45
-6e-45 6e-45 6e-45 -6e-45 -6e-45 6e-45 4.2821145e-21 4.074486e-21
-3.873271e-21 4.4086784e-21 4.074752e-21 -3.0416312e-21 -3.5117044e-21 3.550902e-21 1.3427182e-21 -3.6904703e-21
2.0631708e-21 1.9631353e-21 -1.8661847e-21 2.1241598e-21 1.963266e-21 -1.4654979e-21 -1.691981e-21 1.7108674e-21
6.469436e-22 -1.7781164e-21 6e-45 6e-45 -6e-45 -6e-45 6e-45 6e-45

exp_avg_sq f4 [40, 10]
00000000: 6568 af15 5f2a d915 8be5 0216 9a24 aa17
00000010: 6935 d516 4b33 3716 b9f9 f316 d463 aa16
00000020: 32ae c916 0669 f516 d773 5d18 02ae d217
00000030: 2763 bc17 16c3 a518 c319 7818 5428 a017
00000040: 44da 8c18 af87 8a18 b6f1 7f17 c094 5718
00000050: ef05 8e1d 9d3b 751d 900b 541d a38d 001e
00000060: a686 8c1d 26ea 731d a2d3 2c1d 596c 2f1d
00000070: d5e3 a31c f9f5 a21d 9ae3 1713 ebb9 9b12
00000080: d27e 7b13 1822 ee14 790c 0114 dc52 3712
00000090: 4215 6e14 c693 3014 977f 1f14 f904 0b14
000000a0: 078e a114 ae15 ff13 f8f7 9f14 eb19 0416
000000b0: e58d 5e13 d33c b113 7d90 eb14 055f 0615
000000c0: ec74 f415 19b7 3714 40ec a016 663d 5816
000000d0: 6ede 9b16 70e2 ab17 0c2e 4916 1cdb ee15
000000e0: c94a c316 4c79 d316 a37b 8517 ba47 6d16
000000f0: 5f13 8013 5e05 8a13 4d5a d413 cd75 5115
00000100: e1ff 8114 8989 5a13 38c7 0e15 bef5 0515
00000110: 2338 8314 86ac c914 d7d2 c515 351a 2715
00000120: 341c d915 d355 3a17 7677 3d15 338f b414
00000130: 9fed 4016 264f 5116 cdc0 1c17 3a63 b215
00000140: 110d f31a bc13 dc1a 39e0 c61a bc20 011b
00000150: a839 dc1a c995 751a 1e94 a31a 9b41 a71a
00000160: d8cd 4119 a6c5 b41a e3e4 7012 6302 6311
00000170: 4f3b ae11 e193 fd12 4214 2e12 349a d811
00000180: 8c0e ca12 1b87 d612 1b52 8812 9d84 a912
00000190: 837f 8915 b5b2 1a15 5cda d414 f3fb 4b16
000001a0: ca99 d515 c8fc e214 416a e115 cc26 d315
000001b0: 0ed4 0014 e03f bf15 120d ce19 21ec 8d19
000001c0: 8111 8119 d5c7 2a1a b4ed ce19 061d 7219
000001d0: 1a79 bc19 4d2a bd19 04a7 0919 42af cf19
000001e0: 1c42 6e17 49ed ca16 219e 9017 1736 f318
000001f0: 133c b813 a318 5e16 dcca b217 f895 ce17
00000200: 881f e518 c946 bc16 2438 bb11 9f45 7411
00000210: 4ef2 b611 cde1 4213 f7a4 c112 38ec 2d11
00000220: 6325 1b13 5f12 0813 7bff b110 1a8e e612
00000230: 6a4a c713 6649 2c13 f217 e113 6bd6 3915
00000240: 00a7 7012 85df c812 3246 1e14 259e 3014
00000250: 2cd5 2915 fecf 5313 ba67 ea16 2f56 4816
00000260: 2bd3 0e17 2d2b 7018 3921 dc12 bea7 d915
00000270: 1c26 3017 1320 4c17 40b4 6218 363e 3816
00000280: d4de 9413 383a 8c13 4048 8c13 9036 1e15
00000290: e9d8 9114 e2ac 4613 c4b5 0d15 fe88 0815
000002a0: 1747 9813 fac7 d014 f07e e413 b480 4313
000002b0: a897 1314 3b56 7815 2464 bc12 a26d dd12
000002c0: 4ed3 6514 0af6 6c14 7aa5 5415 044f ac13
000002d0: 2a1e c514 5ab7 5814 4405 c713 7a61 df15
000002e0: 7307 2315 63ab e414 a786 f814 daf5 1015
000002f0: 6241 a315 9b35 5115 b0f7 0512 3ed6 ca10
00000300: 9087 4011 61f3 8012 e571 7211 3216 0111
00000310: 0fe9 4612 c0e2 2512 5ba4 cb11 3e42 0012
00000320: 8c33 7316 0864 bd15 bc33 4c16 db9f fc17
00000330: 5194 0d16 19e1 1716 80b6 c016 29b5 e216
00000340: 6ddd da17 2120 9516 8d77 4119 caf0 2119
00000350: 2274 4b19 18f0 051b 3080 6519 150a b219
00000360: e870 6f19 926d 8219 e92b f81a 60f8 d019
00000370: 943e b91c 29fd 2a1c 1338 1a1c 19e8 e21c
00000380: 688f ca1c 222c e01b 2967 eb1c ccc0 e71c
00000390: ed02 831a f320 a91c 0f39 8214 847d 3f15
000003a0: 23a4 f315 a7f0 af16 7f89 f615 0dd0 dc13
000003b0: 8b47 7416 8a58 5b16 3a73 c914 6404 4a16
000003c0: bcc5 2216 0936 5915 2e96 bc15 b733 ee15
000003d0: f46e 0a15 e007 9815 f178 9715 1dd0 2416
000003e0: c1cf 3016 39b3 ff15 70bf 2118 1c3a 8917
000003f0: eea0 3c18 8b33 9c19 f205 1316 0a8c 1d17
7.084664e-26 8.771245e-26 1.0573747e-25 1.0995232e-24 3.4445712e-25 1.4798807e-25 3.9416365e-25 2.7527982e-25
3.2583234e-25 3.9648164e-25 2.8622065e-24 1.3614858e-24 1.2174245e-24 4.2848487e-24 3.2066255e-24 1.0349938e-24
3.6409544e-24 3.580917e-24 8.2700026e-25 2.7863198e-24 3.7593222e-21 3.24563e-21 2.8063944e-21 6.805553e-21
3.7196915e-21 3.2281834e-21 2.2873422e-21 2.3217072e-21 1.0845328e-21 4.3135373e-21 1.9171096e-27 9.827708e-28
3.1743181e-27 2.4045306e-26 6.5152954e-27 5.784675e-28 1.2020122e-26 8.9148724e-27 8.052611e-27 7.018687e-27
1.6312865e-26 6.4392428e-27 1.6152704e-26 1.0671053e-25 2.8090299e-27 4.474106e-27 2.3785927e-26 2.7136042e-26
9.8735285e-26 9.2752486e-27 2.599849e-25 1.7467715e-25 2.5181973e-25 1.1107777e-24 1.625118e-25 9.647313e-26
3.1551145e-25 3.4165438e-25 8.626134e-25 1.916734e-25 3.2330844e-27 3.484139e-27 5.3605367e-27 4.2300142e-26
1.3126598e-26 2.7583278e-27 2.8833828e-26 2.7052993e-26 1.3249762e-26 2.0363862e-26 7.990031e-26 3.3746055e-26
8.76901e-26 6.0208167e-25 3.8262484e-26 1.8231837e-26 1.5584616e-25 1.690786e-25 5.0649667e-25 7.205018e-26
1.00523554e-22 9.102175e-23 8.225313e-23 1.0681207e-22 9.1083016e-23 5.0785808e-23 6.7654516e-23 6.917557e-23
1.0019436e-23 7.4765573e-23 7.601277e-28 1.7907878e-28 2.7488911e-28 1.6003e-27 5.492969e-28 3.4173826e-28
1.2751578e-27 1.3538605e-27 8.603047e-28 1.0698091e-27 5.553504e-26 3.1241027e-26 2.1492657e-26 1.647771e-25
8.627265e-26 2.2919873e-26 9.1044415e-26 8.528343e-26 6.504169e-27 7.724506e-26 2.130518e-23 1.467443e-23
1.3345357e-23 3.53166e-23 2.1395908e-23 1.2516968e-23 1.9487657e-23 1.9559227e-23 7.1164625e-24 2.1474084e-23
7.698539e-25 3.2784608e-25 9.345699e-25 6.2868645e-24 4.6507368e-27 1.7940791e-25 1.1554189e-24 1.3350295e-24
5.922695e-24 3.041771e-25 2.9537997e-28 1.926966e-28 2.8863869e-28 2.459757e-27 1.2220679e-27 1.3720084e-28
1.9582184e-27 1.717467e-27 7.020782e-29 1.4550071e-27 5.030804e-27 2.174564e-27 5.6821597e-27 3.7529598e-26
7.593649e-28 1.2676876e-27 7.990805e-27 8.916918e-27 3.429744e-26 2.6734492e-27 3.78702e-25 1.6183066e-25
4.6149206e-25 3.1041071e-24 1.3892142e-27 8.791025e-26 5.691677e-25 6.595644e-25 2.9300818e-24 1.4883032e-25
3.7580178e-27 3.5398377e-27 3.5412213e-27 3.1950888e-26 1.4726814e-26 2.5076351e-27 2.861811e-26 2.757305e-26
3.8440294e-27 2.108151e-26 5.768046e-27 2.4675916e-27 7.451512e-27 5.0151225e-26 1.1889155e-27 1.3974087e-27
1.1603218e-26 1.1963478e-26 4.2943597e-26 4.349682e-27 1.9903814e-26 1.0941373e-26 5.0239855e-27 9.0222774e-26
3.2923464e-26 2.3089717e-26 2.5094712e-26 2.927451e-26 6.593833e-26 4.22495e-26 4.22727e-28 8.0005044e-29
1.5187903e-28 8.137933e-28 1.912553e-28 1.0183145e-28 6.276505e-28 5.234431e-28 3.2129045e-28 4.047133e-28
1.9645649e-25 7.6494314e-26 1.6495313e-25 1.63254715e-24 1.143669e-25 1.2268711e-25 3.1134447e-25 3.6626597e-25
1.4143816e-24 2.4092524e-25 1.0002009e-23 8.372132e-24 1.0518307e-23 1.107908e-22 1.186491e-23 1.840884e-23
1.2378812e-23 1.348594e-23 1.02641337e-22 2.1607014e-23 1.2258449e-21 5.6575483e-22 5.10268e-22 1.5015421e-21
1.3404308e-21 3.7086212e-22 1.5577662e-21 1.5336135e-21 5.418506e-23 1.1191999e-21 1.3149151e-26 3.8671157e-26
9.840588e-26 2.8424648e-25 9.957554e-26 5.574096e-27 1.9732738e-25 1.7718617e-25 2.0341262e-26 1.6318815e-25
1.314865e-25 4.3865427e-26 7.616954e-26 9.6209026e-26 2.7956405e-26 6.1404736e-26 6.1179226e-26 1.3313483e-25
1.4282722e-25 1.03276443e-25 2.0905414e-24 8.868086e-25 2.437968e-24 1.615084e-23 1.1876441e-25 5.090619e-25

exp_avg f4 [40, 10]
00000000: 4fac d999 39e7 e726 c992 079a 9cd5 1491
00000010: 9493 071a 3f9c 079a 39e7 e726 6b93 079a
00000020: 39e7 e7a6 6993 079a c342 0480 6623 2688
00000030: 8cc3 0480 0400 0080 90c3 0400 90c3 0480
00000040: 6623 2688 90c3 0480 6623 2608 90c3 0480
00000050: 81dc 2220 282c bb25 3792 2320 7374 2118
00000060: 7092 23a0 7092 2320 282c bb25 7092 2320
00000070: 282c bba5 6c92 2320 e20b 390e 05de 4e14
00000080: e783 620e cf3b 4905 f284 628e f484 620e
00000090: 05de 4e14 f484 620e 05de 4e94 f084 620e
000000a0: 1362 8d92 0135 76a2 b2cc 788a c7a0 bb8d
000000b0: 663d 0a8f 43e2 e211 0135 76a2 04d7 7f0b
000000c0: 0135 7622 0db6 da04 565c b194 eb14 e5a4
000000d0: 1618 458c 3533 e78f f73a 2a91 b2c9 0b14
000000e0: eb14 e5a4 cea1 9d0d eb14 e524 2441 1407
000000f0: 2500 0080 261c 0080 2b00 0080 0400 0080
00000100: 2b00 0000 2b00 0080 261c 0080 2b00 0080
00000110: 261c 0000 2b00 0080 394f 4e8d 018a 9f9d
00000120: 0a81 9584 4ff4 8488 b6b2 c389 5ac4 a00c
00000130: 018a 9f9d 8e4a 3506 018a 9f1d 6111 2d00
00000140: fe0a fb16 97df 3f29 7c46 3991 f11e 8c8a
00000150: df8f d38f c353 9310 97df 3f29 a10f 5609
00000160: 97df 3fa9 0971 848a b6d6 4d1f e229 af22
00000170: d8ee 511f 1827 4017 b4ef 519f b5ef 511f
00000180: e229 af22 b5ef 511f e229 afa2 afef 511f
00000190: 5e57 4c03 83c8 9b14 b22b 0080 9f43 0500
000001a0: 3a2a 1f00 c58f 4b82 83c8 9b14 5c39 0080
000001b0: 83c8 9b94 0600 0080 8814 bf0c 3ba5 be1e
000001c0: 9b11 4506 eff2 5900 87eb a886 ee35 1f06
000001d0: 3ba5 be1e a05b bb06 3ba5 be9e dd57 bb06
000001e0: 81d1 9f22 6de1 ea1c 5ae9 a022 1ffb 9c1a
000001f0: a2e9 a0a2 a2e9 a022 f3e0 ea1c a2e9 a022
00000200: f3e0 ea9c 9de9 a022 6d9b 1694 19ce 00a5
00000210: c26f ec93 fc57 6c8c 5171 ec13 586f ec93
00000220: 19ce 00a5 bf71 ec93 19ce 0025 b971 ec93
00000230: bcdb 9d1d ca72 e0a3 8dec aa1d 46d5 5d15
00000240: e0ee aa9d e3ee aa1d ca72 e0a3 e2ee aa1d
00000250: ca72 e023 dbee aa1d e030 568b 4c2c cd9b
00000260: bf8f 0480 5e11 8986 af7b c987 d8bb a50a
00000270: 4c2c cd9b a4e6 3a04 4c2c cd1b 8818 0300
00000280: 0400 0000 7f69 6404 0400 0080 0400 0000
00000290: 0400 0080 0400 0000 7f69 6404 0400 0000
000002a0: 7f69 6484 0400 0000 d05e 5386 0974 ca96
000002b0: 8b00 0080 4444 8781 84d4 c682 6d8d a305
000002c0: 0974 ca96 190e 1700 0974 ca16 c300 0000
000002d0: 0400 0000 0400 0000 0400 0080 0400 0000
000002e0: 0400 0080 0400 0000 0400 0000 0400 0000
000002f0: 0400 0080 0400 0000 8810 081c 31c5 4e97
00000300: 1acf 0d1c 4c09 e813 21d0 0d9c 21d0 0d1c
00000310: 47c5 4e97 21d0 0d1c 47c5 4e17 1ed0 0d1c
00000320: 0400 0080 0400 0080 0400 0000 0400 0080
00000330: 0400 0000 0400 0080 0400 0080 0400 0080
00000340: 0400 0000 0400 0080 0400 0080 0400 0000
00000350: 0400 0080 0400 0000 0400 0080 0400 0000
00000360: 0400 0080 0400 0000 0400 0000 0400 0080
00000370: 0400 0000 0400 0080 0400 0080 0400 0000
00000380: 0400 0000 0400 0080 0400 0000 0400 0080
00000390: 0400 0080 0400 0080 faad 700b 2c64 051d
000003a0: 9fad 7709 1b50 0106 b5ef 6b89 0950 bc89
000003b0: 2c64 051d 6fcd 7709 2c64 059d 69e3 7709
000003c0: 0400 0000 0400 0080 0400 0000 0400 0080
000003d0: 0400 0000 0400 0080 0400 0080 0400 0080
000003e0: 0400 0000 0400 0080 0400 0080 0400 0000
000003f0: 0400 0080 0400 0000 0400 0080 0400 0000
-2.2506869e-23 1.6091518e-15 -2.8035918e-23 -1.1740965e-28 2.8036558e-23 -2.804356e-23 1.6091518e-15 -2.803643e-23
-1.6091518e-15 -2.8036423e-23 -3.91292e-40 -4.999542e-34 -4.37491e-40 -6e-45 4.37497e-40 -4.37497e-40
-4.999542e-34 -4.37497e-40 4.999542e-34 -4.37497e-40 1.3794892e-19 3.246925e-16 1.3855015e-19 2.0867554e-24
-1.3855089e-19 1.3855089e-19 3.246925e-16 1.3855089e-19 -3.246925e-16 1.3855084e-19 2.2808732e-30 1.0444128e-26
2.792016e-30 9.46196e-36 -2.7920662e-30 2.7920665e-30 1.0444128e-26 2.7920665e-30 -1.0444128e-26 2.7920658e-30
-8.922528e-28 -3.3367277e-18 -1.19792646e-32 -1.15634705e-30 -6.81575e-30 3.5795957e-28 -3.3367277e-18 4.9272973e-32
3.3367277e-18 5.141874e-36 -1.7908853e-26 -9.9348355e-17 -1.5183576e-31 -2.2798083e-29 -1.3428805e-28 7.057484e-27
-9.9348355e-17 9.714825e-31 9.9348355e-17 1.1153426e-34 -5.2e-44 -1.0098e-41 -6e-44 -6e-45
6e-44 -6e-44 -1.0098e-41 -6e-44 1.0098e-41 -6e-44 -6.357401e-31 -4.2229642e-21
-3.5148235e-36 -8.001898e-34 -4.71126e-33 2.4770078e-31 -4.2229642e-21 3.409709e-35 4.2229642e-21 4.138832e-39
4.0558174e-25 4.2604453e-14 -1.4615646e-28 -1.3493148e-32 -2.0861624e-29 5.811033e-29 4.2604453e-14 2.5766662e-33
-4.2604453e-14 -1.2753657e-32 4.3588043e-20 4.747819e-18 4.445504e-20 6.208789e-25 -4.445575e-20 4.4455753e-20
4.747819e-18 4.4455753e-20 -4.747819e-18 4.4455733e-20 6.0050505e-37 1.5730088e-26 -1.5675e-41 4.83435e-40
2.862048e-39 -1.4955344e-37 1.5730088e-26 -2.0577e-41 -1.5730088e-26 -8e-45 2.9440566e-31 2.018537e-20
3.7064516e-35 8.260507e-39 -6.354065e-35 2.9944198e-35 2.018537e-20 7.047621e-35 -2.018537e-20 7.0470685e-35
4.3318857e-18 1.5543092e-21 4.3615157e-18 6.4925796e-23 -4.3615455e-18 4.3615455e-18 1.5542969e-21 4.3615455e-18
-1.5542969e-21 4.3615435e-18 -7.603717e-27 -1.1172059e-16 -5.9684977e-27 -1.8207256e-31 5.9686514e-27 -5.968457e-27
-1.1172059e-16 -5.9686938e-27 1.1172059e-16 -5.9686915e-27 4.1784754e-21 -2.4334744e-17 4.5243213e-21 4.4798838e-26
-4.5245616e-21 4.524563e-21 -2.4334744e-17 4.5245624e-21 2.4334744e-17 4.5245596e-21 -4.125167e-32 -3.3943031e-22
-4.18908e-40 -5.155919e-35 -3.0315813e-34 1.5959581e-32 -3.3943031e-22 2.19701e-36 3.3943031e-22 2.84307e-40
6e-45 2.6849713e-36 -6e-45 6e-45 -6e-45 6e-45 2.6849713e-36 6e-45
-2.6849713e-36 6e-45 -3.9754347e-35 -3.2708089e-25 -1.95e-43 -4.9689124e-38 -2.9215463e-37 1.5380398e-35
-3.2708089e-25 2.117274e-39 3.2708089e-25 2.73e-43 6e-45 6e-45 -6e-45 6e-45
-6e-45 6e-45 6e-45 6e-45 -6e-45 6e-45 4.501999e-22 -6.681108e-25
4.692066e-22 5.85742e-27 -4.6921987e-22 4.6921987e-22 -6.681119e-25 4.6921987e-22 6.681119e-25 4.692197e-22
-6e-45 -6e-45 6e-45 -6e-45 6e-45 -6e-45 -6e-45 -6e-45
6e-45 -6e-45 -6e-45 6e-45 -6e-45 6e-45 -6e-45 6e-45
-6e-45 6e-45 6e-45 -6e-45 6e-45 -6e-45 -6e-45 6e-45
6e-45 -6e-45 6e-45 -6e-45 -6e-45 -6e-45 4.6353204e-32 1.7654191e-21
2.981318e-33 2.4321056e-35 -2.8399806e-33 -4.533462e-33 1.7654191e-21 2.9828138e-33 -1.7654191e-21 2.9838471e-33
6e-45 -6e-45 6e-45 -6e-45 6e-45 -6e-45 -6e-45 -6e-45
6e-45 -6e-45 -6e-45 6e-45 -6e-45 6e-45 -6e-45 6e-45

exp_avg_sq f4 [40, 10]
00000000: b26c 0516 c432 cf16 5eb3 2d14 12dd 0d16
00000010: 13b3 2014 cde2 ef13 5efd 2a17 87ab e813
00000020: a4a9 3217 cd1d 1a13 989f 9c17 5b86 9717
00000030: 41dd d615 75f1 6a16 742e 3516 e20f cb15
00000040: 41d7 ef17 bab3 3b16 dbd5 f117 45e4 c612
00000050: 3d57 fa18 6b0d 611c 2d4c 2518 64ea 3314
00000060: 196f 8c18 d09d 1c18 cf31 5f1c c85d 9118
00000070: 9d33 5f1c acca c012 0a77 3514 b0ff 2f14
00000080: 69a0 8213 922d 8f13 c349 ae13 ac02 5313
00000090: a959 0314 e695 c313 d807 2514 dbab 4011
000000a0: acf0 3116 53ee 3916 05c9 2d15 2e59 0512
000000b0: 77bb 8c15 8f27 1315 5ccb 0d13 20c9 9a15
000000c0: 8da3 4e13 39d1 2412 52da 0418 b2bf 0018
000000d0: 772e 2417 6929 1012 9856 8a17 343f 1717
000000e0: 7500 d413 fe1e 9117 ee16 fb13 d298 ac12
000000f0: 2cef bb14 c561 a114 b965 c114 119c 2213
00000100: 1a99 7914 cbd3 2614 4b7a 7514 e460 b014
00000110: 0bd0 1515 ee82 8113 8849 ef16 944b 1617
00000120: cb20 8215 5d80 b812 4cf8 a715 7409 0515
00000130: a68a bd14 ad52 d615 ed8f cb14 b6ec 8c12
00000140: 6456 f715 9630 e219 950f 4b15 17ac 9012
00000150: b677 9515 12d4 3a15 f426 e119 8a82 ab15
00000160: d92e e119 d9cc eb12 d11e 3d12 a09d ea11
00000170: e6d8 df12 f7b3 1d12 e13c a713 2e06 4d13
00000180: ad3a da12 a4ea 2713 89e5 8d13 c032 2f12
00000190: 6b2c 2715 e8de a314 70a6 2814 5a1e d213
000001a0: b020 aa13 ddc8 c313 5d7a 0e16 2d6d e213
000001b0: d299 1c16 d228 d111 33e5 5b19 96c2 7619
000001c0: db90 de18 7c16 6c12 0b4f 1c19 dc12 ee18
000001d0: cc1e 2d18 78f6 1f19 fe6c 2d18 eb20 9318
000001e0: d436 7919 ac44 6b19 8187 ac18 8dac f114
000001f0: f7e9 1219 481c a618 7642 3f16 3ff7 1619
00000200: c3ba 8016 b690 b212 d779 3412 1e94 c611
00000210: 54fb e712 e122 2812 53d1 4612 db3b 8d12
00000220: 550f 0413 9e65 ed12 535f 3d13 8fca 5011
00000230: 41ac b015 b402 aa15 bef0 e414 ed43 8811
00000240: 6124 4215 25e5 d514 b157 d612 5c92 4915
00000250: ad9a 7c13 aca0 e411 718e f618 3d13 e918
00000260: 0b55 2a18 109d cd12 70e6 9118 0ed8 2418
00000270: 2c99 9414 d6f3 9518 0650 cb14 fe44 0312
00000280: 70c9 5314 8a87 0114 7e30 c314 b11f 4513
00000290: bcfd 0114 f496 6a13 7e20 b514 fea9 9214
000002a0: c3c6 5d15 fb4b 9d13 2494 ba15 0dd6 bb15
000002b0: 35b0 cd14 237d b312 bd0d d014 a59d 6914
000002c0: e26b b314 3123 fd14 5691 fb14 115e 4412
000002d0: def1 1d15 a358 5515 9f69 8914 deb8 be14
000002e0: 9d08 b214 6d6e 8114 5b3b 7d15 614c d614
000002f0: d8e6 9a15 8e02 a012 7a12 6e12 eb41 8611
00000300: c589 8c12 a97c ef11 3eab 4213 89af fd12
00000310: 43bb d912 a24f b512 8389 6913 1009 6112
00000320: 3f95 1216 8a70 aa16 cdf1 f415 344e c814
00000330: d4e6 8615 e381 8315 f7c7 1617 d81e b715
00000340: c16c 3c17 52d9 8415 02ff 071b 0376 1f1b
00000350: 60f1 181a f9de 0016 310e 821a 6f3b 111a
00000360: f9a5 3b1a fff4 861a 4ce6 361a 6690 4b15
00000370: 77ed 2e1c 0891 061c a88d 061c 69b4 4715
00000380: 6157 2c1c ee0d 261c 28f2 ac16 ecda 2c1c
00000390: 0d2e 0917 00ce 1f1c b53d 1316 cf98 7015
000003a0: 5f8a fe15 6a89 aa15 02e2 1f15 d1a3 3f15
000003b0: d621 0b17 8e68 8716 d35c 2f17 6cb6 9a14
000003c0: 07f4 0f16 7ff1 b515 18b9 7415 68f5 e814
000003d0: b978 c215 b27a d815 bd36 7916 1ed9 9116
000003e0: a088 6116 09a1 2f16 1ccd 0b1a 89f2 071a
000003f0: b7d4 2e19 edc0 b315 f682 9219 8c20 2019
1.0777953e-25 3.3474691e-25 8.769642e-27 1.1459647e-25 8.113252e-27 6.0555725e-27 5.5249757e-25 5.8734173e-27
5.772902e-25 1.9452226e-27 1.0121551e-24 9.792062e-25 8.678299e-26 1.897856e-25 1.4635722e-25 8.2016106e-26
1.5499351e-24 1.5162451e-25 1.5628245e-24 1.255183e-27 6.4711574e-24 7.4463597e-22 2.136421e-24 9.083416e-27
3.630133e-24 2.0242202e-24 7.3848887e-22 3.7576316e-24 7.385122e-22 1.2166866e-27 9.161641e-27 8.8856676e-27
3.297479e-27 3.614321e-27 4.399651e-27 2.6633261e-27 6.631492e-27 4.937273e-27 8.331918e-27 1.5199086e-28
1.4373889e-25 1.5019383e-25 3.5095648e-26 4.2077323e-28 5.684132e-26 2.971762e-26 1.7896966e-27 6.2517424e-26
2.6081492e-27 5.200716e-28 1.7170824e-24 1.6640394e-24 5.3049905e-25 4.548943e-28 8.9399e-25 4.8870505e-25
5.3516774e-27 9.378229e-25 6.338392e-27 1.0892399e-27 1.8976511e-26 1.6295409e-26 1.9528142e-26 2.0524221e-27
1.2601481e-26 8.422627e-27 1.2393457e-26 1.7809675e-26 3.0254427e-26 3.2693285e-27 3.8658937e-25 4.8563007e-25
5.255832e-26 1.16436765e-27 6.7842506e-26 2.6866593e-26 1.913881e-26 8.656435e-26 2.055453e-26 8.893596e-28
9.9898806e-26 2.3387476e-23 4.1007816e-26 9.130101e-28 6.036949e-26 3.7729695e-26 2.3280188e-23 6.9272304e-26
2.3283376e-23 1.4881084e-27 5.967587e-28 3.7015834e-28 1.4126748e-27 4.976229e-28 4.2216758e-27 2.5877685e-27
1.3772199e-27 2.119405e-27 3.5819743e-27 5.5282818e-28 3.376042e-26 1.6546715e-26 8.5146565e-27 5.304138e-27
4.2946266e-27 4.9422987e-27 1.150928e-25 5.7158076e-27 1.2650117e-25 3.2999543e-28 1.1368321e-23 1.2757198e-23
5.753192e-24 7.4496184e-28 8.0809736e-24 6.15406e-24 2.2375274e-24 8.269881e-24 2.2414753e-24 3.803185e-24
1.2884071e-23 1.21630834e-23 4.459778e-24 2.440284e-26 7.595272e-24 4.293855e-24 1.5449829e-25 7.804749e-24
2.0797379e-25 1.1269053e-27 5.6948164e-28 3.1330176e-28 1.4640107e-27 5.3054444e-28 6.2735796e-28 8.913107e-28
1.6668302e-27 1.4981853e-27 2.3902152e-27 1.6470725e-28 7.13576e-26 6.866672e-26 2.3117073e-26 2.149888e-28
3.9206686e-26 2.1597885e-26 1.3526916e-27 4.0707084e-26 3.1883133e-27 3.607108e-28 6.373334e-24 6.0248514e-24
2.201492e-24 1.2976038e-27 3.7714304e-24 2.1305583e-24 1.5004597e-26 3.876181e-24 2.0529325e-26 4.142135e-28
1.0692504e-26 6.539566e-27 1.9709095e-26 2.488052e-27 6.562876e-27 2.9609378e-27 1.8289145e-26 1.4809283e-26
4.478739e-26 3.9707294e-27 7.5358526e-26 7.586641e-26 2.0769212e-26 1.1327337e-27 2.1008052e-26 1.1794584e-26
1.8116933e-26 2.5560352e-26 2.5401848e-26 6.196264e-28 3.1896697e-26 4.308493e-26 1.3875125e-26 1.9258014e-26
1.7976804e-26 1.3069227e-26 5.1139766e-26 2.1638604e-26 6.256431e-26 1.0098049e-27 7.512233e-28 2.1182097e-28
8.869205e-28 3.778438e-28 2.4570671e-27 1.6009817e-27 1.3740789e-27 1.1442337e-27 2.9476533e-27 7.100865e-28
1.184088e-25 2.7536003e-25 9.893231e-26 2.0225685e-26 5.448635e-26 5.3115404e-26 4.8720005e-25 7.3961774e-26
6.0883343e-25 5.3657246e-26 1.1249336e-22 1.3190303e-22 3.1627844e-23 1.0410115e-25 5.378967e-23 3.0033307e-23
3.8804765e-23 5.5816914e-23 3.782275e-23 4.1109434e-26 5.7878687e-22 4.452433e-22 4.4519967e-22 4.033005e-26
5.702296e-22 5.4942796e-22 2.794092e-25 5.7192976e-22 4.432521e-25 5.2874936e-22 1.1894037e-25 4.858816e-26
1.02808094e-25 6.8879254e-26 3.2288083e-26 3.870137e-26 4.495603e-25 2.187641e-25 5.666271e-25 1.5621979e-26
1.162845e-25 7.348633e-26 4.942142e-26 2.3522809e-26 7.854644e-26 8.7435284e-26 2.0131332e-25 2.3563034e-25
1.8218467e-25 1.4187201e-25 2.8910212e-23 2.8113264e-23 9.0385466e-24 7.260191e-26 1.5148941e-23 8.278379e-24

exp_avg f4 [40]
00000000: f756 f0a6 d129 2708 f9f0 b8a5 6d6b 5094
00000010: 4e53 16a7 bbe5 43aa 861c 0000 a5ef a7a3
00000020: 35de 3ba9 43cf 9fa2 030e a794 a4e4 be9e
00000030: deeb d1a2 1101 0125 202c 1224 1aa9 061c
00000040: 85c4 6484 75e0 0417 0400 0080 d975 329c
00000050: 0400 0000 0400 0080 0400 0000 b36f 1c1d
00000060: f4be 961c 0400 0080 0400 0000 0400 0080
00000070: 0200 0080 4803 291e c1d0 6a2b 8aad be9e
00000080: f7ec 83a5 e87f b2a5 3752 16a7 55de 43aa
00000090: 4dc4 6484 3bf0 a7a3 0400 0000 0cdb 859f
-1.6676917e-15 5.030389e-34 -3.2082201e-16 -1.0522502e-26 -2.0861841e-15 -1.7399183e-13 1.0232e-41 -1.820767e-17
-4.1715075e-14 -4.3316483e-18 -1.6868217e-26 -2.0211596e-20 -5.6899298e-18 1.1189328e-16 3.169608e-17 4.455544e-22
-2.6891509e-36 4.2934805e-25 -6e-45 -5.9047574e-22 6e-45 -6e-45 6e-45 2.0704175e-21
9.975528e-22 -6e-45 6e-45 -6e-45 -3e-45 8.947464e-21 8.3423204e-13 -2.0188807e-20
-2.288545e-16 -3.096475e-16 -2.086125e-15 -1.7396616e-13 -2.6891408e-36 -1.8207918e-17 6e-45 -5.6690074e-20

exp_avg_sq f4 [40]
00000000: fc6b b217 eeac 2b18 9a24 bb1c e2a5 5b15
00000010: 6b3b bf16 de87 1a18 3daa 3416 aa93 bb17
00000020: 6f83 e619 82ab 1d15 3399 5716 1998 9c19
00000030: 5bd4 8019 21b6 0714 573e e215 7f00 fa18
00000040: 6c36 1d16 8eae 3716 e8e1 8f16 2420 db14
00000050: f26f b818 a50e 301b 7604 3a1c 4bd9 c817
00000060: 418b e718 f797 401a 1277 1e19 9e2d cb18
00000070: 3363 1c18 6d51 1418 653d dd19 b1db 3716
00000080: 3750 ba1c 7eba cf17 ce4d 9218 e4de 4319
00000090: 781b 9517 9fd8 2a1a 7d67 b017 e8b1 9515
1.1530239e-24 2.218854e-24 1.2384083e-21 4.4357556e-26 3.0895212e-25 1.9972629e-24 1.4594002e-25 1.2121867e-24
2.3834528e-23 3.1841193e-26 1.7415903e-25 1.6191454e-23 1.332066e-23 6.851677e-27 9.137903e-26 6.4623986e-24
1.2699532e-25 1.4837702e-25 2.3245463e-25 2.2126026e-26 4.767592e-24 1.4563111e-22 6.1548003e-22 1.297955e-24
5.985271e-24 3.9827426e-23 8.192455e-24 5.252033e-24 2.021261e-24 1.9169661e-24 2.2875661e-23 1.4851945e-25
1.2329183e-21 1.3424139e-24 3.781868e-24 1.0126276e-23 9.635833e-25 3.533016e-23 1.1399858e-24 6.046131e-26

exp_avg f4 [40]
00000000: f756 f0a6 d029 2708 faf0 b8a5 6d6b 5094
00000010: 4e53 16a7 b9e5 43aa 861c 0000 a5ef a7a3
00000020: 35de 3ba9 43cf 9fa2 040e a794 a4e4 be9e
00000030: deeb d1a2 1101 0125 202c 1224 1aa9 061c
00000040: 85c4 6484 74e0 0417 0400 0080 d975 329c
00000050: 0400 0000 0400 0080 0400 0000 b36f 1c1d
00000060: f4be 961c 0400 0080 0400 0000 0400 0080
00000070: 0200 0080 4803 291e c5d0 6a2b 8aad be9e
00000080: f6ec 83a5 e97f b2a5 3752 16a7 55de 43aa
00000090: 4dc4 6484 3bf0 a7a3 0400 0000 10db 859f
-1.6676917e-15 5.0303885e-34 -3.2082204e-16 -1.0522502e-26 -2.0861841e-15 -1.739918e-13 1.0232e-41 -1.820767e-17
-4.1715075e-14 -4.3316483e-18 -1.6868219e-26 -2.0211596e-20 -5.6899298e-18 1.1189328e-16 3.169608e-17 4.455544e-22
-2.6891509e-36 4.29348e-25 -6e-45 -5.9047574e-22 6e-45 -6e-45 6e-45 2.0704175e-21
9.975528e-22 -6e-45 6e-45 -6e-45 -3e-45 8.947464e-21 8.3423226e-13 -2.0188807e-20
-2.2885449e-16 -3.0964753e-16 -2.086125e-15 -1.7396616e-13 -2.6891408e-36 -1.8207918e-17 6e-45 -5.66901e-20

exp_avg_sq f4 [40]
00000000: fc6b b217 eeac 2b18 9a24 bb1c e2a5 5b15
00000010: 6b3b bf16 de87 1a18 3daa 3416 aa93 bb17
00000020: 6f83 e619 82ab 1d15 3399 5716 1998 9c19
00000030: 5bd4 8019 21b6 0714 573e e215 7f00 fa18
00000040: 6c36 1d16 8eae 3716 e8e1 8f16 2420 db14
00000050: f26f b818 a50e 301b 7604 3a1c 4bd9 c817
00000060: 418b e718 f797 401a 1277 1e19 9e2d cb18
00000070: 3363 1c18 6d51 1418 653d dd19 b1db 3716
00000080: 3750 ba1c 7eba cf17 ce4d 9218 e4de 4319
00000090: 781b 9517 9fd8 2a1a 7d67 b017 e8b1 9515
1.1530239e-24 2.218854e-24 1.2384083e-21 4.4357556e-26 3.0895212e-25 1.9972629e-24 1.4594002e-25 1.2121867e-24
2.3834528e-23 3.1841193e-26 1.7415903e-25 1.6191454e-23 1.332066e-23 6.851677e-27 9.137903e-26 6.4623986e-24
1.2699532e-25 1.4837702e-25 2.3245463e-25 2.2126026e-26 4.767592e-24 1.4563111e-22 6.1548003e-22 1.297955e-24
5.985271e-24 3.9827426e-23 8.192455e-24 5.252033e-24 2.021261e-24 1.9169661e-24 2.2875661e-23 1.4851945e-25
1.2329183e-21 1.3424139e-24 3.781868e-24 1.0126276e-23 9.635833e-25 3.533016e-23 1.1399858e-24 6.046131e-26

exp_avg f4 [2, 10]
00000000: 5536 16ad d0e9 143c b1ec 19ad a993 3624
00000010: aaf0 192d f2c1 1aad d0e9 143c b7ec 19ad
00000020: d3e9 14bc acec 19ad 88a5 67aa cde9 14bc
00000030: bd91 bf23 52d9 30a5 2cb1 7ea6 7042 5529
00000040: cde9 14bc c790 f022 cee9 143c 81df 7b1d
-8.538577e-12 0.009088948 -8.749599e-12 3.9590032e-17 8.750481e-12 -8.796951e-12 0.009088948 -8.749604e-12
-0.009088951 -8.749595e-12 -2.0574352e-13 -0.009088946 2.0769984e-17 -1.5339198e-16 -8.8364065e-16 4.7353126e-14
-0.009088946 6.520542e-18 0.0090889465 3.3335122e-21

exp_avg_sq f4 [2, 10]
00000000: 21a4 111c 3eaa 753b 5425 c61b ff7c 901a
00000010: c2be e41b 8f6d bf1b 3eaa 753b 9e20 eb1b
00000020: 3faa 753b acd9 851b e9fb 921b 3daa 753b
00000030: 0340 0c1b ff7c 901a 33f9 481b 7572 f91a
00000040: 3daa 753b 8bc3 551b 3eaa 753b a52e 3319
4.8188607e-22 0.0037485505 3.2780475e-22 5.9758946e-23 3.784271e-22 3.16691e-22 0.0037485505 3.8898567e-22
0.0037485508 2.2143671e-22 2.4316467e-22 0.0037485503 1.1601212e-22 5.9758946e-23 1.6624133e-22 1.031689e-22
0.0037485503 1.768213e-22 0.0037485505 9.263503e-24

exp_avg f4 [2]
00000000: 32c3 17bc 2ac3 173c
-0.009262847 0.009262839

exp_avg_sq f4 [2]
00000000: 5bf8 7e3b 5bf8 7e3b
0.0038905356 0.0038905356
