results/baseline_lstm_task7_seed42/model_lstm_ntask7_nchar5_seed42.pt (torch, 21247 bytes, 21 tensors)

embedding.weight f4 [5, 10]
0.764812 0.35931054 -0.91920835 2.3352423 4.307282 -0.86608744 -1.8945111 2.8969772
-5.199985 8.428477 0.16524935 -0.1700008 -0.42974946 0.43247065 4.2156415 -4.60247
-0.54100394 0.37245739 -5.5460224 3.5065737 7.1264133 2.1582186 2.5247915 0.023586724
-5.762314 -0.5914428 0.56618726 -3.7035222 -5.2106333 -5.190874 -6.9262314 6.219265
0.6036003 4.3494415 -0.14927362 9.829336 -0.8754635 4.2716484 3.7821312 1.8089273
-0.06434852 0.018478 -0.07270806 0.015489697 -0.0956818 -0.07600679 -0.018091012 -0.00081613066
0.057894733 0.006410897
00000000: b8ca 433f 8df7 b73e 3d51 6bbf 9c74 1540
00000010: 41d5 8940 e8b7 5dbf 577f f2bf 1368 3940
00000020: 4766 a6c0 0bdb 0641 2037 293e b114 2ebe
00000030: 1f08 dcbe cb6c dd3e 89e6 8640 6f47 93c0
00000040: 3c7f 0abf bcb2 be3e 0479 b1c0 b46b 6040
00000050: 940b e440 4120 0a40 2f96 2140 f238 c13c
00000060: e064 b8c0 cc68 17bf a6f1 103f 8206 6dc0
00000070: 82bd a6c0 a41b a6c0 b0a3 ddc0 3804 c740
00000080: 8d85 1a3f a02e 8b40 2fdb 18be f644 1d41
00000090: 601e 60bf 58b1 8840 700e 7240 ee8a e73f
000000a0: 28c9 83bd 2d5f 973c f7e7 94bd 80c8 7d3c
000000b0: d2f4 c3bd 73a9 9bbd 9a33 94bc 9af1 55ba
000000c0: 0723 6d3d 8012 d23b

lstm.weight_ih_l0 f4 [40, 10]
-3.268965 -4.6728168 4.145945 2.0985024 1.0710086 -2.0555973 -2.4222472 -0.932229
-3.012902 -1.9220321 3.765193 -3.026101 3.1326447 -0.43456882 0.25432163 -1.8947128
-0.03502996 3.926396 3.7522173 -1.8161203 -0.6833586 0.65751535 -0.6958129 0.1429277
0.6689083 1.6418928 -0.33001834 0.018604198 -1.5799689 2.007896 -1.1047169 -0.4339299
-0.18257777 2.4116423 3.6868718 0.979624 -5.611849 0.87386525 -2.787696 4.4443765
1.5128148 -0.4258478 -1.1148522 -0.5229058 3.8347852 -1.7783394 -4.721856 -2.3353467
-1.9496366 1.4947127 0.5964712 5.801578 4.4852357 -1.1799682 -9.041182 4.2892337
2.5776968 2.1039896 1.1808834 -5.351945 -5.4130273 3.7483373 2.7734642 1.0628672
-4.9807773 4.6805444 3.483921 1.756793 2.2269664 -2.4845824 4.288423 4.8240204
-3.9958782 1.6911299 -0.60679334 -5.8081813 6.233334 3.6279867 -1.0104389 1.9244637
-0.08939344 2.4699705 1.2014921 -3.3052206 -8.174193 3.5476649 4.3684134 -1.6419309
3.932175 -4.24746 4.482945 3.372973 -1.0132765 -1.6540359 -1.1238079 1.817764
3.1245158 -1.0665215 -2.099488 3.457616 3.7714202 2.171736 -1.9199265 -3.2411182
-1.7022867 2.4533913 2.385662 3.0764463 3.2793128 2.9505043 -1.3308923 -3.003755
1.9644854 2.1224313 2.8475854 -0.6195975 -2.8843918 -1.6899554 -3.9984257 -0.6715102
-2.7156363 1.8351711 -1.877304 2.049741 0.86977994 2.0742047 -0.33787662 -0.33686027
-1.2263575 2.4666777 -2.2228258 1.475863 -3.356871 -0.4414091 -3.3903115 -2.9156103
4.1926336 -0.081924014 3.3388157 -2.3636203 -4.718948 -2.6957197 -2.0899236 -1.0697508
1.0962212 -4.546985 -1.2958672 -1.3245167 7.3656554 -4.863763 -5.5641007 2.6958346
-4.8729577 2.9992766 0.04595287 2.7218766 2.5509064 4.1896048 2.1263158 5.4435835
2.4680972 -6.272775 -1.8851447 -0.67659104 6.760052 -8.879388 -4.272777 -1.8369114
2.8008618 0.6244801 -3.2199264 -0.46344045 2.0543091 1.2496349 4.9503555 0.053820625
-4.6524086 -0.025391722 -1.959803 8.471067 -1.4493474 1.9417475 -2.2128425 0.45570514
-0.9838488 0.86200935 1.4153662 -0.6763298 -2.258551 0.9604403 -3.8941724 -0.1854184
5.9281087 3.0164561 4.6282215 2.0342174 -4.890659 4.562835 3.9031959 2.626
0.5292436 1.8083012 -1.3735021 -2.354086 -3.1022108 2.630671 2.4074686 1.6402289
2.4763818 0.9373278 0.11923323 0.8906154 -1.2528719 -0.82230264 -0.23015992 0.4592758
-0.08112484 -1.1320391 -3.0014932 1.0261163 -0.43961403 0.74913555 -1.0157788 1.1227928
0.34490186 0.9793517 -0.17749314 -0.29027206 -0.8316449 1.4657416 2.3145423 -0.6177618
-1.4485161 4.3919835 -0.40689522 -0.5585027 -2.0803752 -1.6847247 -2.860261 0.5834737
-0.2381921 2.1711767 5.919108 -4.723889 -3.234533 4.3760138 0.30196312 1.6668515
5.772192 -4.28224 -0.5480749 4.4350653 -1.3538404 2.095469 -5.31294 4.4118614
00000000: b936 51c0 b787 95c0 95ab 8440 dd4d 0640
00000010: cf16 893f e88e 03c0 1906 1bc0 8fa6 6ebf
00000020: 63d3 40c0 2605 f6bf ecf8 7040 a4ab 41c0
00000030: 407d 4840 ce7f debe 7236 823e f385 f2bf
00000040: 937b 0fbd 124a 7b40 5424 7040 a176 e8bf
00000050: 97f0 2ebf ed52 283f cb20 32bf a45b 123e
00000060: 933d 2b3f 8b29 d23f 2af8 a8be d567 983c
00000070: 6c3c cabf 5e81 0040 5d67 8dbf 0f2c debe
00000080: abf5 3abe 5958 1a40 b5f5 6b40 a3c8 7a3f
00000090: 4494 b3c0 a2b5 5f3f 9c69 32c0 5538 8e40
000000a0: eaa3 c13f b908 dabe 7ab3 8ebf 28dd 05bf
000000b0: 1f6d 7540 a0a0 e3bf 7219 97c0 5276 15c0
000000c0: b18d f9bf bf52 bf3f 56b2 183f 87a6 b940
000000d0: 0d87 8f40 3309 97bf aea8 10c1 6741 8940
000000e0: fcf8 2440 c4a7 0640 3027 973f 2243 abc0
000000f0: 8537 adc0 c2e4 6f40 7080 3140 080c 883f
00000100: 8762 9fc0 05c7 9540 90f8 5e40 98de e03f
00000110: 9e86 0e40 6603 1fc0 c33a 8940 605e 9a40
00000120: 78bc 7fc0 f276 d83f cf56 1bbf 9fdc b9c0
00000130: 7977 c740 ef30 6840 1056 81bf d454 f63f
00000140: e813 b7bd ff13 1e40 7eca 993f bc88 53c0
00000150: 7fc9 02c1 f10c 6340 0bca 8b40 cb2a d2bf
00000160: c1a8 7b40 31eb 87c0 4974 8f40 cade 5740
00000170: 0bb3 81bf 73b7 d3bf f0d8 8fbf 7eac e83f
00000180: 11f8 4740 c783 88bf 035e 06c0 9549 5d40
00000190: f35e 7140 b9fd 0a40 27c0 f5bf 7b6e 4fc0
000001a0: 88e4 d9bf 5d04 1d40 b0ae 1840 7fe4 4440
000001b0: 43e0 5140 10d5 3c40 ae5a aabf 863d 40c0
000001c0: 4274 fb3f ead5 0740 d73e 3640 f19d 1ebf
000001d0: e099 38c0 7550 d8bf 35e6 7fc0 18e8 2bbf
000001e0: fccc 2dc0 e3e6 ea3f 7f4b f0bf f52e 0340
000001f0: e6a9 5e3f c5bf 0440 2afe acbe f378 acbe
00000200: 48f9 9cbf 0cde 1d40 c742 0ec0 14e9 bc3f
00000210: f9d6 56c0 6000 e2be ddfa 58c0 5c99 3ac0
00000220: 0e2a 8640 c7c7 a7bd 28af 5540 8e45 17c0
00000230: 9f01 97c0 ac86 2cc0 4fc1 05c0 98ed 88bf
00000240: fa50 8c3f e780 91c0 fade a5bf c389 a9bf
00000250: 73b3 eb40 f2a3 9bc0 1d0d b2c0 8e88 2c40
00000260: 45ef 9bc0 26f4 3f40 1439 3c3d 3a33 2e40
00000270: 0d42 2340 3e11 8640 8f15 0840 d631 ae40
00000280: 4ef5 1d40 93ba c8c0 6c4c f1bf 1235 2dbf
00000290: 5952 d840 f911 0ec1 97ba 88c0 ea1f ebbf
000002a0: 5241 3340 eedd 1f3f 4613 4ec0 1148 edbe
000002b0: cd79 0340 09f4 9f3f 5069 9e40 0473 5c3d
000002c0: 88e0 94c0 4d02 d0bc d3da fabf 7e89 0741
000002d0: 3784 b9bf 2f8b f83f 369f 0dc0 2f52 e93e
000002e0: 84dd 7bbf a5ac 5c3f b82a b53f f323 2dbf
000002f0: 198c 10c0 6adf 753f 1f3a 79c0 52de 3dbe
00000300: 11b3 bd40 9e0d 4140 641a 9440 9e30 0240
00000310: 4780 9cc0 bf02 9240 f6cd 7940 6210 2840
00000320: 827c 073f 6a76 e73f ebce afbf 58a9 16c0
00000330: 9f8a 46c0 ea5c 2840 f713 1a40 05f3 d13f
00000340: 0a7d 1e40 b7f4 6f3f 8d30 f43d 5fff 633f
00000350: 1b5e a0bf 6d82 52bf 0baf 6bbe 3326 eb3e
00000360: c824 a6bd a8e6 90bf 7718 40c0 c757 833f
00000370: 1715 e1be 59c7 3f3f 0a05 82bf adb7 8f3f
00000380: fa96 b03e cbb6 7a3f c3c0 35be 8a9e 94be
00000390: aee6 54bf 6c9d bb3f 7621 1440 a325 1ebf
000003a0: fa68 b9bf 218b 8c40 9254 d0be 08fa 0ebf
000003b0: de24 05c0 0fa5 d7bf 840e 37c0 885e 153f
000003c0: a1e8 73be 8ff4 0a40 5569 bd40 192a 97c0
000003d0: 9702 4fc0 4e08 8c40 e99a 9a3e 645b d53f
000003e0: ccb5 b840 1c08 89c0 a34e 0cbf 0eec 8d40
000003f0: a44a adbf 2a1c 0640 9b03 aac0 f82d 8d40

lstm.weight_hh_l0 f4 [40, 10]
-3.1359355 1.7525289 -0.13753372 -0.7346051 -0.47315747 -0.62094665 -0.025769142 0.96029073
0.48976213 0.72466546 -2.6522899 -2.7003512 -1.6038628 -3.0266235 5.7452593 -3.373848
3.966052 -6.5335655 3.102192 -2.3956962 0.5510407 0.7690249 1.8423518 0.40394717
3.5129008 0.7645477 -0.7271785 1.5596946 -0.9767948 -1.6767875 2.758513 0.16341431
-2.0021164 -0.9059151 7.039643 -2.0366395 1.5508686 -11.625764 1.4946098 0.9334766
-0.22528127 1.3040398 -0.792495 2.1606598 -5.4388537 -3.5114307 3.4214447 -14.630425
3.4452302 0.5018412 -0.26946914 -0.93122804 -0.89844936 -0.18623906 2.3660936 -2.5190828
-0.028560748 1.0723317 2.7334256 0.5373402 0.041038197 -0.5902056 -2.0930884 -1.5232445
-0.9672001 -0.37180477 -0.53823197 -0.60322005 0.5288094 -0.2827848 -0.31520107 -3.9045172
4.2015567 -1.0250908 1.450985 8.64657 1.3236169 -3.6125023 -8.861652 18.932499
0.05537077 -0.4158472 -1.0086385 -0.33792344 6.783377 0.4479011 -0.009133222 6.303616
-0.24904995 -0.012948911 0.6748367 -1.3282219 -0.52207536 -0.95361984 -0.49143907 -0.6288856
1.1517516 -2.2125854 0.34619305 0.6656711 1.7215607 -0.051741965 -0.46484703 -0.6722627
2.5320816 -0.46136335 1.4739285 -3.1322308 0.7278585 -0.6882567 0.08228508 0.54958904
0.96741176 -0.43135196 -1.6128519 0.27930036 -0.685523 0.59062994 0.34965995 -0.3918327
0.9444315 0.90305156 1.1773044 -0.88516474 3.2925124 0.1663179 0.03244728 1.7585851
-0.72522426 -5.2293887 -0.19093722 0.2684969 -1.4389496 -1.8980687 5.1535926 -0.70308113
1.2256367 -4.4650064 0.9188872 1.2074164 2.0492418 2.464267 -0.9870654 -1.1396698
5.7606683 -1.1049087 -0.6301995 -5.672818 1.2135179 1.2912674 -0.3991227 -1.6052008
0.30092302 0.5511248 -0.6604177 0.6807403 -0.94118035 2.687195 -0.84112024 0.440933
1.7901641 0.072310545 3.0112195 4.286511 4.4165134 8.618983 -2.34469 -2.6599512
-8.369244 10.828695 1.8237265 1.6157852 5.0860257 5.9827204 1.9321983 2.6124885
-0.81820583 10.824969 -0.45442784 2.2986243 -0.45299923 -0.3843577 -0.7583611 0.61647695
6.451274 1.7377497 -0.5148982 6.0410285 -1.3306895 -0.67488307 0.68880284 3.288723
-0.6747891 -1.222885 0.91049516 -0.54208577 1.0715322 2.8682156 0.18326546 -1.0432701
-4.1638117 -2.9419339 -0.20928793 -0.6659966 -1.5693483 2.3786943 -2.0093744 -3.4661386
-2.414809 2.4711323 0.112178646 -0.37458125 -1.1144534 0.4120409 -1.4973675 0.4725508
-0.1402395 0.56022525 -0.031639002 0.51644903 -0.43890297 -0.33893093 -2.5227437 -0.08213951
-0.9334588 1.6699691 -1.6306831 1.7079697 -1.663627 0.61068565 0.57127756 0.5190684
0.7592217 -0.6572686 -1.1576331 -0.24909155 0.4598731 -0.36014605 0.9114338 -0.957023
0.78268284 0.12458775 -0.37893808 -2.7756681 3.2443972 -0.42085022 0.4510519 -0.34680682
0.09251189 0.8831138 0.007941757 -0.5826287 -0.7170801 0.7360441 1.9428848 0.80225825
00000000: 2bb3 48c0 de52 e03f a4d5 0cbe 140f 3cbf
00000010: b241 f2be 5cf6 1ebf cf19 d3bc 9dd5 753f
00000020: 1ac2 fa3e ad83 393f 1ebf 29c0 8ed2 2cc0
00000030: 604b cdbf 33b4 41c0 2ad9 b740 20ed 57c0
00000040: ccd3 7d40 f812 d1c0 508a 4640 1653 19c0
00000050: 0111 0d3f d1de 443f 2fd2 eb3f 2ad2 ce3e
00000060: 5ed3 6040 66b9 433f 5f28 3abf 13a4 c73f
00000070: 390f 7abf f9a0 d6bf 7a8b 3040 1556 273e
00000080: ad22 00c0 0dea 67bf c144 e140 4d58 02c0
00000090: dd82 c63f 2103 3ac1 604f bf3f 53f8 6e3f
000000a0: 22b0 66be c7ea a63f f4e0 4abf 4048 0a40
000000b0: 170b aec0 48bb 60c0 f3f8 5a40 3916 6ac1
000000c0: a77e 5c40 aa78 003f dcf7 89be f664 6ebf
000000d0: c700 66bf 74b5 3ebe 146e 1740 a738 21c0
000000e0: 3bf8 e9bc 2a42 893f 72f0 2e40 218f 093f
000000f0: ab17 283d b717 17bf 29f5 05c0 adf9 c2bf
00000100: 6d9a 77bf 325d bebe 92c9 09bf a16c 1abf
00000110: 0e60 073f 2bc9 90be 0962 a1be 9ce3 79c0
00000120: 2773 8640 2d36 83bf e0b9 b93f 5a58 0a41
00000130: 476c a93f 3d33 67c0 54c9 0dc1 c275 9741
00000140: 76cc 623d ede9 d4be 111b 81bf 4d04 adbe
00000150: 6d11 d940 4b53 e53e 82a3 15bc 39b7 c940
00000160: f306 7fbe ab27 54bc 19c2 2c3f 2d03 aabf
00000170: bba6 05bf 6e20 74bf e79d fbbe a6fe 20bf
00000180: 996c 933f 009b 0dc0 3740 b13e 6c69 2a3f
00000190: 1a5c dc3f 62ef 53bd 6e00 eebe 6919 2cbf
000001a0: a00d 2240 d137 ecbe b0a9 bc3f 7876 48c0
000001b0: ef54 3a3f 9731 30bf 1485 a83d deb1 0c3f
000001c0: 4ca8 773f 2ada dcbe ee71 cebf 7500 8f3e
000001d0: 6f7e 2fbf 8633 173f a106 b33e 4c9e c8be
000001e0: 43c6 713f 632e 673f e9b1 963f 289a 62bf
000001f0: 86b8 5240 3d4f 2a3e 70e7 043d 5119 e13f
00000200: 4ca8 39bf 2757 a7c0 0c85 43be 6d78 893e
00000210: 802f b8bf eaf3 f2bf 3bea a440 20fd 33bf
00000220: aae1 9c3f 55e1 8ec0 313c 6b3f 9f8c 9a3f
00000230: c726 0340 8db6 1d40 51b0 7cbf b3e0 91bf
00000240: 6557 b840 a66d 8dbf c154 21bf ba87 b5c0
00000250: 8e54 9b3f 4048 a53f cf59 ccbe 3877 cdbf
00000260: 9512 9a3e 8416 0d3f 2211 29bf ff44 2e3f
00000270: 32f1 70bf 01fb 2b40 a853 57bf f8c1 e13e
00000280: 1924 e53f 8d17 943d d2b7 4040 192b 8940
00000290: 1454 8d40 5be7 0941 670f 16c0 a43c 2ac0
000002a0: 6ce8 05c1 5642 2d41 df6f e93f 0dd2 ce3f
000002b0: b9c0 a240 7272 bf40 4652 f73f 0333 2740
000002c0: f075 51bf 1333 2d41 c4aa e8be a91c 1340
000002d0: 84ef e7be 88ca c4be f423 42bf 6fd1 1d3f
000002e0: d670 ce40 956e de3f 5ed0 03bf 1b50 c140
000002f0: 0954 aabf 23c5 2cbf 6255 303f 707a 5240
00000300: fabe 2cbf 7f87 9cbf 3616 693f 22c6 0abf
00000310: f827 893f d890 3740 f1a9 3b3e e089 85bf
00000320: f23d 85c0 a548 3cc0 934f 56be c17e 2abf
00000330: 68e0 c8bf 873c 1840 9799 00c0 37d5 5dc0
00000340: 3b8c 1ac0 0827 1e40 ebbd e53d 1dc9 bfbe
00000350: 69a6 8ebf 06f7 d23e bda9 bfbf 2ef2 f13e
00000360: f29a 0fbe ec6a 0f3f e697 01bd 0136 043f
00000370: e4b7 e0be 5b88 adbe a274 21c0 c238 a8bd
00000380: 28f7 6ebf 8cc1 d53f 39ba d0bf c09e da3f
00000390: bbf1 d4bf e555 1c3f 3f3f 123f abe1 043f
000003a0: 5a5c 423f c142 28bf 522d 94bf db11 7fbe
000003b0: 7d74 eb3e 1065 b8be ba53 693f 76ff 74bf
000003c0: e75d 483f dd27 ff3d 2c04 c2be 8ca4 31c0
000003d0: 34a4 4f40 ae79 d7be 46f0 e63e aa90 b1be
000003e0: e076 bd3d bf13 623f 251e 023c 2827 15bf
000003f0: 9092 37bf 636d 3c3f 73b0 f83f cc60 4d3f

lstm.bias_ih_l0 f4 [40]
0.98348296 -5.44362 0.4765912 4.2140603 2.9634194 -3.9850557 -0.2695574 -0.6682167
-2.4850001 0.00326046 -2.461507 1.2870299 1.1422468 -2.807755 -6.890275 3.199886
-0.8078536 8.788261 2.129919 2.0188954 -3.8101475 0.5724802 0.5772065 1.7727041
-7.276245 0.9392119 3.8492303 2.7457623 -3.3410504 0.11675356 -3.555813 -2.784942
-8.182558 -0.8890135 -3.7135751 -4.6083174 -7.6615644 5.522851 -2.3978257 -7.269043
00000000: 8ac5 7b3f 2332 aec0 c303 f43e 95d9 8640
00000010: aaa8 3d40 270b 7fc0 6d03 8abe 4010 2bbf
00000020: 3e0a 1fc0 71ad 553b 5589 1dc0 65bd a43f
00000030: 2535 923f 42b2 33c0 227d dcc0 efca 4c40
00000040: 7ecf 4ebf b89c 0c41 9850 0840 9535 0140
00000050: 75d9 73c0 108e 123f cec3 133f f8e7 e23f
00000060: 00d7 e8c0 3170 703f ca59 7640 92ba 2f40
00000070: c5d3 55c0 7e1c ef3d 7192 63c0 7d3c 32c0
00000080: c2eb 02c1 6496 63bf 37ab 6dc0 5677 93c0
00000090: 892b f5c0 32bb b040 fa75 19c0 009c e8c0

lstm.bias_hh_l0 f4 [40]
0.9834833 -5.44362 0.47659126 4.214059 2.9634206 -3.9850566 -0.26955736 -0.6682167
-2.4849997 0.003260028 -2.4615068 1.2870299 1.1422467 -2.8077552 -6.890275 3.1998863
-0.8078536 8.78826 2.1299188 2.0188954 -3.8101475 0.5724804 0.57720625 1.7727041
-7.276246 0.9392119 3.8492303 2.745762 -3.3410504 0.11675356 -3.5558128 -2.7849422
-8.182558 -0.88901323 -3.7135758 -4.608317 -7.6615644 5.5228515 -2.3978257 -7.2690434
00000000: 90c5 7b3f 2332 aec0 c503 f43e 92d9 8640
00000010: afa8 3d40 2b0b 7fc0 6c03 8abe 4010 2bbf
00000020: 3c0a 1fc0 32a6 553b 5489 1dc0 65bd a43f
00000030: 2435 923f 43b2 33c0 227d dcc0 f0ca 4c40
00000040: 7ecf 4ebf b79c 0c41 9750 0840 9535 0140
00000050: 75d9 73c0 138e 123f cac3 133f f8e7 e23f
00000060: 02d7 e8c0 3170 703f ca59 7640 91ba 2f40
00000070: c5d3 55c0 7e1c ef3d 7092 63c0 7e3c 32c0
00000080: c2eb 02c1 5f96 63bf 3aab 6dc0 5577 93c0
00000090: 892b f5c0 33bb b040 fa75 19c0 019c e8c0

output_proj.weight f4 [5, 10]
-0.6426837 0.29662812 -10.501205 -0.66045415 -1.4150233 0.014327304 -0.36454296 -1.9835982
-0.279095 0.6623262 0.3932067 -0.38847035 7.2981234 -1.775676 -0.448547 1.4489702
0.34069675 -1.9767642 -0.9909436 0.13110515 -0.0487087 -2.0525267 -2.5737243 4.2981224
-2.723871 -11.440088 -11.410225 -10.738414 14.6390705 -2.177855 0.85373926 0.78991467
0.32978845 -4.026384 12.329472 -4.427116 1.5029342 1.4111661 17.555729 -0.113267444
-0.0747949 0.4476582 -2.24569 -4.2057767 1.8483695 -9.04841 -11.505238 15.156746
8.022717 0.4681982
00000000: eb86 24bf a4df 973e f004 28c1 8613 29bf
00000010: 7c1f b5bf 12bd 6a3c 60a5 babe 8ce6 fdbf
00000020: 8ae5 8ebe 368e 293f 6352 c93e 96e5 c6be
00000030: 3a8a e940 5a49 e3bf f4a7 e5be db77 b93f
00000040: ce6f ae3e 9c06 fdbf 7bae 7dbf 6e40 063e
00000050: c682 47bd 995c 03c0 e6b7 24c0 388a 8940
00000060: e753 2ec0 9a0a 37c1 4890 36c1 8bd0 2bc1
00000070: a239 6a41 fa61 0bc0 a88e 5a3f d937 4a3f
00000080: 08da a83e 23d8 80c0 8445 4541 efaa 8dc0
00000090: 2660 c03f 17a1 b43f 2272 8c41 c3f8 e7bd
000000a0: 122e 99bd 7533 e53e 63b9 0fc0 b995 86c0
000000b0: 5f97 ec3f 4ac6 10c1 7415 38c1 0882 7241
000000c0: 0d5d 0041 adb7 ef3e

output_proj.bias f4 [5]
2.2470803 2.247176 8.633078 -3.1213102 -16.787075
00000000: 2ad0 0f40 bbd1 0f40 1621 0a41 8cc3 47c0
00000010: ee4b 86c1

exp_avg f4 [5, 10]
1.7101898e-19 -2.3248174e-20 4.18705e-20 4.0539075e-20 3.3197498e-21 -6.469584e-20 -1.5825393e-20 3.2811996e-20
-9.2920475e-20 1.2499251e-20 -7.479985e-14 -1.1756283e-13 -9.9764896e-14 -8.259467e-15 -6.492287e-14 -1.1185624e-13
-1.172145e-15 -6.474207e-14 -1.2611377e-14 -1.8432784e-13 -1.3038928e-12 -1.5281144e-12 2.3429592e-12 -4.878325e-13
-1.0104154e-12 -3.4825644e-13 2.4687948e-13 7.5557594e-13 2.045497e-12 -1.9017433e-12 5.0870813e-14 4.298053e-14
-5.3368297e-14 5.866237e-14 5.666064e-14 -4.90089e-14 3.882204e-14 5.813428e-14 -1.0454412e-13 6.665817e-14
0.0 0.0 0.0 0.0 0.0 0.0 0.0 0.0
0.0 0.0
00000000: 51e7 4920 a392 db9e 54ba 451f bc70 3f1f
00000010: 4dd5 7a1d 3cc2 989f 7477 959e 45f3 1a1f
00000020: fb66 db9f ab1a 6c1e 2e6f a8a9 2e5d 04aa
00000030: 8ca6 e0a9 12ca 14a8 7d31 92a9 bbe0 fba9
00000040: 85ec a8a6 43c9 91a9 b62f 63a8 e288 4faa
00000050: b081 b7ab 2010 d7ab 00df 242c 0950 09ab
00000060: 0d34 8eab 0b0d c4aa 15fb 8a2a fcac 542b
00000070: 66f0 0f2c c3d2 05ac 0e1a 6529 2d91 4129
00000080: 7559 70a9 8e18 8429 452d 7f29 6ab7 5ca9
00000090: c4d6 2e29 21e8 8229 9569 eba9 d219 9629
000000a0: 0000 0000 0000 0000 0000 0000 0000 0000
000000b0: 0000 0000 0000 0000 0000 0000 0000 0000
000000c0: 0000 0000 0000 0000

exp_avg_sq f4 [5, 10]
5.371888e-18 2.322295e-18 2.541257e-19 2.5002247e-18 1.7945574e-18 1.4923475e-18 2.1642517e-18 1.1091796e-18
2.3956373e-19 3.3778018e-18 1.0149156e-14 2.7743558e-14 2.3978385e-15 1.3624859e-14 6.212212e-14 3.484772e-14
6.4027356e-14 8.39072e-15 8.699118e-16 9.569319e-17 1.4688661e-18 6.89274e-20 9.338626e-20 2.6341693e-19
4.334251e-20 2.2851304e-19 2.1701883e-20 2.0955476e-19 1.9253882e-19 7.087158e-20 1.9813345e-21 7.0513255e-22
3.2943917e-22 4.3377363e-22 3.2715834e-22 2.2202528e-23 6.0980624e-22 3.5012542e-22 4.23031e-22 2.7544956e-23
0.0 0.0 0.0 0.0 0.0 0.0 0.0 0.0
0.0 0.0
00000000: 0c30 c622 ea5a 2b22 6402 9620 e97b 3822
00000010: 3b6a 0422 4b3b dc21 8fb1 1f22 9faf a321
00000020: d969 8d20 df3c 7922 b9d4 3628 4ae4 f928
00000030: 50c8 2c27 9271 7528 f7e2 8b29 b0f0 1c29
00000040: 422d 9029 5e27 1728 29bc 7a26 4aa7 dc24
00000050: 31c4 d821 0fc0 a21f 8880 dc1f 717e 9b20
00000060: e1ad 4c1f eae3 8620 eff7 cc1e 0a66 7720
00000070: 4a4f 6320 3e57 a71f 95b4 151d fd1c 551c
00000080: 3e22 c71b 9c19 031c 4dc1 c51b ccba d619
00000090: 794d 381c 49a3 d31b e0b4 ff1b 0133 051a
000000a0: 0000 0000 0000 0000 0000 0000 0000 0000
000000b0: 0000 0000 0000 0000 0000 0000 0000 0000
000000c0: 0000 0000 0000 0000

exp_avg f4 [40, 10]
7.504676e-14 2.2727696e-14 2.6588166e-14 2.483668e-16 -6.0681806e-14 -6.22838e-15 5.962414e-15 -3.9001002e-14
-5.487203e-14 -5.4664118e-14 4.6831956e-13 1.4182924e-13 1.6591997e-13 1.5499118e-15 -3.7867677e-13 -3.886748e-14
3.720765e-14 -2.433807e-13 -3.4242192e-13 -3.4112424e-13 2.572159e-15 7.794546e-16 9.123576e-16 7.563489e-18
-2.089369e-15 -2.0338926e-16 2.055737e-16 -1.3377305e-15 -1.868768e-15 -1.8815312e-15 1.5939952e-35 4.827369e-36
5.6473324e-36 5.275318e-38 -1.288883e-35 -1.322908e-36 1.2664181e-36 -8.283824e-36 -1.1654834e-35 -1.1610673e-35
2.3381099e-33 -2.0994568e-33 -2.0375907e-34 -1.4682547e-33 5.039054e-35 -3.3181197e-33 2.9553276e-34 -1.4419937e-33
-1.2767454e-33 -6.106457e-34 6e-45 6e-45 -6e-45 6e-45 6e-45 -6e-45
6e-45 6e-45 -6e-45 6e-45 4.804507e-13 1.4550313e-13 1.702179e-13 1.5900486e-15
-3.8848593e-13 -3.9874178e-14 3.8171475e-14 -2.4968512e-13 -3.5129172e-13 -3.4996067e-13 -1.3099321e-25 1.1762262e-25
1.14156555e-26 8.225935e-26 -2.8231435e-27 1.8589855e-25 -1.6557301e-26 8.078807e-26 7.1529993e-26 3.4211582e-26
6e-45 6e-45 -6e-45 6e-45 6e-45 -6e-45 6e-45 6e-45
-6e-45 6e-45 -6.817015e-15 6.9059303e-15 1.567073e-14 -1.5184055e-14 -1.5304023e-13 1.6822578e-13
1.95343e-14 -1.3014841e-14 2.0176081e-13 -1.2707045e-13 4.36262e-19 1.3212071e-19 1.5456221e-19 1.4441235e-21
-3.5275492e-19 -3.6206926e-20 3.466045e-20 -2.2672025e-19 -3.1898287e-19 -3.1777237e-19 1.1744836e-21 3.5568923e-22
4.1610494e-22 3.8870955e-24 -9.496712e-22 -9.747423e-23 9.331185e-23 -6.103667e-22 -8.587491e-22 -8.554943e-22
-1.283449e-20 1.2834719e-20 3.255913e-20 -3.2864955e-20 -3.201284e-19 3.4977097e-19 4.1089625e-20 -2.8159606e-20
4.2165237e-19 -2.6626758e-19 9.7952736e-17 -8.7921795e-17 -8.524213e-18 -6.1493785e-17 2.0883703e-18 -1.3897274e-16
1.2379762e-17 -6.040821e-17 -5.349301e-17 -2.5595152e-17 -1.58024555e-27 1.4189486e-27 1.3771354e-28 9.923414e-28
-3.4057182e-29 2.2425998e-27 -1.9974013e-28 9.745925e-28 8.629069e-28 4.127138e-28 3.3345626e-17 -3.430445e-17
-8.671911e-17 8.726819e-17 8.5067365e-16 -9.287316e-16 -1.091691e-16 7.5158114e-17 -1.119131e-15 7.075908e-16
6e-45 6e-45 -6e-45 6e-45 6e-45 -6e-45 6e-45 6e-45
-6e-45 6e-45 -9.334717e-26 -2.826994e-26 -3.3071755e-26 -3.089344e-28 7.5479247e-26 7.747168e-27
-7.416363e-27 4.8511534e-26 6.8252763e-26 6.799412e-26 -3.92605e-37 4.038942e-37 1.0210147e-36 -1.0274789e-36
-1.0015668e-35 1.093471e-35 1.28533615e-36 -8.848972e-37 1.3176436e-35 -8.331038e-36 -3.7757294e-15 3.884298e-15
9.819218e-15 -9.881388e-15 -9.632189e-14 1.0516042e-13 1.2361232e-14 -8.510163e-15 1.2671934e-13 -8.01206e-14
-6e-45 -6e-45 -6e-45 -6e-45 6e-45 -6e-45 -6e-45 6e-45
6e-45 6e-45 -5.408e-42 4.858e-42 4.71e-43 3.397e-42 -1.16e-43 7.676e-42
-6.82e-43 3.336e-42 2.954e-42 1.413e-42 -5.5506495e-20 -1.6809987e-20 -1.9665282e-20 -1.8369717e-22
4.4881802e-20 4.606655e-21 -4.4099515e-21 2.884613e-20 4.058474e-20 4.043097e-20 6e-45 6e-45
6e-45 6e-45 -6e-45 6e-45 6e-45 6e-45 -6e-45 6e-45
-6e-45 -6e-45 -6e-45 6e-45 6e-45 6e-45 -6e-45 6e-45
6e-45 6e-45 -6e-45 -6e-45 -6e-45 -6e-45 6e-45 -6e-45
00000000: 83fd a829 80b6 cc28 237c ef28 782c 8f25
00000010: aea4 88a9 aa66 e0a7 90d1 d627 18a5 2fa9
00000020: 251f 77a9 702f 76a9 fbd1 032b 7faf 1f2a
00000030: 2dcf 3a2a a75d df26 132d d5aa 270b 2fa9
00000040: 8091 2729 db02 89aa 33c4 c0aa 2f09 c0aa
00000050: f557 3927 99a9 6026 0e7c 8326 9185 0b23
00000060: 0e8e 16a7 ea7d 6aa5 a602 6d25 8bc9 c0a6
00000070: afa8 06a7 2094 07a7 ad80 a905 6555 cd04
00000080: 0136 f004 9a9b 8f01 bc0e 8985 c514 e183
00000090: 4a78 d703 6e2d 3085 f4de 7785 84ee 7685
000000a0: 193e 4209 826a 2e89 cf6b 8787 a6f4 f388
000000b0: 06f6 8506 4dd4 8989 4b6a c407 a197 ef88
000000c0: be22 d488 feeb 4a88 0400 0000 0400 0000
000000d0: 0400 0080 0400 0000 0400 0000 0400 0080
000000e0: 0400 0000 0400 0000 0400 0080 0400 0000
000000f0: 1f3c 072b 6cd2 232a f8a5 3f2a 7026 e526
00000100: b9b2 daaa cc93 33a9 b7e8 2b29 6b8f 8caa
00000110: 79c2 c5aa a602 c5aa 6829 2296 199c 1116
00000120: 401c 6214 0faa cb15 27ac 5f93 9a21 6616
00000130: bff9 a394 8605 c815 8519 b115 5568 2915
00000140: 0400 0000 0400 0000 0400 0080 0400 0000
00000150: 0400 0000 0400 0080 0400 0000 0400 0000
00000160: 0400 0080 0400 0000 de9b f5a7 f7cf f827
00000170: 3e26 8d28 0cc4 88a8 d84e 2caa c867 3d2a
00000180: 07f3 af28 5c74 6aa8 9829 632a 9011 0faa
00000190: 06c3 0021 09fb 1b20 9079 3620 d23a da1c
000001a0: d13a d0a0 7dfb 2a9f eaad 231f ffd4 85a0
000001b0: 544b bca0 6794 bba0 a27b b11c 3e00 d71b
000001c0: 1f85 fb1b ee5f 9618 a082 8f9c a0ad eb9a
000001d0: 3d9d e11a d678 389c 3fc5 819c 5547 819c
000001e0: c96f 729e e570 721e 93c1 191f 4b33 1b9f
000001f0: 70f8 bca0 e577 ce20 4f0a 421f e0fa 049f
00000200: 4ee6 f820 382d 9da0 17dd e124 debb caa4
00000210: 753e 1da3 86cb 8da4 3318 1a22 8339 20a5
00000220: c65d 6423 b74a 8ba4 66b1 76a4 d812 eca3
00000230: 6066 fa92 65d7 e012 9992 2e11 263e 9d12
00000240: c0b0 2c90 54ad 3113 6133 7d91 2b6e 9a12
00000250: aabb 8812 52cb 0212 91c7 1924 8c33 1ea4
00000260: edf5 c7a4 0c3a c924 a330 7526 26d8 85a6
00000270: 10ba fba4 854d ad24 a548 a1a6 fcf2 4b26
00000280: 0400 0000 0400 0000 0400 0080 0400 0000
00000290: 0400 0000 0400 0080 0400 0000 0400 0000
000002a0: 0400 0080 0400 0000 cc1d e795 68fc 0b95
000002b0: 6ec3 2395 79cf c391 a8e0 ba15 cf72 1914
000002c0: 6ee5 1294 ad37 7015 54fc a815 6558 a815
000002d0: b898 0583 2670 0903 76b7 ad03 05d1 ae83
000002e0: 7c02 5585 398e 6805 49b0 da03 b58e 9683
000002f0: ac1d 8c05 7c2e 3185 f508 88a7 53f2 8b27
00000300: 26e3 3028 dc01 32a8 cae5 d8a9 dbcc ec29
00000310: 1fae 5e28 334e 19a8 5dac 0e2a 626a b4a9
00000320: 0400 0080 0400 0080 0400 0080 0400 0080
00000330: 0400 0000 0400 0080 0400 0080 0400 0000
00000340: 0400 0000 0400 0000 130f 0080 8b0d 0000
00000350: 5001 0000 7809 0000 5300 0080 6615 0000
00000360: e701 0080 4d09 0000 3c08 0000 f003 0000
00000370: 9e0f 839f 0ec4 9e9e bcbb b99e 8513 5e9b
00000380: c5f2 531f d508 ae1d 6f9a a69d d538 081f
00000390: f1a7 3f1f 0bee 3e1f 0400 0000 0400 0000
000003a0: 0400 0000 0400 0000 0400 0080 0400 0000
000003b0: 0400 0000 0400 0000 0400 0080 0400 0000
000003c0: 0400 0080 0400 0080 0400 0080 0400 0000
000003d0: 0400 0000 0400 0000 0400 0080 0400 0000
000003e0: 0400 0000 0400 0000 0400 0080 0400 0080
000003f0: 0400 0080 0400 0080 0400 0000 0400 0080

exp_avg_sq f4 [40, 10]
3.6939967e-25 3.047555e-25 1.6753205e-25 2.383911e-25 5.004344e-25 9.5878974e-26 4.253995e-25 4.8422905e-25
6.2245454e-25 2.0336951e-25 1.0930994e-24 3.517441e-24 1.0946036e-24 1.6124048e-25 1.5640907e-24 1.243428e-24
1.775768e-24 3.847012e-25 2.6075557e-24 1.3207883e-24 9.867487e-26 1.9227692e-24 1.059268e-24 8.010429e-26
1.1730415e-24 1.3953433e-24 1.4327895e-24 2.2732932e-24 4.43345e-25 1.344183e-24 3.969781e-24 3.3561768e-24
6.981747e-25 3.4618135e-24 2.2752873e-24 5.5077906e-24 1.471229e-24 1.3224674e-24 4.1805285e-24 1.0171763e-24
1.656461e-23 6.719136e-23 1.4899251e-22 1.1114145e-23 1.595397e-23 5.672634e-24 1.405101e-23 6.2162814e-23
2.0256484e-22 2.047302e-23 3.0105653e-22 3.9422276e-23 7.826264e-23 3.6847194e-23 1.0683567e-22 6.433435e-23
3.1395888e-23 9.256922e-23 5.058416e-22 1.5503093e-22 7.8209756e-25 1.1026497e-25 1.2164024e-25 4.2751103e-26
5.9135005e-25 5.9069344e-26 7.7618046e-26 3.1708577e-25 6.030895e-25 4.599423e-25 2.4965619e-23 1.3503433e-22
1.0068509e-22 4.3753523e-23 1.4465625e-23 9.516421e-23 5.399815e-23 5.965319e-23 4.741163e-22 1.2681828e-22
3.7070795e-25 1.8727191e-24 1.1361015e-24 4.014279e-25 5.18526e-25 1.174797e-24 1.1131812e-24 7.496169e-25
4.5263837e-24 1.257518e-24 1.4562989e-25 4.190625e-25 1.6943914e-25 9.6114036e-26 2.2203784e-25 6.939639e-25
1.4980022e-25 1.1474988e-25 6.1098985e-24 5.2677686e-25 1.6994294e-25 2.895951e-25 1.5824753e-25 7.1749845e-26
9.3851823e-26 2.3686624e-26 1.5768527e-25 9.837768e-26 5.704696e-25 2.734823e-26 4.297021e-29 1.0553043e-28
1.027994e-28 8.3738483e-29 3.1763026e-28 1.0181228e-28 2.492608e-28 3.0895344e-28 6.9156957e-28 1.0444847e-28
3.020987e-26 2.0033992e-25 1.1053685e-25 8.285511e-27 6.2614386e-26 8.2766066e-26 6.803687e-26 2.4320937e-25
1.757258e-25 5.827247e-26 5.471377e-27 2.7218369e-27 4.646957e-27 2.0439037e-27 5.004714e-27 2.5451368e-27
4.3283176e-27 5.808043e-27 1.2462931e-26 3.625263e-27 5.347653e-23 3.2092465e-22 4.5596326e-24 1.8827508e-23
4.859536e-22 1.214472e-22 1.155632e-22 3.5066224e-24 1.6400526e-23 9.435259e-24 6.91455e-26 2.0006198e-25
1.17514105e-26 4.6778392e-27 4.020743e-26 4.7399182e-26 2.0387349e-26 1.1200093e-26 2.7981328e-26 1.0125219e-26
5.173099e-27 2.3095777e-26 8.916787e-27 2.42897e-27 1.9981334e-26 1.9195768e-26 1.2799864e-26 6.479765e-27
2.0516862e-25 6.767303e-27 1.6088116e-18 2.754968e-19 2.3823693e-19 5.0438537e-20 9.548089e-19 1.5820511e-18
7.462394e-20 5.760818e-21 7.117348e-18 3.2844383e-18 3.0878998e-24 1.5458358e-24 2.1524804e-25 5.666911e-25
3.476012e-26 5.080231e-24 2.4616363e-25 2.1909553e-24 1.7563424e-24 7.0732207e-25 1.6255557e-24 8.4937e-25
1.1074421e-25 2.5123484e-25 2.6818377e-26 2.907409e-24 1.2622069e-25 1.0497367e-24 1.084588e-24 2.4634435e-25
2.0674273e-24 6.584808e-24 1.5732723e-23 2.1586062e-24 7.100989e-24 3.2089414e-24 5.06744e-24 3.6579457e-24
2.1910807e-23 2.7020393e-24 1.6598425e-27 4.5583985e-27 4.919757e-27 1.8011674e-27 4.997363e-27 4.789797e-27
4.975637e-27 7.8474435e-27 1.3043299e-26 3.9891795e-27 1.0710575e-24 1.6213849e-24 4.6837773e-25 2.5640064e-24
1.6964376e-23 7.0278923e-25 1.16042835e-23 1.8298077e-23 1.275362e-24 9.49923e-25 2.7537746e-27 3.1170302e-27
2.088439e-27 1.6321729e-27 1.5311352e-27 2.1947272e-27 1.1195952e-27 3.393061e-27 2.4670868e-27 2.328393e-27
1.9902454e-21 1.1833916e-21 2.8781297e-23 3.3408116e-21 4.406355e-21 8.602916e-22 4.6169627e-21 2.681494e-21
1.7410344e-20 7.7777993e-23 2.0923737e-25 1.6224198e-25 1.8466014e-26 7.847806e-26 3.1073214e-25 4.252532e-26
00000000: b7a5 e416 70a2 bc16 0765 4f16 948e 9316
00000010: 7fe0 1a17 8562 ed15 9fa7 0317 94dc 1517
00000020: eea3 4017 5fc2 7b16 2126 a917 0c13 8818
00000030: b761 a917 269b 4716 0408 f217 4269 c017
00000040: b564 0918 571e ee16 f6bf 4918 d161 cc17
00000050: a14e f415 5ec4 1418 eee9 a317 2054 c615
00000060: f684 b517 3eeb d717 a4b6 dd17 36e3 2f18
00000070: 6935 0917 9300 d017 cf92 9918 f7d5 8118
00000080: 1913 5817 24ec 8518 b50a 3018 8412 d518
00000090: 63a9 e317 55a4 cc17 f3b9 a118 8166 9d17
000000a0: fd33 a019 7075 a21a f31e 341b 95fa 5619
000000b0: 1e4c 9a19 0c73 db18 9ee4 8719 eb4c 961a
000000c0: c8e2 741b be00 c619 3efa b51b 6aa2 3e1a
000000d0: 3a3a bd1a 9e2e 321a 0a28 011b 098d 9b1a
000000e0: 3ad2 171a 92d1 df1a 99e1 181c c06b 3b1b
000000f0: 270c 7217 5d80 0816 5595 1616 76b1 5315
00000100: 9403 3717 a53f 9215 482c c015 3f44 c416
00000110: aca5 3a17 6258 0e17 e173 f119 1a3f 231b
00000120: 0d71 f31a 3d94 531a 27e7 8b19 cb17 e61a
00000130: 3c8f 821a 893b 901a f94a 0f1c 5b50 191b
00000140: 0575 e516 06e5 1018 9ecd af17 ca78 f816
00000150: dd79 2017 81ca b517 a741 ac17 c5fe 6717
00000160: 221b af18 6c97 c217 f447 3416 8db1 0117
00000170: 68c1 5116 82f7 ed15 4d6f 8916 7cc5 5617
00000180: 9671 3916 b00d 0e16 815d ec18 9007 2317
00000190: 1161 5216 2d40 b316 a5e6 4316 dea4 b115
000001a0: a95d e815 ba94 ea14 7534 4316 4392 f315
000001b0: 428d 3017 006c 0715 86e2 5910 95c6 0511
000001c0: 5050 0211 624d d410 7552 c911 f90f 0111
000001d0: e1fc 9d11 90d2 c311 ca2a 5b12 7767 0411
000001e0: 8f97 1515 4102 7816 87d6 0816 881c 2414
000001f0: 9506 9b15 3aeb cc15 7d73 a815 108a 9616
00000200: bb89 5916 9146 9015 5bbe d813 69a5 5713
00000210: be15 b813 4bef 2113 d441 c613 82a5 4913
00000220: 5b76 ab13 8e14 e613 91da 7614 899c 8f13
00000230: 5e4c 811a affc c11b 6a64 b018 a716 b619
00000240: d7de 121c 16d2 121b 14b5 0b1b e8a7 8718
00000250: bc9d 9e19 2481 3619 2b32 ab15 2caa 7716
00000260: bbc2 6814 ed4e b913 f918 4715 9ab5 6a15
00000270: 12e8 c914 38d7 5d14 8c8e 0a15 f68c 4814
00000280: 75ed cc13 c0ba e414 7b9d 3014 5d71 4013
00000290: b3e2 c514 0e1b be14 0587 7d14 5058 0014
000002a0: 88fc 7d16 4e0a 0614 2f6b ed21 e69f a220
000002b0: 59a1 8c20 7330 6e1f a9e7 8c21 3378 e921
000002c0: 6733 b01f 37a3 d91d ba4a 0323 4959 7222
000002d0: 28ea 6e18 dd34 ef17 6a3b 8516 e561 2f17
000002e0: b01f 2c15 2c88 c418 2f5e 9816 5784 2918
000002f0: f2e3 0718 d4e7 5a17 e58a fb17 036f 8317
00000300: 3e18 0916 c081 9b16 55cc 0415 2bf3 6018
00000310: ef40 1c16 5b70 a217 f5d4 a717 d27a 9816
00000320: 9ef5 1f18 c8bc fe18 5628 9819 9a03 2718
00000330: 655a 0919 a247 7818 7f09 c418 8a82 8d18
00000340: 88e8 d319 670f 5118 9b81 0313 a793 b413
00000350: 43e4 c213 04b4 0e13 48f7 c513 50be bd13
00000360: f41a c513 446f 1b14 b12c 8114 1607 9e13
00000370: f5bc a517 ace5 fa17 b5f4 1017 6161 4618
00000380: c311 a419 b380 5917 a175 6019 d8f7 b019
00000390: 4b5a c517 54fe 9217 2f2d 5a13 e2f4 7613
000003a0: 9376 2513 6650 0113 399e f212 5be2 2d13
000003b0: 2d68 b112 ba69 8613 7776 4313 6c79 3813
000003c0: f260 161d 3fd4 b21c 852d 0b1a b26c 7c1d
000003d0: a777 a61d eb00 821c 866c ae1d a39b 4a1d
000003e0: a16f a41e 3f0e bc1a fc82 8116 89d8 4816
000003f0: e8e0 b614 614d c215 7955 c016 3f93 5215

exp_avg f4 [40, 10]
-1.8917227e-29 7.12891e-40 2.23447e-40 2.3763e-41 -3.453743e-32 1.9528506e-28 -1.172164e-39 8.4408536e-15
-1.9528506e-28 -6e-45 -1.324156e-28 1.14102e-40 9.766124e-30 -6.97607e-30 -2.4424429e-31 8.817238e-30
6.955972e-30 5.0909364e-14 -8.83009e-30 -9.788946e-30 5.5978364e-29 -6.357035e-30 -2.4120351e-38 -3.5301357e-38
-1.5042448e-35 -1.602265e-18 1.0225752e-29 3.577192e-16 1.602265e-18 -1.716597e-36 6e-45 -6e-45
-6e-45 -6e-45 6e-45 -6e-45 6e-45 1.7039449e-36 6e-45 6e-45
-6e-45 6e-45 6e-45 6e-45 -6e-45 4e-45 -6e-45 -3.3151595e-34
6e-45 -6e-45 -6e-45 6e-45 6e-45 6e-45 6e-45 6e-45
-6e-45 6e-45 -6e-45 -6e-45 -1.3242626e-28 1.1427e-40 1.57659e-39 1.67689e-40
-2.4372806e-31 -6e-45 -6e-45 5.2649308e-14 6e-45 -6e-45 -7.06e-43 -3e-45
-6e-45 -6e-45 6e-45 6e-45 -6e-45 1.8291378e-26 6e-45 -6e-45
-6e-45 6e-45 6e-45 -6e-45 0.0 6e-45 6e-45 6e-45
-6e-45 -6e-45 5.78435e-25 -2.0797302e-25 -3.9e-43 -7.44971e-33 1.56e-43 -9.796666e-15
2.4574548e-25 -3.306349e-14 9.796666e-15 6.980255e-33 -1.1761965e-34 2.21898e-40 -3.7542495e-32 2.9458873e-32
-2.1600058e-37 6.218232e-29 -2.9409684e-32 4.8138037e-20 -6.218231e-29 -1.4548319e-32 -4.652856e-37 -6e-45
6e-45 6e-45 -6.88556e-40 -6e-45 -6e-45 1.3811499e-22 6e-45 6e-45
-2.6011124e-33 2.8404584e-34 -1.22502525e-36 9.728654e-37 3.01e-43 7.494706e-23 -4.6487528e-34 -7.5142515e-20
-7.494706e-23 4.303106e-39 8.308794e-34 -1.550185e-39 -4e-45 -6e-45 -1.500123e-38 -8.5036e-41
6e-45 -1.3926315e-17 8.5036e-41 6e-45 -1.1e-44 6e-45 6e-45 6e-45
-6e-45 6e-45 -6e-45 2.2469582e-28 -6e-45 -6e-45 -1.635848e-27 4.9991147e-28
6e-45 1.6837388e-35 -0.0 3.1932788e-17 -6.0792215e-28 1.9111492e-16 -3.1932788e-17 -1.6932405e-35
-6e-45 6e-45 6e-45 6e-45 -6e-45 6e-45 -6e-45 6e-45
-6e-45 -6e-45 2.124e-42 -6e-45 6e-45 6e-45 4e-45 -6e-45
6e-45 -1.3103413e-26 6e-45 6e-45 6e-45 -6e-45 -2.379097e-36 1.8094206e-36
-6e-45 -2.2864992e-36 -1.8056905e-36 -6e-45 2.290371e-36 1.9172399e-38 6.8743154e-25 -2.4716188e-25
-2.94e-43 -8.853474e-33 6.9e-44 -1.1642709e-14 2.9205196e-25 -1.9157808e-14 1.1642709e-14 8.295562e-33
6e-45 -6e-45 -6e-45 -6e-45 6e-45 6e-45 -6e-45 -6e-45
6e-45 -6e-45 6e-45 -6e-45 -6e-45 -6e-45 6e-45 -6e-45
-6e-45 7.67e-43 6e-45 -6e-45 1.2234859e-36 -6e-45 1.531101e-35 -1.211029e-35
1.45254e-40 1.5327868e-35 1.2091262e-35 -7.767028e-21 -1.5329248e-35 -1.7303116e-35 -6e-45 6e-45
6e-45 6e-45 -6e-45 -6e-45 -6e-45 6e-45 -6e-45 -6e-45
-6e-45 6e-45 6e-45 6e-45 6e-45 6e-45 -6e-45 -6e-45
-6e-45 -6e-45 -6e-45 6e-45 6e-45 6e-45 6e-45 6e-45
00000000: eed7 bf8f 40c3 0700 e16e 0200 3e42 0000
00000010: 1e54 338b a08d 7711 84c3 0c80 910e 1828
00000020: a08d 7791 0400 0080 52db 2791 123e 0100
00000030: 9d14 460f d47d 0d8f 0b86 9e8c b8d5 320f
00000040: 7915 0d0f 8046 6529 7318 338f 1d8b 468f
00000050: 09ec 8d10 9def 008f dd52 0381 e932 4081
00000060: 70f5 9f85 dc73 eca1 2467 4f0f 0936 ce25
00000070: dc73 ec21 2c08 1284 0400 0000 0400 0080
00000080: 0400 0080 0400 0080 0400 0000 0400 0080
00000090: 0400 0000 a2f4 1004 0400 0000 0400 0000
000000a0: 0400 0080 0400 0000 0400 0000 0400 0000
000000b0: 0400 0080 0300 0000 0400 0080 8454 dc87
000000c0: 0400 0000 0400 0080 0400 0080 0400 0000
000000d0: 0400 0000 0400 0000 0400 0000 0400 0000
000000e0: 0400 0080 0400 0000 0400 0080 0400 0080
000000f0: c7de 2791 8a3e 0100 e42a 1100 73d3 0100
00000100: 4530 9e8c 0400 0080 0400 0080 851c 6d29
00000110: 0400 0000 0400 0080 f801 0080 0200 0080
00000120: 0400 0080 0400 0080 0400 0000 0400 0000
00000130: 0400 0080 2726 b514 0400 0000 0400 0080
00000140: 0400 0080 0400 0000 0400 0000 0400 0080
00000150: 0000 0000 0400 0000 0400 0000 0400 0000
00000160: 0400 0080 0400 0080 5804 3317 a4ba 8096
00000170: 1601 0080 74b9 1a8a 6f00 0000 267b 30a8
00000180: ed1b 9816 9ce7 14a9 267b 3028 67f9 100a
00000190: e557 1c87 906a 0200 89ee 428b 8ff5 180b
000001a0: 9c00 9382 a2a6 9d10 2db4 188b 5153 631f
000001b0: a0a6 9d90 1114 978a 1854 1e83 0400 0080
000001c0: 0400 0000 0400 0000 6a7f 0780 0400 0080
000001d0: 0400 0080 85f8 261b 0400 0000 0400 0000
000001e0: 8b17 5889 e5c7 bc07 606d d083 4486 a503
000001f0: d700 0000 fc35 b51a 377b 1a88 dd6c b19f
00000200: fc35 b59a 4fdb 2e00 b30d 8a08 49e1 1080
00000210: 0300 0080 0400 0080 5359 a380 0ced 0080
00000220: 0400 0000 9572 80a3 0ced 0000 0400 0000
00000230: 0800 0080 0400 0000 0400 0000 0400 0000
00000240: 0400 0080 0400 0000 0400 0080 fb6a 8e11
00000250: 0400 0080 0400 0080 f09a 0193 a36d 1e12
00000260: 0400 0000 bb0b b305 0000 0080 9543 1324
00000270: 81a8 4092 2b57 5c25 9543 13a4 640e b485
00000280: 0400 0080 0400 0000 0400 0000 0400 0000
00000290: 0400 0080 0400 0000 0400 0080 0400 0000
000002a0: 0400 0080 0400 0080 ec05 0000 0400 0080
000002b0: 0400 0000 0400 0000 0300 0000 0400 0080
000002c0: 0400 0000 19c5 8194 0400 0000 0400 0000
000002d0: 0400 0000 0400 0080 2564 4a84 b1ed 1904
000002e0: 0400 0080 8b83 4284 759c 1984 0400 0080
000002f0: ddd7 4204 d9c4 d000 f0bf 5417 5dfc 9896
00000300: d200 0080 24e1 378a 3100 0000 85bc 51a8
00000310: 7bc5 b416 e68e aca8 85bc 5128 c64a 2c0a
00000320: 0400 0000 0400 0080 0400 0080 0400 0080
00000330: 0400 0000 0400 0000 0400 0080 0400 0080
00000340: 0400 0000 0400 0080 0400 0000 0400 0080
00000350: 0400 0080 0400 0080 0400 0000 0400 0080
00000360: 0400 0080 2302 0000 0400 0000 0400 0080
00000370: 542a d003 0400 0080 89d0 a205 58c7 8085
00000380: e994 0100 6dfe a205 8c93 8005 0bb7 129e
00000390: 2f02 a385 90ff b785 0400 0080 0400 0000
000003a0: 0400 0000 0400 0000 0400 0080 0400 0080
000003b0: 0400 0080 0400 0000 0400 0080 0400 0080
000003c0: 0400 0080 0400 0000 0400 0000 0400 0000
000003d0: 0400 0000 0400 0000 0400 0080 0400 0080
000003e0: 0400 0080 0400 0080 0400 0080 0400 0000
000003f0: 0400 0000 0400 0000 0400 0000 0400 0000

exp_avg_sq f4 [40, 10]
8.3004545e-27 2.2146955e-28 1.2441565e-25 1.0462408e-26 3.8023115e-27 2.393802e-25 2.6471004e-25 2.7384683e-25
2.696777e-25 8.9907995e-27 5.5151497e-26 2.7627533e-26 8.523639e-27 2.6779505e-27 1.2866384e-25 7.888276e-27
2.674791e-26 1.134365e-25 7.5601255e-27 2.9084554e-27 5.0395014e-28 5.532534e-29 3.7642088e-25 4.1976364e-25
2.3295468e-26 6.3034966e-25 5.334457e-25 5.9143067e-25 7.0681908e-25 3.1970859e-27 9.835182e-28 5.884262e-30
7.157302e-27 1.2837617e-26 7.476185e-25 7.263592e-27 7.248769e-27 2.3349136e-25 7.886689e-27 1.3817883e-27
6.9273806e-25 8.947031e-26 1.8505384e-25 9.780614e-26 1.3414618e-23 4.2968076e-26 7.758031e-26 8.818817e-25
3.9808864e-26 3.9099758e-26 1.8892186e-28 1.3303217e-28 3.0207743e-26 2.2837073e-26 2.121607e-24 3.4189956e-25
1.824353e-27 1.9176434e-23 8.0781803e-26 3.6086477e-28 3.9124773e-29 8.4273105e-30 1.4761376e-26 7.79526e-27
4.768266e-29 3.1023977e-27 8.834245e-28 1.4412515e-26 3.1804957e-27 1.488477e-27 2.7631502e-26 5.685152e-27
2.7501054e-25 6.636529e-26 2.4034347e-24 2.0838052e-25 2.8014253e-26 4.147005e-25 2.116769e-25 1.2113885e-25
1.345562e-28 9.1800787e-29 8.975007e-27 7.710225e-27 1.1195241e-26 9.043686e-28 1.0598286e-27 7.706805e-27
1.1001675e-27 1.7770853e-28 5.6371453e-27 7.966597e-27 5.1704643e-26 9.391944e-27 4.5195496e-26 1.7296669e-27
1.0373172e-26 3.0688348e-25 1.4590233e-27 4.593087e-27 2.5004228e-25 3.296774e-29 3.076207e-26 4.286325e-27
5.727271e-27 9.210747e-27 1.6095471e-26 2.8316364e-25 1.04853535e-26 4.9916358e-29 1.7520582e-28 2.0565523e-28
6.21273e-28 1.073713e-27 1.6087251e-28 1.3639593e-27 1.2358527e-27 1.1278438e-27 1.867043e-27 3.3279732e-28
1.414643e-28 1.7226948e-29 2.0004456e-25 1.214251e-25 1.0256171e-26 1.7637154e-25 1.559751e-25 1.8410391e-25
1.9542936e-25 3.202946e-28 3.69719e-29 2.2370355e-30 4.887391e-27 1.4533922e-27 1.1107585e-28 1.6448998e-27
1.9027003e-27 8.255111e-27 1.814867e-27 1.7980037e-29 7.9964196e-29 7.9628946e-29 5.9903266e-27 1.738954e-28
4.729414e-26 2.511239e-28 4.846555e-28 7.1437445e-24 3.2063498e-28 2.0078408e-26 1.0674416e-28 1.2357988e-28
3.5341977e-28 3.531267e-28 1.1046411e-28 3.1398087e-28 2.9848857e-28 3.8407973e-27 4.654385e-28 9.277074e-29
8.29529e-30 3.724255e-30 6.185875e-27 1.3045435e-27 4.6080853e-29 2.0402404e-27 3.2416048e-26 3.8108893e-26
2.051943e-27 1.1756321e-27 1.3810499e-26 3.0450447e-26 6.218797e-25 3.5882827e-25 5.5153987e-24 4.1640938e-24
6.052367e-24 1.1379623e-19 3.800003e-24 3.8693714e-24 2.3704934e-29 2.4228808e-29 1.2967779e-28 1.8059178e-28
9.550183e-29 1.5632328e-28 1.3478447e-28 6.744515e-26 2.195122e-28 5.266231e-29 9.956552e-29 3.9962544e-29
3.8585317e-27 5.2212553e-28 2.3766442e-29 4.2084294e-28 2.2586606e-28 3.6227457e-26 4.7562044e-28 4.8175145e-29
7.046285e-24 1.8563556e-24 1.2670216e-24 9.1888595e-26 8.328318e-25 1.087515e-24 1.6636398e-24 1.0644437e-23
1.1380097e-24 1.4379232e-25 4.997126e-27 4.187315e-27 1.1085692e-26 2.1454479e-26 3.2686047e-27 2.4072377e-26
2.2518031e-26 2.296808e-26 3.273086e-26 5.891685e-27 5.868133e-27 3.9114466e-27 4.8893256e-24 4.8366553e-24
2.8461263e-26 7.3089176e-25 7.7805874e-25 2.7516013e-24 7.944422e-25 7.388883e-27 6.264133e-28 4.2705215e-29
5.211788e-28 5.5840187e-28 8.557367e-28 9.07348e-28 7.938767e-28 1.7372753e-27 8.986609e-28 1.3985949e-28
1.419433e-26 4.506471e-28 1.2239359e-26 2.2984262e-27 3.7719256e-25 4.623335e-27 3.928204e-27 1.9484542e-26
2.4053442e-27 1.3063386e-27 3.8876236e-27 3.497427e-27 8.38991e-27 2.206432e-26 2.0807732e-26 1.8878874e-26
00000000: 4e68 2414 7d5f 8c11 e504 1a16 b63a 4f14
00000010: 05a0 9613 4f2b 9416 fbd8 a316 c380 a916
00000020: 23ec a616 c514 3214 6a8c 8815 0fce 0815
00000030: fcd3 2814 4a2b 5413 3347 1f16 503e 1c14
00000040: 0173 0415 766d 0c16 64be 1514 7c6e 6613
00000050: 4bb5 1f12 3344 8c10 45fe e816 1ae9 0117
00000060: 07b5 e614 7215 4317 ec17 2517 f709 3717
00000070: fabf 5a17 9b4c 7d13 3dd8 9b12 acb1 ee0e
00000080: d5c3 0d14 7446 7e14 7160 6717 c9de 0f14
00000090: a093 0f14 2f86 9016 4436 1c14 fef3 da12
000000a0: 5d64 5617 8c84 dd15 e715 6516 0228 f215
000000b0: fcbc 8119 82c4 5415 5d14 c015 ef76 8817
000000c0: bb1f 4515 d59c 4115 a67c 6f11 68a3 2811
000000d0: dd94 1515 dc2a e214 c226 2418 26a0 d316
000000e0: 468a 1013 8d76 b919 8d01 c815 a8b9 e411
000000f0: dc62 4610 19ed 2a0f 8930 9214 aa66 1a14
00000100: a2c7 7110 1acc 7513 f5fb 8b12 11bc 8e14
00000110: 1efc 7b13 cddb eb12 17d3 0815 4a36 e113
00000120: 2939 aa16 0050 a415 eef4 3918 36fb 8016
00000130: 49b8 0a15 f557 0017 8b05 8316 6ff6 1516
00000140: fc91 2a11 1ebe e810 b1c4 3114 7cb7 1814
00000150: 9ebe 5d14 8c4d 8f12 c1ef a712 25a6 1814
00000160: 1954 ae12 b745 6111 724f df13 72cb 1d14
00000170: b603 8015 d006 3a14 19cc 5f15 d009 0913
00000180: 3b76 4d14 a1f3 bd16 0431 e712 70f3 b513
00000190: c8c4 9a16 932a 2710 8e53 1815 80cc a913
000001a0: 6ee1 e213 0970 3614 de66 9f14 1245 af16
000001b0: 0faf 4f14 231b 7d10 8a19 5e11 7859 8211
000001c0: a7e3 4412 f922 aa12 1dee 4b11 c320 d812
000001d0: 24d4 c312 c8b6 b212 22ec 1313 74ef d211
000001e0: ca53 3311 b7b3 ae0f a7a4 7716 2651 1616
000001f0: f724 4b14 5f56 5a16 7b16 4116 dce8 6316
00000200: 09ee 7116 c502 cb11 4578 3b10 697d 350e
00000210: 089c c113 984c e612 2dce 0c11 8852 0213
00000220: 59bf 1613 6382 2314 e0c9 0f13 d856 b60f
00000230: bbbb ca10 24e2 c910 214d ed13 4970 5c11
00000240: 7230 6a15 2f2b 9f11 ed97 1912 1c2e 0a19
00000250: 003a cb11 d0d8 c614 7650 0711 f7a7 1c11
00000260: a301 e011 15d2 df11 a707 0c11 4f02 c711
00000270: 8a30 bd11 5026 9813 db80 1312 a733 eb10
00000280: 9c3f 280f e012 970e 3a0c f513 92b6 ce12
00000290: 5ea8 6910 fea4 2113 3984 2015 c3b4 3c15
000002a0: 5992 2213 4e49 ba12 c6c5 8814 87c8 1615
000002b0: 6376 4017 9c1a de16 dd5d d518 3017 a118
000002c0: bd23 ea18 cd58 0620 6801 9318 66b0 9518
000002d0: 8765 f00f 95b5 f50f d962 2411 62ed 6411
000002e0: 3b20 f210 ce29 4611 10dc 2a11 71fc a615
000002f0: e421 8b11 cb83 8510 b86d fc10 59a2 4a10
00000300: 29da 9813 db77 2512 3605 f10f d65e 0512
00000310: dd28 8f11 c263 3315 eaba 1612 ea46 7410
00000320: 834b 0819 e9a0 0f18 e60f c417 5181 e315
00000330: dedf 8017 e848 a817 c8b7 0018 b3e4 4d19
00000340: 3519 b017 9b01 3216 e1f4 c513 6be0 a513
00000350: 2393 5b14 9179 d414 977b 8113 ba66 ee14
00000360: fe01 df14 0077 e314 4b13 2215 c964 e913
00000370: f075 e813 c8f2 9a13 8925 bd18 ea1b bb18
00000380: f0ee 0c15 3633 6217 2acc 7017 14e5 5418
00000390: 32de 7517 165a 1214 af84 4612 8a8a 5810
000003a0: 0c2b 2512 f1f6 3012 ce98 8712 68c6 8f12
000003b0: ee96 7b12 21a4 0913 0466 8e12 004b 3111
000003c0: e792 8c14 d6d0 0e12 ec6c 7214 9f19 3613
000003d0: 8c78 e916 3026 b713 b99c 9b13 2ff7 c014
000003e0: 2d92 3e13 64ff ce12 3001 9a13 208c 8a13
000003f0: e62d 2614 b283 da14 de11 ce14 a2f7 ba14

exp_avg f4 [40]
1.0530796e-14 6.571609e-14 3.5878714e-16 2.2367439e-36 -3.3757314e-34 6e-45 6.741835e-14 1.8912624e-26
6e-45 -3.618057e-14 6.121777e-20 1.6480719e-22 -7.6030235e-20 -1.4134502e-17 2.2815375e-28 2.0178984e-16
6e-45 -1.3098764e-26 -2.3758354e-36 -2.2848692e-14 -6e-45 7.79e-43 -7.788844e-21 6e-45
-6e-45 -6e-45 -6e-45 6.1250563e-25 6e-45 6e-45 2.7773291e-13 6.5715804e-14
3.8931796e-27 3.835519e-21 -1.3198772e-19 6e-45 6.5530914e-14 -2.6832102e-36 -4.1317408e-30 -1.71026e-21
00000000: bab4 3d28 bffa 9329 a3d3 ce25 f847 3e04
00000010: 185b e087 0400 0000 08d0 9729 334d bb14
00000020: 0400 0000 5bf1 22a9 df8b 901f 5b3d 471b
00000030: 7585 b39f 265e 82a3 109c 9011 d9a5 6825
00000040: 0400 0000 50b9 8194 1d1d 4a84 7fcd cda8
00000050: 0400 0080 2c02 0000 8a20 139e 0400 0000
00000060: 0400 0080 0400 0080 0400 0080 b28f 3d17
00000070: 0400 0000 0400 0000 8859 9c2a 95fa 9329
00000080: 8839 9a13 dde6 901d d7d2 1ba0 0400 0000
00000090: 0090 9329 2543 6484 739a a78e 3d39 019d

exp_avg_sq f4 [40]
1.1881032e-24 7.2432567e-25 2.893611e-24 1.160865e-23 7.740044e-23 2.8498395e-23 2.3547986e-25 2.5284104e-23
3.721064e-25 1.3312965e-24 4.287195e-25 5.9157346e-27 7.396832e-25 1.8288979e-26 7.7693325e-24 6.740077e-27
4.514859e-26 1.1606069e-19 6.9666716e-26 4.5681958e-26 2.2255825e-23 2.276542e-25 3.190759e-23 2.1917531e-25
2.6563051e-21 1.3577305e-24 1.2653082e-23 5.3491474e-22 6.7641185e-22 1.681103e-20 3.0372019e-24 7.370622e-24
4.5762115e-21 3.629095e-22 1.5500148e-20 7.107968e-20 5.116758e-22 7.5433096e-22 2.307751e-15 6.805805e-23
00000000: 9ed9 b717 fe2a 6017 dfe1 5f18 408b 6019
00000010: 8d24 bb1a 4ecf 091a 46c1 9116 6988 f419
00000020: 9d52 e616 1602 ce17 a9ae 0417 ad58 ea13
00000030: beeb 6417 1220 b514 df47 1619 4080 0514
00000040: a390 5f15 3105 0920 877c ac15 c334 6215
00000050: c13e d719 3fe9 8c16 af4b 1a1a b7a9 8716
00000060: 6ab4 481d 3f19 d217 07bf 7419 06ab 211c
00000070: d56e 4c1c 94c6 9e1e fbfd 6a18 8d91 0e19
00000080: 67e2 ac1d 865d db1b 0f65 921e 08d5 a71f
00000090: ffa4 1a1c 88fb 631c 7e4a 2627 e48d a41a

exp_avg f4 [40]
1.0530796e-14 6.571609e-14 3.5878714e-16 2.2367439e-36 -3.3757314e-34 6e-45 6.741835e-14 1.8912624e-26
6e-45 -3.618057e-14 6.121777e-20 1.6480719e-22 -7.6030235e-20 -1.4134502e-17 2.2815375e-28 2.0178984e-16
6e-45 -1.3098764e-26 -2.3758354e-36 -2.2848692e-14 -6e-45 7.79e-43 -7.788844e-21 6e-45
-6e-45 -6e-45 -6e-45 6.1250563e-25 6e-45 6e-45 2.7773291e-13 6.5715804e-14
3.8931796e-27 3.835519e-21 -1.3198772e-19 6e-45 6.5530914e-14 -2.6832102e-36 -4.13174e-30 -1.71026e-21
00000000: bab4 3d28 bffa 9329 a3d3 ce25 f847 3e04
00000010: 185b e087 0400 0000 08d0 9729 334d bb14
00000020: 0400 0000 5bf1 22a9 df8b 901f 5b3d 471b
00000030: 7585 b39f 265e 82a3 109c 9011 d9a5 6825
00000040: 0400 0000 50b9 8194 1d1d 4a84 7fcd cda8
00000050: 0400 0080 2c02 0000 8a20 139e 0400 0000
00000060: 0400 0080 0400 0080 0400 0080 b28f 3d17
00000070: 0400 0000 0400 0000 8859 9c2a 95fa 9329
00000080: 8839 9a13 dde6 901d d7d2 1ba0 0400 0000
00000090: 0090 9329 2543 6484 719a a78e 3d39 019d

exp_avg_sq f4 [40]
1.1881032e-24 7.2432577e-25 2.893611e-24 1.160865e-23 7.740044e-23 2.84984e-23 2.3547986e-25 2.5284104e-23
3.721064e-25 1.3312965e-24 4.287195e-25 5.9157346e-27 7.396832e-25 1.828884e-26 7.7693325e-24 6.740077e-27
4.514859e-26 1.1606069e-19 6.9666716e-26 4.5681958e-26 2.2255825e-23 2.276542e-25 3.190759e-23 2.1917531e-25
2.6563051e-21 1.3577305e-24 1.2653082e-23 5.3491474e-22 6.7641185e-22 1.681103e-20 3.037202e-24 7.370622e-24
4.5762115e-21 3.629095e-22 1.5500148e-20 7.107968e-20 5.116758e-22 7.5433096e-22 2.307751e-15 6.805805e-23
00000000: 9ed9 b717 002b 6017 dfe1 5f18 408b 6019
00000010: 8d24 bb1a 4fcf 091a 46c1 9116 6988 f419
00000020: 9d52 e616 1602 ce17 a9ae 0417 ad58 ea13
00000030: beeb 6417 b81f b514 df47 1619 4080 0514
00000040: a390 5f15 3105 0920 877c ac15 c334 6215
00000050: c13e d719 3fe9 8c16 af4b 1a1a b7a9 8716
00000060: 6ab4 481d 3f19 d217 07bf 7419 06ab 211c
00000070: d56e 4c1c 94c6 9e1e fcfd 6a18 8d91 0e19
00000080: 67e2 ac1d 865d db1b 0f65 921e 08d5 a71f
00000090: ffa4 1a1c 88fb 631c 7e4a 2627 e48d a41a

exp_avg f4 [5, 10]
-2.6811198e-13 9.592228e-14 2.7425489e-11 -2.1172064e-11 7.0116045e-21 0.0045865513 2.1019067e-11 -0.029978754
-0.0045865513 -1.547525e-11 2.6811807e-13 -9.592227e-14 1.0272655e-28 -3.439631e-21 -1.9960138e-20 -0.0045865513
1.1337599e-13 0.028443517 0.0045865513 3.2198569e-21 3.6952586e-18 1.5438003e-22 1.9190295e-20 -1.4816207e-20
1.9488422e-20 9.929575e-12 1.4602198e-20 0.00038554077 -9.929575e-12 -1.8053887e-20 -5.6901357e-18 2.7942387e-22
2.455901e-16 -1.8926557e-16 -6.2824626e-21 1.859238e-11 1.8890697e-16 0.0001893195 -1.8592381e-11 -1.8003984e-16
-4.102194e-18 4.947784e-22 1.01596126e-25 -7.820045e-26 -2.5741998e-22 3.2100884e-11 -6.0043584e-22 0.00096037355
-3.2100884e-11 -6.00247e-26
00000000: 02ef 96aa 6eff d729 b63c f12d 403b baad
00000010: 0a72 041e c84a 963b bbe2 b82d 0196 f5bc
00000020: c84a 96bb 2a1f 88ad e3ef 962a 6dff d7a9
00000030: ac38 0211 12f2 819d a784 bc9e c84a 96bb
00000040: cf4c ff29 6102 e93c c84a 963b 1749 731d
00000050: bb54 8822 4ea2 3a1b 493f b51e 64ef 8b9e
00000060: 1d10 b81e d5ae 2e2d f3e9 891e 6822 ca39
00000070: d5ae 2ead 9f83 aa9e d0ed d1a2 c0e6 a81b
00000080: b492 8d25 5635 5aa5 4058 ed9d 518a a32d
00000090: 7fcb 5925 1184 4639 528a a3ad 6292 4fa5
000000a0: 2058 97a2 a089 151c 328a fb15 6c9d c195
000000b0: d099 9b9b 622e 0d2e 7978 359c 94c1 7b3a
000000c0: 622e 0dae 2c9d 9495
