results/baseline_lstm_task7_seed42/model_lstm_ntask7_nchar5_seed42.pt (torch, 21247 bytes, 21 tensors)

embedding.weight f4 [5, 10]
0	0xc05b758e	-3.42905
1	0xc090de45	-4.5271325
2	0x3f1f4782	0.6221849
3	0xbefa92f6	-0.48940247
4	0xbfe94862	-1.8225214
5	0x40c574e6	6.17052
6	0xc09fc03a	-4.992215
7	0x4082f7eb	4.0927634
8	0x4032f275	2.7960484
9	0xc083b54b	-4.1158805
10	0x4028b9e2	2.6363454
11	0xc0393d98	-2.8943844
12	0x3f57934f	0.8420915
13	0xc04908af	-3.141155
14	0x406c66fd	3.693786
15	0x402eaf73	2.7294586
16	0x3f8ab62b	1.0836843
17	0x3ebd385e	0.36957067
18	0x4018f146	2.3897262
19	0xc042d9cf	-3.044544
20	0x407b2865	3.9243405
21	0x409004bb	4.5005774
22	0xc07c2d64	-3.9402704
23	0x4061346a	3.518824
24	0x402a2781	2.6586611
25	0xc0b25809	-5.5732465
26	0x40c2610c	6.0743465
27	0xc017f8f6	-2.3745704
28	0xc08d7f27	-4.4217715
29	0x40551c44	3.3298502
30	0xbfa6963d	-1.3014599
31	0x40028a8b	2.039706
32	0xc0014413	-2.01978
33	0x4049bd5b	3.1521823
34	0xc088ec02	-4.2788095
35	0xc06bfa95	-3.6871693
36	0x403dc753	2.9652908
37	0xbf3bed34	-0.7340882
38	0xc090f843	-4.5303054
39	0x40b9fcf5	5.8121285
40	0xbcfd1347	-0.030892981
41	0xbdb32048	-0.087463915
42	0x3dc0ef20	0.094206095
43	0x3dbd059b	0.09229585
44	0x3d6ccb57	0.057811107
45	0xbd0d608a	-0.034515895
46	0x3d34d877	0.04415175
47	0x3d88143b	0.06644484
48	0x3d6bd1c0	0.05757308
49	0x3d84460d	0.064586736

lstm.weight_ih_l0 f4 [40, 10]
0	0x4002e521	2.045235
1	0x3f886299	1.065509
2	0x3d840fd2	0.0644833
3	0xbf05cab5	-0.5226243
4	0x40a8315c	5.2560253
5	0x3f1465e8	0.57967997
6	0x40101ce6	2.2517638
7	0x3eece8f7	0.46271488
8	0x3c9cbd4c	0.019133233
9	0xc03fd7fd	-2.9975579
10	0x40923d3d	4.5699754
11	0x3fc07a39	1.5037299
12	0xbfcd37ad	-1.6032616
13	0x3fd47e87	1.6601113
14	0x3f84a63b	1.036323
15	0xc09fdec7	-4.9959445
16	0x40a80b3a	5.2513704
17	0xc08348e4	-4.102648
18	0xbffd2da6	-1.9779556
19	0x4047fecc	3.1249266
20	0xc0c29460	-6.080612
21	0x406c95ff	3.696655
22	0x3ffc8466	1.9727905
23	0x3f89f1f4	1.0776963
24	0xc0bc35c3	-5.8815627
25	0x40b6f924	5.7179127
26	0xc0c96121	-6.2931066
27	0x4088cf74	4.275324
28	0xbc1f68cd	-0.009729576
29	0xc0aa4dd8	-5.3220024
30	0x3f8fee6c	1.1244636
31	0xc0359007	-2.8369157
32	0xbf2395ca	-0.63900435
33	0xc043114d	-3.047931
34	0xbf03eb65	-0.5153106
35	0xbf830ba7	-1.0237931
36	0x408fbea9	4.492024
37	0x3eb79648	0.35856843
38	0x400efc15	2.2341359
39	0x400dc4e1	2.2151415
40	0x408ff053	4.4980865
41	0xc016fe41	-2.3592684
42	0xbee5f21d	-0.4491128
43	0xbf4e1db0	-0.8051405
44	0x40dd228e	6.910468
45	0xc047df29	-3.1229956
46	0x4084fe4a	4.156041
47	0x3eb8a5ad	0.360639
48	0x3f445f33	0.7670776
49	0x402dcbf7	2.715574
50	0xbfe07b82	-1.7537692
51	0xbf3e270b	-0.74278325
52	0x3fc6add5	1.5521799
53	0x3e53d22d	0.20685644
54	0xbd694969	-0.056954775
55	0x40892f88	4.287052
56	0xc04206c5	-3.0316632
57	0xbd5de677	-0.054174867
58	0x3f90c089	1.1308757
59	0xbfa3dea8	-1.2802324
60	0xc0ab26ba	-5.3484774
61	0xbef7ce33	-0.48399505
62	0x3e9c7ecc	0.30565488
63	0x3f4cf7bf	0.8006553
64	0xc108d891	-8.552873
65	0x3f87e375	1.0616289
66	0xbf7231f5	-0.9460748
67	0x3fde86e6	1.7384918
68	0xbf387443	-0.720524
69	0x40061dc9	2.095568
70	0xbf927ac8	-1.144372
71	0xc023f6cb	-2.561938
72	0x3fd79d3e	1.6844862
73	0xc012034d	-2.2814515
74	0x3fa173e9	1.2613498
75	0x3fde3e37	1.7362736
76	0xbfbbd635	-1.4674746
77	0xbf00a44b	-0.5025069
78	0x40127f11	2.2890055
79	0xbee03305	-0.43788925
80	0xbfb879df	-1.4412192
81	0x4009dcd9	2.1541045
82	0xc0481fb2	-3.1269345
83	0x4081f7ec	4.061514
84	0xc002e1a5	-2.0450222
85	0x3e9e5c8b	0.3092998
86	0xbeb09639	-0.3448961
87	0xbfe4d112	-1.7876303
88	0xc04cfebd	-3.203048
89	0x40149033	2.3213012
90	0x3fc1962b	1.5123953
91	0x40874da1	4.228226
92	0xc00f8408	-2.2424335
93	0x4031302e	2.7685657
94	0x3f54e6e9	0.8316484
95	0xc0817918	-4.046032
96	0x40299d78	2.6502361
97	0xc0389597	-2.8841302
98	0xc087ac96	-4.2398176
99	0x40834c1a	4.1030397
100	0xc0ed8acc	-7.423193
101	0x3f07973b	0.52965134
102	0xc0b4395a	-5.632001
103	0x3fc7bed4	1.5605111
104	0xc083107e	-4.095763
105	0xbfc06adc	-1.5032611
106	0x3fe698f3	1.8015426
107	0xc0310e02	-2.76648
108	0xbfda58c7	-1.7058343
109	0x408a9220	4.3303375
110	0xc08bca45	-4.368441
111	0xc0b7b209	-5.740483
112	0x40a0935b	5.0179877
113	0xc071cb07	-3.7780168
114	0x40490ce7	3.1414125
115	0x40700e1b	3.750861
116	0xc048c40f	-3.1369665
117	0xbf871a38	-1.0554876
118	0x408fbebd	4.4920335
119	0xc04a1cbe	-3.1580043
120	0xbe11fec0	-0.14257336
121	0x3fb73894	1.4314141
122	0xc00230f9	-2.034239
123	0x3fadd7d0	1.3581486
124	0xbf3e7532	-0.74397576
125	0xbfee737e	-1.8628995
126	0x3f15f7c1	0.5858117
127	0xbf3c0466	-0.7344421
128	0xbff7b831	-1.9353086
129	0x3fdf46fc	1.7443538
130	0xc00cf237	-2.2022836
131	0x40be036a	5.9379168
132	0xbe031d8c	-0.1280424
133	0x40b8f8a5	5.780352
134	0xbfceb7ab	-1.6149801
135	0x3fe80a13	1.8128074
136	0xc0a83a2c	-5.257101
137	0x400da9c5	2.213487
138	0x3e2edff9	0.17077626
139	0xc08185a8	-4.0475655
140	0x3f096ff8	0.53686476
141	0x3ff12e91	1.8842336
142	0xc04279ed	-3.0386918
143	0x4046c87d	3.1059868
144	0x3fcd6a0f	1.6047992
145	0xc03ca905	-2.9478161
146	0x403768ae	2.8657641
147	0xc015b1c0	-2.338974
148	0xc02bf056	-2.686544
149	0x4086a97f	4.2081904
150	0xc0768840	-3.852066
151	0xc0596fae	-3.3974414
152	0xbf131466	-0.57453
153	0xbfa3dd58	-1.2801924
154	0xc03d573e	-2.9584498
155	0x3f516678	0.8179698
156	0x3ee20eb8	0.44151855
157	0x40232c49	2.549578
158	0x3f663ae5	0.89933616
159	0x3fe840e8	1.8144808
160	0x3f3a9f1d	0.7289904
161	0x4011bd57	2.2771814
162	0x3f22fe29	0.6366907
163	0x3fd2a7d9	1.6457473
164	0x3e5af401	0.21382143
165	0xbfe5a413	-1.7940696
166	0x3f3ce6df	0.7378978
167	0xbf8f8b38	-1.1214361
168	0xbfbb7d0f	-1.464754
169	0x3fa598da	1.2937272
170	0x3e296f72	0.1654642
171	0x3fe40bbf	1.7816085
172	0xbfc20f8e	-1.5160997
173	0x3fda1b36	1.7039554
174	0xbf86fc19	-1.0545684
175	0xbebfbb38	-0.37447524
176	0x3ed8451e	0.42240232
177	0xc0773079	-3.8623335
178	0xbffa322b	-1.954656
179	0x4005aa4a	2.0885186
180	0x401fcc33	2.4968383
181	0x404c10a0	3.1885147
182	0x3e9f5e1b	0.31126484
183	0x3ff00091	1.8750173
184	0x3dc7c6e8	0.09754735
185	0xbfd686c5	-1.6759878
186	0x3f0e1b63	0.5551054
187	0xbf398fdc	-0.72485137
188	0xc0222ae3	-2.5338676
189	0x3ff89b3c	1.9422374
190	0x3f2a598c	0.6654289
191	0xbffa5191	-1.9556142
192	0x3e15c269	0.14624943
193	0xc00fe194	-2.2481432
194	0x3fc1e7f9	1.5148917
195	0x3f13111f	0.57448
196	0xbe29a085	-0.1656514
197	0x3f6220d8	0.88331366
198	0x3ff6a7cd	1.9269959
199	0xbf1f326f	-0.6218633
200	0x3ebee1e7	0.37281725
201	0x3fe1d986	1.7644508
202	0xc02019ad	-2.5015671
203	0x3fd04ba6	1.6273086
204	0xbfc6bd76	-1.5526569
205	0xbf4e89ad	-0.80678827
206	0x3f75c111	0.9599772
207	0xbf3c7ff0	-0.7363272
208	0xc00468c2	-2.068894
209	0x3da364fd	0.07978246
210	0xc04cdbe8	-3.200922
211	0x3ecc5b88	0.39913583
212	0xbe7b5a9e	-0.24546286
213	0x3f1f5aa2	0.6224767
214	0xc0543a55	-3.3160603
215	0x40058488	2.086214
216	0xc00f8c2a	-2.24293
217	0x3fca1d6d	1.579023
218	0xbe636d5f	-0.2220969
219	0xc00f482f	-2.2387807
220	0x3fff3379	1.9937583
221	0x3e904952	0.2818094
222	0x3f487e47	0.78317684
223	0x3eb06b9f	0.34457108
224	0x40252aa4	2.5807276
225	0xbf5edc74	-0.87055135
226	0x3f71e18b	0.94484776
227	0xbf3203a9	-0.69536835
228	0xbe8e1665	-0.2775146
229	0xbf299d88	-0.66256
230	0x3fe34fcb	1.7758726
231	0x4072d6d6	3.7943625
232	0xc0552e20	-3.3309402
233	0x40237b55	2.5544026
234	0x3f958e3c	1.1684031
235	0xc0aec65a	-5.461713
236	0x40aa08fe	5.3135977
237	0xc094a762	-4.6454325
238	0xc06469fc	-3.5689688
239	0x409065c4	4.5124226
240	0xbfd16eeb	-1.6361974
241	0xc0c38f0a	-6.111211
242	0x40a24ca0	5.0718536
243	0xc0aa26d8	-5.3172417
244	0xbf066b30	-0.52507305
245	0x4060afcc	3.5107298
246	0xc043bc51	-3.058369
247	0x40685aa0	3.6305313
248	0x40af18b4	5.4717655
249	0xc06ba60b	-3.6820095
250	0xbe066741	-0.13125326
251	0xc0154fe3	-2.333001
252	0x4062999d	3.5406258
253	0xc0515450	-3.270771
254	0xbef2ae38	-0.47398543
255	0x3f90cf0f	1.1313189

lstm.weight_hh_l0 f4 [40, 10]
0	0x40ad46b9	5.414883
1	0x40cd217c	6.4103374
2	0xbeac3598	-0.3363464
3	0xc0a9e622	-5.3093424
4	0xc0ccf2b9	-6.404629
5	0xc09058f3	-4.510858
6	0xc0cec8e2	-6.462022
7	0x3f83d022	1.0297892
8	0x40c14776	6.0399733
9	0x3fe0478e	1.7521837
10	0xbe332be4	-0.17497212
11	0xbec2f188	-0.380749
12	0xbf30d436	-0.6907381
13	0x3f0b9602	0.5452577
14	0xbe600221	-0.21875812
15	0x3e4489d1	0.19193198
16	0x3f377249	0.7165876
17	0xbe4e6637	-0.2015618
18	0xbee92971	-0.4553943
19	0xc039b34c	-2.9015684
20	0xbf841dd8	-1.0321608
21	0xc01e60c0	-2.4746552
22	0x3f18c997	0.596826
23	0x3ff435e0	1.9078941
24	0x40186738	2.3813
25	0xbe4dfa52	-0.20115021
26	0x40354fb5	2.83299
27	0x3f4e9719	0.80699307
28	0xc01f030f	-2.4845617
29	0x409c67ad	4.8876557
30	0xc005c68b	-2.090243
31	0x3e9b2f38	0.30309463
32	0xbf9bb5a1	-1.2164804
33	0xbfb0cdd9	-1.381282
34	0xbdefce24	-0.1170924
35	0x3f83a67c	1.0285182
36	0x3eeb385a	0.4594143
37	0xbf0b3e6d	-0.5439213
38	0xbeb8f550	-0.3612466
39	0xbf08f680	-0.5350113
40	0xbf4adaaa	-0.79239905
41	0xbf7af81f	-0.9803485
42	0xbf4ea320	-0.8071766
43	0x3f8bfa77	1.0935811
44	0x3ebdf45d	0.37100497
45	0x3ec9def8	0.39427924
46	0xbbe02f43	-0.0068415715
47	0xc072700d	-3.788089
48	0xbf082624	-0.531832
49	0xc068403a	-3.62892
50	0xc01055c0	-2.2552338
51	0xc02eca7e	-2.7311091
52	0xbebfab05	-0.37435165
53	0xbddd0bcb	-0.10793265
54	0x4046d7fd	3.1069329
55	0xbea76651	-0.3269525
56	0x3f296fb4	0.6618607
57	0xbfa86232	-1.3154967
58	0xc0626f2d	-3.5380356
59	0x3e8625c9	0.26200703
60	0xbf49ec87	-0.7887654
61	0x3f2af892	0.6678554
62	0xbed759b9	-0.4206064
63	0xbf91bcc5	-1.1385733
64	0xbf00f4d2	-0.50373566
65	0xc0300af1	-2.7506678
66	0xbee206c0	-0.44145775
67	0x3fd1e2af	1.6397303
68	0x3f39d7d2	0.7259494
69	0xc088bbba	-4.272916
70	0x3ee58ffc	0.44836414
71	0x3f126cf9	0.5719753
72	0x40409518	3.0091
73	0xbf9c65b0	-1.2218533
74	0xbec5c9f0	-0.3863063
75	0x3f6cdc8d	0.92524034
76	0xbf48b93e	-0.7840766
77	0xbf1b113e	-0.60573184
78	0x3f31b02b	0.69409436
79	0xc030fcb7	-2.7654245
80	0x3ece53a9	0.40298203
81	0x3fe69952	1.801554
82	0xbf7462e9	-0.95463425
83	0xc0236a2f	-2.553356
84	0xbfac357a	-1.345382
85	0x3f7583a1	0.95903975
86	0xbf666437	-0.89996666
87	0x3e55a3c7	0.20863257
88	0xbe9ba088	-0.30395913
89	0x3fedb9bc	1.8572307
90	0xbfde6559	-1.7374679
91	0xc100d83e	-8.0527935
92	0xc03cff18	-2.9530697
93	0x3fd81673	1.6881851
94	0x4104f779	8.310418
95	0x3ff8e37f	1.9444426
96	0x40b83278	5.7561607
97	0xbfa4cc95	-1.2874933
98	0xc0d7338c	-6.7250423
99	0x4026a060	2.6035385
100	0xc058dc37	-3.3884408
101	0xc02b634f	-2.6779363
102	0x410d17a9	8.818276
103	0x40c86d13	6.2633147
104	0x402ea476	2.728788
105	0xc0ae2880	-5.442444
106	0xc0c55eb8	-6.1678123
107	0x408ccd1e	4.4000387
108	0xc0126537	-2.2874277
109	0xbfa2bf18	-1.2714567
110	0xbd9b701a	-0.07589741
111	0xbf9edcdc	-1.2411151
112	0xbf1400b9	-0.578136
113	0x3f86aeea	1.052213
114	0x3f5bf7c1	0.8592492
115	0x3c0f5a06	0.008749491
116	0x3f60ff34	0.8788941
117	0xbe50d3ed	-0.20393343
118	0xbee49fa8	-0.44653058
119	0xbec26d40	-0.37973976
120	0x3eeaa3a7	0.45827982
121	0x3edb9d29	0.4289334
122	0xbf69b8c0	-0.9129753
123	0xbf900223	-1.1250652
124	0xbe3c9ef5	-0.18420012
125	0xbf339de8	-0.7016282
126	0xbf425513	-0.7591106
127	0xbc487f5c	-0.012237396
128	0x3f838daa	1.0277607
129	0x3f1db79e	0.616083
130	0x3f9675a0	1.1754646
131	0x3feb4522	1.8380473
132	0xc022e1ff	-2.5450437
133	0xc058a176	-3.3848548
134	0xbfe65f55	-1.7997843
135	0xbe0a619c	-0.13513798
136	0xbfc9d226	-1.5767257
137	0xbf078c91	-0.5294886
138	0x3fb2d8d3	1.397242
139	0x3f7c4f42	0.9855844
140	0xbf871e4a	-1.0556118
141	0xbf873033	-1.0561584
142	0x3e9e8d2a	0.30967075
143	0x3f95e6fb	1.1711115
144	0x3f4108fe	0.75404346
145	0x3f73e216	0.95266855
146	0x3f09a6f5	0.5377038
147	0xbea929f7	-0.3303983
148	0xbddccd06	-0.107812926
149	0xc01802dc	-2.3751745
150	0xc088f9c5	-4.2804894
151	0xc01f108a	-2.4853845
152	0xbffefd01	-1.9920961
153	0x3e9d47af	0.30718753
154	0x402ea17a	2.7286057
155	0x3f0a4fab	0.54027814
156	0x3fb76e50	1.433054
157	0xbf94f623	-1.1637615
158	0xc048456f	-3.129238
159	0xc090ee82	-4.5291147
160	0x3f2a1db8	0.664516
161	0x3ea4dc36	0.32199258
162	0xbf244d55	-0.641805
163	0xbf0c9339	-0.54912144
164	0xbec31f85	-0.38109985
165	0xbf7a8e86	-0.97873724
166	0xbf231fa6	-0.63720167
167	0x3fd86284	1.6905065
168	0x3f163e6f	0.58689016
169	0x3f6ca1db	0.9243447
170	0x3fa7c72e	1.310766
171	0x3f17e5f1	0.5933524
172	0xbe4626ef	-0.1935079
173	0xbf7dc680	-0.9913101
174	0xbf5455da	-0.829435
175	0xbfe4ce18	-1.7875395
176	0xbf374762	-0.71593297
177	0x3fe178e0	1.7615013
178	0x3f4a28ac	0.7896831
179	0x3fe7f7b2	1.8122466
180	0x3f6b3328	0.91874933
181	0x3f6c2a19	0.92251736
182	0xbdd5f6f8	-0.10447496
183	0xbf4dad45	-0.80342513
184	0xbf6ecef9	-0.93284565
185	0xbfae0f1c	-1.3598361
186	0xbed0621f	-0.4069986
187	0x3fe3ccca	1.7796872
188	0x3ee23aa2	0.44185358
189	0x3fd462bb	1.659263
190	0xbea5e7dd	-0.3240346
191	0xbeea7552	-0.45792633
192	0xbef0d11e	-0.47034544
193	0x3ebac0d1	0.36475232
194	0x3f5a1d3d	0.85200864
195	0xbcd19b69	-0.0255868
196	0x3f22019e	0.6328372
197	0x3db3ad02	0.08773233
198	0xbedbf868	-0.42962956
199	0xc02e1ed9	-2.7206328
200	0x3ff23880	1.8923492
201	0xbecb9270	-0.3976016
202	0xc01ec574	-2.4808016
203	0xc04dd779	-3.2162764
204	0x3ee60a03	0.44929513
205	0x3e596b8b	0.2123243
206	0x403ead9a	2.9793458
207	0xbf95563f	-1.1666945
208	0x3f2660ea	0.6499163
209	0x3ebaaa91	0.36458257
210	0x3f8f157e	1.1178434
211	0x3e03a04c	0.12854117
212	0xbe233796	-0.15939173
213	0xbf2dbae1	-0.6786328
214	0x3ebadfd1	0.36498883
215	0xbf68f55c	-0.9099939
216	0xbe3c7cba	-0.18406954
217	0x3e284873	0.16433887
218	0x3f17882c	0.59192157
219	0x3eab0f19	0.33409956
220	0xbe9b1fa3	-0.30297574
221	0xbf78de24	-0.9721396
222	0xbf4ddf1b	-0.80418557
223	0x3f03c0f0	0.51466274
224	0x3f62134a	0.8831068
225	0x3f1c11d0	0.6096468
226	0x3f583873	0.84461135
227	0xbf9fbdb1	-1.2479764
228	0xbf33a19e	-0.70168483
229	0x40088e8f	2.133701
230	0xc0045c66	-2.0681396
231	0xc00e1ec0	-2.2206268
232	0xbfed835c	-1.8555713
233	0xbf36354b	-0.7117507
234	0x3e5ea80b	0.21743791
235	0x3f9f966e	1.2467782
236	0x40150d34	2.3289309
237	0xbfe6966c	-1.8014655
238	0xbfcbb42e	-1.5914361
239	0x4022a493	2.5412948
240	0xbf629ede	-0.8852366
241	0xbef71577	-0.48258564
242	0xbe6ece0c	-0.23320788
243	0x3ef01007	0.46887228
244	0x3da98d48	0.082789004
245	0x3f15490b	0.5831458
246	0x3f24f120	0.6443043
247	0x3e23c8c0	0.15994549
248	0xbf1ff748	-0.62486696
249	0x4034311f	2.815498
250	0xc0548b2c	-3.3209944
251	0xc0368562	-2.851891
252	0x40402e21	3.0028155
253	0x3ffe406a	1.9863408
254	0x401afbc3	2.4216163
255	0xbfead9e5	-1.8347746

lstm.bias_ih_l0 f4 [40]
0	0xbfcab6f6	-1.5837085
1	0x4038870d	2.8832428
2	0xc0b015da	-5.5026674
3	0x406211cc	3.5323362
4	0x40cc77a5	6.389605
5	0x3ed0d8fa	0.4079054
6	0xc05eb46a	-3.4797616
7	0x3e9e1aef	0.30879924
8	0xbff08508	-1.8790598
9	0xc03ad74a	-2.9193902
10	0x3fed9606	1.8561409
11	0xbffba10c	-1.9658523
12	0x3dbc0653	0.09180894
13	0xc04b7879	-3.179228
14	0x408b0ae2	4.3450785
15	0x4037362b	2.8626812
16	0xbed982a3	-0.4248248
17	0xbf8e0a77	-1.1096944
18	0xbf95fd1d	-1.1717869
19	0x40089fcf	2.134754
20	0xbfaca6d0	-1.3488407
21	0xbf6eefd5	-0.93334705
22	0x3f2de7ce	0.6793183
23	0xbe0cf363	-0.1376472
24	0xbfe468a7	-1.7844437
25	0x403493f0	2.8215294
26	0xbde31f6a	-0.11089976
27	0xbf11b860	-0.5692196
28	0x3e5b72ad	0.21430464
29	0xc020c512	-2.5120282
30	0xbfd682cf	-1.675867
31	0xc08000a3	-4.0000777
32	0x3f75dbc5	0.96038467
33	0xc06429ea	-3.5650582
34	0xc05f213c	-3.4864035
35	0xc050f4de	-3.2649455
36	0xbe1361a6	-0.14392719
37	0xc0915e4c	-4.542761
38	0xbf4d4f2a	-0.8019892
39	0x40629669	3.5404303

lstm.bias_hh_l0 f4 [40]
0	0xbfcab6fa	-1.583709
1	0x4038870e	2.883243
2	0xc0b015d8	-5.5026665
3	0x406211cd	3.5323365
4	0x40cc77a5	6.389605
5	0x3ed0d8fa	0.4079054
6	0xc05eb46c	-3.479762
7	0x3e9e1aef	0.30879924
8	0xbff08508	-1.8790598
9	0xc03ad748	-2.9193897
10	0x3fed9606	1.8561409
11	0xbffba10c	-1.9658523
12	0x3dbc064a	0.09180887
13	0xc04b787a	-3.1792283
14	0x408b0ae2	4.3450785
15	0x4037362b	2.8626812
16	0xbed9829b	-0.42482457
17	0xbf8e0a77	-1.1096944
18	0xbf95fd1c	-1.1717868
19	0x40089fce	2.1347537
20	0xbfaca6d0	-1.3488407
21	0xbf6eefd4	-0.933347
22	0x3f2de7cc	0.6793182
23	0xbe0cf363	-0.1376472
24	0xbfe468a7	-1.7844437
25	0x403493f1	2.8215296
26	0xbde31f6f	-0.1108998
27	0xbf11b861	-0.56921965
28	0x3e5b72b7	0.21430479
29	0xc020c514	-2.5120287
30	0xbfd682d3	-1.6758674
31	0xc08000a3	-4.0000777
32	0x3f75dbc9	0.9603849
33	0xc06429e8	-3.5650578
34	0xc05f2138	-3.4864025
35	0xc050f4dc	-3.264945
36	0xbe13619a	-0.14392701
37	0xc0915e4a	-4.54276
38	0xbf4d4f2e	-0.80198944
39	0x4062966c	3.540431

output_proj.weight f4 [5, 10]
0	0x3f1d4486	0.61432683
1	0xbf5bcf9a	-0.8586365
2	0x3f968778	1.1760092
3	0xbfdb6331	-1.7139646
4	0x3f8060dc	1.0029559
5	0xc148a67d	-12.540647
6	0xbf77f4e6	-0.9685806
7	0xbd818f6b	-0.06326183
8	0x3f58fd36	0.8476137
9	0x3fe37c6f	1.7772349
10	0xbf141022	-0.57837117
11	0xbeb710d2	-0.3575502
12	0xbf64d584	-0.893883
13	0xbe839fb3	-0.25707778
14	0x3f11d0ec	0.56959414
15	0x410fd271	8.988877
16	0x3f89bc11	1.0760518
17	0xbd237ae4	-0.03991212
18	0xbf320b66	-0.6954864
19	0x3fd32e0c	1.6498427
20	0xc00beaa6	-2.1861968
21	0x412fe673	10.993762
22	0x40292160	2.642662
23	0xc06b70d7	-3.6787622
24	0xc001c1f7	-2.0274637
25	0xbfc0271d	-1.5011936
26	0x408761fa	4.23071
27	0xbeedd644	-0.46452534
28	0x413fce1c	11.98782
29	0x420359de	32.83776
30	0xbfe7a556	-1.8097332
31	0x40e5d285	7.181948
32	0x405856de	3.380302
33	0xc00a4cf7	-2.1609476
34	0xbfca1a07	-1.5789193
35	0xc016e1cf	-2.3575323
36	0x3fcdc282	1.6074984
37	0xbed02c27	-0.40658686
38	0x40f262ca	7.574559
39	0xc0ef9503	-7.48694
40	0x401a49cb	2.410754
41	0x40f60316	7.6878767
42	0x3fe65992	1.7996085
43	0x3e39d76f	0.18148588
44	0xc0b8d040	-5.775421
45	0xc0bf4b28	-5.9779243
46	0x40f83f51	7.757729
47	0xbee98414	-0.4560858
48	0x4144d2f8	12.301506
49	0xc0f6880b	-7.704107

output_proj.bias f4 [5]
0	0x402e508c	2.7236662
1	0x402566e4	2.584405
2	0x3f4c3bca	0.7977873
3	0xc0e05666	-7.0105467
4	0xc0e82285	-7.254214

exp_avg f4 [5, 10]
0	0xab70fff7	-8.562035e-13
1	0x2a090d3c	1.2172636e-13
2	0xab4ef384	-7.352385e-13
3	0x2a3daf84	1.6847466e-13
4	0xaa5be60c	-1.9530921e-13
5	0xaa15a583	-1.3291282e-13
6	0x2ace9a27	3.6699916e-13
7	0xaab1c905	-3.1581001e-13
8	0xaa6de39a	-2.1128794e-13
9	0x2ac60753	3.5176948e-13
10	0xa8854dde	-1.4799736e-14
11	0xa90d8a97	-3.1428497e-14
12	0xa8f20367	-2.6868873e-14
13	0xa8ce4b5e	-2.290328e-14
14	0xa80e007c	-7.8826885e-15
15	0x28ff2c40	2.8329878e-14
16	0xa88db7c5	-1.5733842e-14
17	0x289c8e66	1.7381235e-14
18	0x28957be9	1.659606e-14
19	0xa8bc1cfd	-2.0884765e-14
20	0x25bcef11	3.27748e-16
21	0x2627bdff	5.8197257e-16
22	0x25cd994e	3.5665715e-16
23	0x2616291b	5.209741e-16
24	0x255d7486	1.9208174e-16
25	0xa524cffa	-1.4295198e-16
26	0xa4b0df9d	-7.670665e-17
27	0x256608cb	1.9952299e-16
28	0x2351480d	1.134517e-17
29	0xa4c72967	-8.637263e-17
30	0x28cbff14	2.264815e-14
31	0xa90872a3	-3.0297498e-14
32	0x28526305	1.1678813e-14
33	0xa92c0f0a	-3.8204716e-14
34	0x292c7660	3.8294346e-14
35	0x28270f97	9.273743e-15
36	0xa7b67c25	-5.0649745e-15
37	0x28da004c	2.420299e-14
38	0x29422f4e	4.3117684e-14
39	0xa88bb841	-1.5512007e-14
40	0x00000000	0.0
41	0x00000000	0.0
42	0x00000000	0.0
43	0x00000000	0.0
44	0x00000000	0.0
45	0x00000000	0.0
46	0x00000000	0.0
47	0x00000000	0.0
48	0x00000000	0.0
49	0x00000000	0.0

exp_avg_sq f4 [5, 10]
0	0x1f373d46	3.880244e-20
1	0x1e546df7	1.1245927e-20
2	0x190a2852	7.1425754e-24
3	0x1d423ac0	2.570606e-21
4	0x209ef33a	2.6927195e-19
5	0x1d73846b	3.222924e-21
6	0x1f6efe0d	5.0608606e-20
7	0x1d12448a	1.9358373e-21
8	0x179947d9	9.90553e-25
9	0x1fccfc00	8.681426e-20
10	0x179a88fc	9.986596e-25
11	0x19386647	9.533232e-24
12	0x17815ee1	8.36038e-25
13	0x18bfdd7f	4.9595997e-24
14	0x15ef557e	9.6666214e-26
15	0x18e286f3	5.8555895e-24
16	0x179a3fe9	9.96815e-25
17	0x1832bd65	2.310158e-24
18	0x18961fe4	3.8806293e-24
19	0x1869ed65	3.0234398e-24
20	0x0dfaa6ad	1.5447565e-30
21	0x0ead1b03	4.2673804e-30
22	0x0e0d504d	1.7418255e-30
23	0x0e8a8f7d	3.41578e-30
24	0x0d2e757a	5.3759297e-31
25	0x0ccd9b4a	3.1678712e-31
26	0x0c008b1f	9.902627e-32
27	0x0d255acb	5.095384e-31
28	0x09102610	1.7351266e-33
29	0x0c00a82d	9.91137e-32
30	0x13385725	2.326703e-27
31	0x150adeac	2.8044535e-26
32	0x123de3f2	5.991885e-28
33	0x152c99ae	3.4856355e-26
34	0x147718d0	1.24752066e-26
35	0x13373169	2.3122208e-27
36	0x11254298	1.3036726e-28
37	0x13a0234d	4.0424488e-27
38	0x14d38316	2.135726e-26
39	0x1322e627	2.0560749e-27
40	0x00000000	0.0
41	0x00000000	0.0
42	0x00000000	0.0
43	0x00000000	0.0
44	0x00000000	0.0
45	0x00000000	0.0
46	0x00000000	0.0
47	0x00000000	0.0
48	0x00000000	0.0
49	0x00000000	0.0

exp_avg f4 [40, 10]
0	0xaa792783	-2.2129351e-13
1	0xaaa84e1a	-2.989699e-13
2	0x293c4a2a	4.1808713e-14
3	0xa91e3207	-3.512644e-14
4	0xa9e0ca89	-9.9827325e-14
5	0x2aea838d	4.1658032e-13
6	0xaab6e9ed	-3.2492013e-13
7	0x2a9bb43a	2.7658588e-13
8	0x2a533e0d	1.8762093e-13
9	0xaaa2c8f1	-2.8916412e-13
10	0x8600df1c	-2.423804e-35
11	0x060d7c53	2.6610492e-35
12	0x8524a781	-7.7420086e-36
13	0x06198c5f	2.887923e-35
14	0x86348fe6	-3.3959957e-35
15	0x86056c6e	-2.509418e-35
16	0x8553e4a3	-9.963166e-36
17	0x849086bc	-3.397797e-36
18	0x85e9a204	-2.197073e-35
19	0x0614d35f	2.7990997e-35
20	0x2715833e	2.074905e-15
21	0xa7242595	-2.2779945e-15
22	0x263f06e7	6.627579e-16
23	0xa7322443	-2.472212e-15
24	0x27517b7e	2.9071522e-15
25	0x271acb21	2.148191e-15
26	0x2675d4fd	8.5290103e-16
27	0x25a7ac7a	2.9086757e-16
28	0x270786ca	1.8808083e-15
29	0xa72ca99d	-2.3961743e-15
30	0x2238534c	2.4980747e-18
31	0xa2907cf2	-3.916357e-18
32	0x228f0ef2	3.877605e-18
33	0xa2df433f	-6.051547e-18
34	0x2317861a	8.2141235e-18
35	0x2302972e	7.079328e-18
36	0xa2d20c02	-5.6933328e-18
37	0x21d00cfd	1.4098066e-18
38	0x232070eb	8.697529e-18
39	0xa34dd694	-1.1158511e-17
40	0x22c9bc56	5.4680568e-18
41	0xa31e15a8	-8.569783e-18
42	0x231c8a4f	8.486065e-18
43	0xa3744e36	-1.3243828e-17
44	0x23a5cfc6	1.7977331e-17
45	0x238ee26c	1.5491564e-17
46	0xa365d21f	-1.245861e-17
47	0x226393f0	3.0842554e-18
48	0x23af8ebc	1.9033988e-17
49	0xa3e13b01	-2.4419538e-17
50	0xa03ab70b	-1.5815377e-19
51	0x204cff17	1.7363874e-19
52	0x9f6e8e4f	-5.0516175e-20
53	0x205e78f0	1.8844146e-19
54	0xa082cdda	-2.2159078e-19
55	0xa0415093	-1.6374396e-19
56	0x9f997fa8	-6.500921e-20
57	0x9ed169fb	-2.2172568e-20
58	0xa02940be	-1.4336278e-19
59	0x2057a11d	1.8264516e-19
60	0x92d7b939	-1.3614068e-27
61	0x930d3e67	-1.7827469e-27
62	0x12ed4974	1.497491e-27
63	0x92e21297	-1.4267188e-27
64	0x9286d64e	-8.509419e-28
65	0x132c5fb3	2.1756635e-27
66	0x932fd71e	-2.2194166e-27
67	0x128e2e66	8.972898e-28
68	0x13096cbb	1.734544e-27
69	0x92d65be9	-1.3527956e-27
70	0x8c73d723	-1.8784779e-31
71	0x0cbf142b	2.9440348e-31
72	0x8cbd364c	-2.915274e-31
73	0x0d13a5c5	4.549741e-31
74	0x8d486b22	-6.1758715e-31
75	0x8d2cb4cc	-5.321922e-31
76	0x0d0ae4c2	4.279989e-31
77	0x8c0989be	-1.0595546e-31
78	0x8d5432d3	-6.538872e-31
79	0x0d881e91	8.389006e-31
80	0xa47bff64	-5.4643273e-17
81	0xa4a650e4	-7.212806e-17
82	0x2336d4dc	9.9113145e-18
83	0xa30fbbd8	-7.791823e-18
84	0xa406187a	-2.907735e-17
85	0x24e2a62d	9.829339e-17
86	0xa4b76c5b	-7.954716e-17
87	0x24965469	6.519513e-17
88	0x244d69c8	4.454189e-17
89	0xa497210d	-6.55418e-17
90	0x247d1938	5.488199e-17
91	0xa48aef93	-6.0253814e-17
92	0x23a1aff9	1.7530182e-17
93	0xa496c7fe	-6.539093e-17
94	0x24b14ef0	7.689524e-17
95	0x248304e1	5.682046e-17
96	0x23d01332	2.2559535e-17
97	0x230debd2	7.693562e-18
98	0x24656c2a	4.9748078e-17
99	0xa49224c9	-6.3379723e-17
100	0xaafe632d	-4.518828e-13
101	0xab27f0db	-5.966457e-13
102	0x29b8a81b	8.200403e-14
103	0xa9914bdb	-6.4524524e-14
104	0xaa871da4	-2.4001385e-13
105	0x2b64ed7a	8.1331437e-13
106	0xab392e81	-6.578974e-13
107	0x2b17d7c9	5.394544e-13
108	0x2acf7648	3.685266e-13
109	0xab18ba6e	-5.425997e-13
110	0x00000004	6e-45
111	0x00000004	6e-45
112	0x80000004	-6e-45
113	0x00000004	6e-45
114	0x80000004	-6e-45
115	0x80000004	-6e-45
116	0x00000004	6e-45
117	0x00000004	6e-45
118	0x80000004	-6e-45
119	0x00000004	6e-45
120	0x289ae321	1.7195936e-14
121	0xa8aa07a0	-1.8877098e-14
122	0x27c5e0f5	5.4922383e-15
123	0xa8b88928	-2.0487586e-14
124	0x28d901a6	2.4092555e-14
125	0x28a0564b	1.7800992e-14
126	0x27feb333	7.069345e-15
127	0x272d9f63	2.4094977e-15
128	0x288c62bd	1.5585943e-14
129	0xa8b2da23	-1.9856572e-14
130	0x238eef7a	1.5497093e-17
131	0x237cfae3	1.3714075e-17
132	0xa3588663	-1.1737841e-17
133	0x2324c90c	8.933031e-18
134	0x2384d642	1.440221e-17
135	0xa390549a	-1.5648341e-17
136	0x23a87891	1.8265658e-17
137	0xa30cba05	-7.628806e-18
138	0xa3430128	-1.0571216e-17
139	0x22bff072	5.2025235e-18
140	0x2706d192	1.8709844e-15
141	0xa71403a3	-2.0541097e-15
142	0x262c40c8	5.976228e-16
143	0xa720a23b	-2.2292406e-15
144	0x273ce4fb	2.6214372e-15
145	0x270b9488	1.9370644e-15
146	0x265dabfe	7.690787e-16
147	0x259731a1	2.6227954e-16
148	0x26f469e1	1.69596e-15
149	0xa71bb174	-2.1606769e-15
150	0xa79ae9cf	-4.2997082e-15
151	0x27a9dfd1	4.7149585e-15
152	0xa6c5734e	-1.3700874e-15
153	0x27b86380	5.1178137e-15
154	0xa7d8fbf6	-6.022522e-15
155	0xa7a02a01	-4.445446e-15
156	0xa6ff1ef6	-1.7702571e-15
157	0xa62d31d1	-6.0088946e-16
158	0xa78c3d36	-3.892417e-15
159	0x27b2b827	4.9604583e-15
160	0xa9846e7e	-5.881145e-14
161	0x299168c5	6.457468e-14
162	0xa8a931dd	-1.8784394e-14
163	0x299dcd67	7.007832e-14
164	0xa9b98de1	-8.2402624e-14
165	0xa9891f33	-6.0894344e-14
166	0xa8d9bce7	-2.4173763e-14
167	0xa814910d	-8.247103e-15
168	0xa9701b8a	-5.331459e-14
169	0x2998f289	6.792229e-14
170	0x9a997a1f	-6.3476614e-23
171	0x9aca9d75	-8.379963e-23
172	0x195ec2d1	1.1516474e-23
173	0x992f3263	-9.0574635e-24
174	0x9a2333c8	-3.374944e-23
175	0x1b0a1347	1.1421321e-22
176	0x9adf6fd7	-9.2411325e-23
177	0x1ab729d3	7.5754597e-23
178	0x1a7a44c4	5.1754337e-23
179	0x9ab82e26	-7.6175173e-23
180	0x95df5350	-9.0200427e-26
181	0x15f53162	9.9032624e-26
182	0x950eaa49	-2.8811003e-26
183	0x16050c31	1.0747501e-25
184	0x961c73b1	-1.2638085e-25
185	0x95e73870	-9.33892e-26
186	0x95379884	-3.707687e-26
187	0x947a7ac8	-1.2645989e-26
188	0x95ca70bd	-8.176502e-26
189	0x1600f485	1.0416914e-25
190	0xa9025c36	-2.894578e-14
191	0x294c4e6a	4.5365113e-14
192	0xa94a4f78	-4.492194e-14
193	0x299dde58	7.010771e-14
194	0xa9d64ae7	-9.5165026e-14
195	0xa9b8a973	-8.200636e-14
196	0x29948232	6.5951056e-14
197	0xa8930f2c	-1.6326858e-14
198	0xa9e2e359	-1.0075855e-13
199	0x2a118ad8	1.2926758e-13
200	0x00000004	6e-45
201	0x00000004	6e-45
202	0x80000004	-6e-45
203	0x80000004	-6e-45
204	0x00000004	6e-45
205	0x80000004	-6e-45
206	0x00000004	6e-45
207	0x80000004	-6e-45
208	0x00000004	6e-45
209	0x00000004	6e-45
210	0x2112949e	4.9663417e-19
211	0xa165ba45	-7.7834744e-19
212	0x21637bbc	7.7074353e-19
213	0xa1b182fd	-1.2028659e-18
214	0x21f0f4d8	1.6327842e-18
215	0x21cfa38e	1.4070158e-18
216	0xa1a6fcb2	-1.1315485e-18
217	0x20a55b7f	2.8012634e-19
218	0x21ff1e81	1.7287546e-18
219	0xa223a6de	-2.2178958e-18
220	0x80000004	-6e-45
221	0x00000004	6e-45
222	0x80000004	-6e-45
223	0x00000004	6e-45
224	0x80000004	-6e-45
225	0x80000004	-6e-45
226	0x80000004	-6e-45
227	0x80000004	-6e-45
228	0x80000004	-6e-45
229	0x00000004	6e-45
230	0x80000004	-6e-45
231	0x80000004	-6e-45
232	0x00000004	6e-45
233	0x80000004	-6e-45
234	0x00000004	6e-45
235	0x00000004	6e-45
236	0x80000004	-6e-45
237	0x00000004	6e-45
238	0x00000004	6e-45
239	0x80000004	-6e-45
240	0x00000004	6e-45
241	0x00000004	6e-45
242	0x80000004	-6e-45
243	0x00000004	6e-45
244	0x00000004	6e-45
245	0x80000004	-6e-45
246	0x00000004	6e-45
247	0x80000004	-6e-45
248	0x80000004	-6e-45
249	0x00000004	6e-45
250	0x00000004	6e-45
251	0x80000004	-6e-45
252	0x00000004	6e-45
253	0x80000004	-6e-45
254	0x00000004	6e-45
255	0x80000004	-6e-45

exp_avg_sq f4 [40, 10]
0	0x200908ff	1.1607328e-19
1	0x206eef41	2.0238547e-19
2	0x1d90684c	3.8224323e-21
3	0x1d32fe23	2.368949e-21
4	0x1f1a66d2	3.269582e-20
5	0x20de0b05	3.7615555e-19
6	0x20913b5e	2.4603241e-19
7	0x20435e7d	1.6548406e-19
8	0x1fb65790	7.722486e-20
9	0x2045bc7b	1.6748912e-19
10	0x000001f4	7e-43
11	0x000001f4	7e-43
12	0x000001f4	7e-43
13	0x000001f4	7e-43
14	0x000001f4	7e-43
15	0x000001f4	7e-43
16	0x000001f4	7e-43
17	0x000001f4	7e-43
18	0x000001f4	7e-43
19	0x000001f4	7e-43
20	0x11be4c6f	3.002382e-28
21	0x11e5645b	3.6191678e-28
22	0x101b53bc	3.0632867e-29
23	0x120715d0	4.2625375e-28
24	0x123aca69	5.894074e-28
25	0x11cbfe12	3.2184336e-28
26	0x10809d8d	5.0729843e-29
27	0x0eef5f53	5.9009843e-30
28	0x119c5f44	2.4671172e-28
29	0x11fdce8b	4.0043654e-28
30	0x070b1469	1.0463196e-34
31	0x07aac5a9	2.5694931e-34
32	0x07a77728	2.51974e-34
33	0x084bf1c8	6.1372303e-34
34	0x08bbe53b	1.1308545e-33
35	0x088b8390	8.396688e-34
36	0x08347747	5.430699e-34
37	0x0630ed74	3.3276374e-35
38	0x08d29f7b	1.2676409e-33
39	0x092d5620	2.0864613e-33
40	0x0c67ca88	1.785654e-31
41	0x0d0e55c4	4.3860365e-31
42	0x0d0b9144	4.300754e-31
43	0x0da9f7ef	1.0475117e-30
44	0x0e1c96c1	1.930107e-30
45	0x0de88eeb	1.433251e-30
46	0x0d966944	9.2698055e-31
47	0x0b937c63	5.6809497e-32
48	0x0e2f89a8	2.1636694e-30
49	0x0e907679	3.5612826e-30
50	0x080a451e	4.160911e-34
51	0x0826ad09	5.015721e-34
52	0x0661b876	4.2453317e-35
53	0x08444e7b	5.907386e-34
54	0x0887b8c3	8.168454e-34
55	0x08143897	4.460365e-34
56	0x06bae740	7.0305215e-35
57	0x052ded6a	8.178027e-36
58	0x07e33d6c	3.4191264e-34
59	0x08386a83	5.549569e-34
60	0x000001f4	7e-43
61	0x000001f4	7e-43
62	0x000001f4	7e-43
63	0x000001f4	7e-43
64	0x000001f4	7e-43
65	0x000001f4	7e-43
66	0x000001f4	7e-43
67	0x000001f4	7e-43
68	0x000001f4	7e-43
69	0x000001f4	7e-43
70	0x000001f4	7e-43
71	0x000001f4	7e-43
72	0x000001f4	7e-43
73	0x000001f4	7e-43
74	0x000001f4	7e-43
75	0x000001f4	7e-43
76	0x000001f4	7e-43
77	0x000001f4	7e-43
78	0x000001f4	7e-43
79	0x000001f4	7e-43
80	0x0d8c5ceb	8.650535e-31
81	0x0df4b3a5	1.5080909e-30
82	0x0b13e11b	2.848052e-32
83	0x0ab7351e	1.764224e-32
84	0x0c9e4e86	2.4391014e-31
85	0x0e635e28	2.8025245e-30
86	0x0e14c074	1.8335071e-30
87	0x0dc80dae	1.2329245e-30
88	0x0d3ab91a	5.7538483e-31
89	0x0dca6c44	1.2475275e-30
90	0x0b9200f4	5.623859e-32
91	0x0bafff38	6.779156e-32
92	0x09ee5818	5.737926e-33
93	0x0bcf48b8	7.9842915e-32
94	0x0c0f4ff5	1.104038e-31
95	0x0b9c8279	6.028533e-32
96	0x0a455b53	9.502381e-33
97	0x08b7a771	1.1053277e-33
98	0x0b6ff272	4.621212e-32
99	0x0bc2ba89	7.500675e-32
100	0x19331b8e	9.259648e-24
101	0x199c1c23	1.6141386e-23
102	0x16bcaa7d	3.0480631e-25
103	0x1669af43	1.8876893e-25
104	0x184a1c06	2.6122036e-24
105	0x1a110a4a	2.999361e-23
106	0x19bdce0e	1.9625367e-23
107	0x197f3b10	1.31951186e-23
108	0x18ee3ad5	6.1580963e-24
109	0x19811bc2	1.3349499e-23
110	0x000001f4	7e-43
111	0x000001f4	7e-43
112	0x000001f4	7e-43
113	0x000001f4	7e-43
114	0x000001f4	7e-43
115	0x000001f4	7e-43
116	0x000001f4	7e-43
117	0x000001f4	7e-43
118	0x000001f4	7e-43
119	0x000001f4	7e-43
120	0x14fbbe7d	2.5419658e-26
121	0x1517bafb	3.064171e-26
122	0x134d7a7c	2.5935027e-27
123	0x1532b3fd	3.60888e-26
124	0x15771a64	4.990207e-26
125	0x1506ee1e	2.7248926e-26
126	0x13aa24c9	4.2950306e-27
127	0x121e5599	4.9961516e-28
128	0x14cedcda	2.0887795e-26
129	0x1527e10b	3.390291e-26
130	0x0b272e6b	3.219795e-32
131	0x0b754de9	4.7243897e-32
132	0x0b3d93ad	3.6511175e-32
133	0x0b1f5e1e	3.0693092e-32
134	0x0a802b70	1.2342291e-32
135	0x0bc191e8	7.456043e-32
136	0x0be082a4	8.647823e-32
137	0x0a85e03b	1.289178e-32
138	0x0b800e59	4.9325395e-32
139	0x0b200ffc	3.0826904e-32
140	0x11ee7450	3.7621462e-28
141	0x120fb7e3	4.53495e-28
142	0x1042a121	3.8383883e-29
143	0x1229445e	5.3411266e-28
144	0x126a0e9f	7.3855403e-28
145	0x11ff9c5d	4.0328272e-28
146	0x10a1292e	6.356675e-29
147	0x0f15f9a1	7.394344e-30
148	0x11c3f08e	3.0913829e-28
149	0x121f03b6	5.017613e-28
150	0x12828591	8.23708e-28
151	0x129d50cc	9.928011e-28
152	0x10d506b8	8.402404e-29
153	0x12b94916	1.1693158e-27
154	0x13001cac	1.6170008e-27
155	0x128be512	8.828603e-28
156	0x113074ea	1.3919979e-28
157	0x0fa420a4	1.6184221e-29
158	0x12567a00	6.767687e-28
159	0x12ae1028	1.0984927e-27
160	0x197b3e9d	1.29890405e-23
161	0x19976e31	1.565754e-23
162	0x17cd10ce	1.3252057e-24
163	0x19b25968	1.844088e-23
164	0x19f69cd6	2.549915e-23
165	0x1986a9c8	1.392385e-23
166	0x1829cdd0	2.1946647e-24
167	0x169e07a8	2.5531108e-25
168	0x194e7408	1.0673383e-23
169	0x19a78bcb	1.7323857e-23
170	0x000001f4	7e-43
171	0x000001f4	7e-43
172	0x000001f4	7e-43
173	0x000001f4	7e-43
174	0x000001f4	7e-43
175	0x000001f4	7e-43
176	0x000001f4	7e-43
177	0x000001f4	7e-43
178	0x000001f4	7e-43
179	0x000001f4	7e-43
180	0x000001f4	7e-43
181	0x000001f4	7e-43
182	0x000001f4	7e-43
183	0x000001f4	7e-43
184	0x000001f4	7e-43
185	0x000001f4	7e-43
186	0x000001f4	7e-43
187	0x000001f4	7e-43
188	0x000001f4	7e-43
189	0x000001f4	7e-43
190	0x144172d1	9.7666534e-27
191	0x14ed9488	2.398947e-26
192	0x14e8f5ce	2.3522966e-26
193	0x158dda5e	5.729397e-26
194	0x1602afaa	1.0556746e-25
195	0x15c216ae	7.839176e-26
196	0x157b0f84	5.0701286e-26
197	0x13762d90	3.107203e-27
198	0x1612801c	1.183421e-25
199	0x167121ba	1.9478467e-25
200	0x000001f4	7e-43
201	0x000001f4	7e-43
202	0x000001f4	7e-43
203	0x000001f4	7e-43
204	0x000001f4	7e-43
205	0x000001f4	7e-43
206	0x000001f4	7e-43
207	0x000001f4	7e-43
208	0x000001f4	7e-43
209	0x000001f4	7e-43
210	0x044ac27a	2.3834285e-36
211	0x04f903c9	5.8543095e-36
212	0x04f42c5d	5.7404866e-36
213	0x0594ae11	1.3981795e-35
214	0x0608f9f0	2.5762382e-35
215	0x05cb6e2f	1.9130503e-35
216	0x05839280	1.2372996e-35
217	0x038103ef	7.582842e-37
218	0x06198d42	2.8879882e-35
219	0x067cbce2	4.75347e-35
220	0x000001f4	7e-43
221	0x000001f4	7e-43
222	0x000001f4	7e-43
223	0x000001f4	7e-43
224	0x000001f4	7e-43
225	0x000001f4	7e-43
226	0x000001f4	7e-43
227	0x000001f4	7e-43
228	0x000001f4	7e-43
229	0x000001f4	7e-43
230	0x000001f4	7e-43
231	0x000001f4	7e-43
232	0x000001f4	7e-43
233	0x000001f4	7e-43
234	0x000001f4	7e-43
235	0x000001f4	7e-43
236	0x000001f4	7e-43
237	0x000001f4	7e-43
238	0x000001f4	7e-43
239	0x000001f4	7e-43
240	0x000001f4	7e-43
241	0x000001f4	7e-43
242	0x000001f4	7e-43
243	0x000001f4	7e-43
244	0x000001f4	7e-43
245	0x000001f4	7e-43
246	0x000001f4	7e-43
247	0x000001f4	7e-43
248	0x000001f4	7e-43
249	0x000001f4	7e-43
250	0x000001f4	7e-43
251	0x000001f4	7e-43
252	0x000001f4	7e-43
253	0x000001f4	7e-43
254	0x000001f4	7e-43
255	0x000001f4	7e-43

exp_avg f4 [40, 10]
0	0x9f84b9a2	-5.621128e-20
1	0x1f84b9a3	5.6211285e-20
2	0x1f84b1e2	5.619846e-20
3	0x9f84b9a3	-5.6211285e-20
4	0x1f84b9a2	5.621128e-20
5	0x9304af64	-1.6747217e-27
6	0x1f84b9a2	5.621128e-20
7	0x2cece194	6.7325676e-12
8	0x1f84b9a3	5.6211285e-20
9	0x1b680e3d	1.9195191e-22
10	0x0363b1ff	6.6913634e-37
11	0x03de19dd	1.3053925e-36
12	0x03431d70	5.733914e-37
13	0x83de19d4	-1.3053917e-36
14	0x0343175a	5.7332156e-37
15	0x840f8833	-1.6872109e-36
16	0x8363b1ff	-6.6913634e-37
17	0x0490e5dd	3.4065333e-36
18	0x03de19df	1.3053927e-36
19	0x04d5ae41	5.0236086e-36
20	0xa46169fe	-4.8878877e-17
21	0xa62fc2be	-6.0979247e-16
22	0xa297a747	-4.1105744e-18
23	0x262fc2be	6.0979247e-16
24	0xa2977981	-4.105728e-18
25	0x24a05474	6.953201e-17
26	0x246169fe	4.8878877e-17
27	0xa4686a4d	-5.039702e-17
28	0xa62fc2bf	-6.097925e-16
29	0xa4738c38	-5.2810995e-17
30	0x1744634c	6.3456346e-25
31	0x97979d3a	-9.797836e-25
32	0x9744634c	-6.3456346e-25
33	0x17979d3a	9.797836e-25
34	0x9744634c	-6.3456346e-25
35	0x000027f1	1.4328e-41
36	0x9744634c	-6.3456346e-25
37	0x21cd6343	1.3917615e-18
38	0x97979d3a	-9.797836e-25
39	0x21d7c433	1.46209e-18
40	0x072bf440	1.2936389e-34
41	0x8757845e	-1.6213701e-34
42	0x0c3e6514	1.4667485e-31
43	0x0757845e	1.6213701e-34
44	0x872bf2dc	-1.293598e-34
45	0x8000007b	-1.72e-43
46	0x872ac325	-1.2846726e-34
47	0x22a063f1	4.3473904e-18
48	0x8757845e	-1.6213701e-34
49	0x226c1aef	3.1998223e-18
50	0x9f32fe34	-3.7903238e-20
51	0x1f32fe34	3.7903238e-20
52	0x1f32fe34	3.7903238e-20
53	0x9f32fe34	-3.7903238e-20
54	0x1f32fe34	3.7903238e-20
55	0x838ec83e	-8.391983e-37
56	0x1f32fe34	3.7903238e-20
57	0x1aad8df2	7.178045e-23
58	0x1f32fe34	3.7903238e-20
59	0x1e130d61	7.784882e-21
60	0x0001bf27	1.60408e-40
61	0x8001cfee	-1.66427e-40
62	0x8001df88	-1.72023e-40
63	0x0001cfee	1.66427e-40
64	0x80018af2	-1.4168e-40
65	0x800019c0	-9.237e-42
66	0x8001bf27	-1.60408e-40
67	0x10447239	3.8742178e-29
68	0x8001cfee	-1.66427e-40
69	0x82a47b8f	-2.4168553e-37
70	0x00000004	6e-45
71	0x00000004	6e-45
72	0x00000005	7e-45
73	0x00000004	6e-45
74	0x80000003	-4e-45
75	0x80000004	-6e-45
76	0x80000001	-1e-45
77	0x8c275a62	-1.2892411e-31
78	0x80000004	-6e-45
79	0x8c0eb10d	-1.0992561e-31
80	0x14c6ecc4	2.0086278e-26
81	0x94c9ba59	-2.0369315e-26
82	0x94c6a9e2	-2.0059898e-26
83	0x14c9ba59	2.0369315e-26
84	0x94c6ecc4	-2.0086278e-26
85	0x00009cbb	5.6224e-41
86	0x94c6ecc4	-2.0086278e-26
87	0xa3f21d4f	-2.6250105e-17
88	0x94c9ba59	-2.0369315e-26
89	0x91afaae6	-2.7715456e-28
90	0xa392459c	-1.5858832e-17
91	0xa3923b43	-1.585445e-17
92	0x9c9d3dcd	-1.0405364e-21
93	0x23923b3d	1.585444e-17
94	0x1c01a831	4.28999e-22
95	0x23c0dcbf	2.0910171e-17
96	0x2392459c	1.5858832e-17
97	0xa3924815	-1.585988e-17
98	0xa3923b44	-1.5854452e-17
99	0xa392352c	-1.5851871e-17
100	0x1d11dd17	1.930489e-21
101	0x9d11dd17	-1.930489e-21
102	0x9d11df92	-1.9306173e-21
103	0x1d11dd17	1.930489e-21
104	0x9d11dd17	-1.930489e-21
105	0x0156a7eb	3.9426068e-38
106	0x9d11dd17	-1.930489e-21
107	0x1ab020c5	7.2844836e-23
108	0x9d11dd17	-1.930489e-21
109	0x199e6d03	1.6380847e-23
110	0x80000004	-6e-45
111	0x00000004	6e-45
112	0x80000004	-6e-45
113	0x80000004	-6e-45
114	0x80000004	-6e-45
115	0x80000004	-6e-45
116	0x00000004	6e-45
117	0x00000004	6e-45
118	0x00000004	6e-45
119	0x80000004	-6e-45
120	0xa746576a	-2.7525407e-15
121	0x275e88f5	3.0882933e-15
122	0x275e88f5	3.0882933e-15
123	0xa75e88f5	-3.0882933e-15
124	0x275e88f1	3.0882925e-15
125	0xa60aaa18	-4.810889e-16
126	0x2746576a	2.7525407e-15
127	0xa80b10f8	-7.7197295e-15
128	0x275e88f5	3.0882933e-15
129	0xa7553910	-2.9590622e-15
130	0x8071a768	-1.0437465e-38
131	0x0052dd33	7.609862e-39
132	0x0c1fa99d	1.2299956e-31
133	0x8052dd33	-7.609862e-39
134	0x00634ffb	9.120406e-39
135	0x80000007	-1e-44
136	0x02bed027	2.8037464e-37
137	0xa113c804	-5.0070256e-19
138	0x0052dd31	7.609859e-39
139	0x21812320	8.750678e-19
140	0x9474854e	-1.23451416e-26
141	0x1474854e	1.23451416e-26
142	0x1471fb4f	1.22169525e-26
143	0x9474854e	-1.23451416e-26
144	0x1474854e	1.23451416e-26
145	0x024822f3	1.4703709e-37
146	0x1474854e	1.23451416e-26
147	0x8250bc8c	-1.5335537e-37
148	0x1474854e	1.23451416e-26
149	0x169e1900	2.5542054e-25
150	0x8bde9073	-8.572863e-32
151	0x8cde2a23	-3.4229876e-31
152	0x118d4107	2.2285954e-28
153	0x0cde2a26	3.4229883e-31
154	0x8cde69a9	-3.4268108e-31
155	0x0d0a8dc9	4.26952e-31
156	0x0bdeca40	8.58156e-32
157	0x23f6b3b9	2.6747489e-17
158	0x8cde2a28	-3.4229888e-31
159	0x26b2e66d	1.2413688e-15
160	0x1a29ffba	3.5154955e-23
161	0x9a2a0192	-3.5156445e-23
162	0x9a2a00a7	-3.5155703e-23
163	0x1a2a0192	3.5156445e-23
164	0x9a2a00a7	-3.5155703e-23
165	0x12979334	9.565728e-28
166	0x9a29ffba	-3.5154955e-23
167	0x28990876	1.6990082e-14
168	0x9a2a0192	-3.5156445e-23
169	0x19c82ec7	2.0698409e-23
170	0x99265474	-8.599054e-24
171	0x19291508	8.7413424e-24
172	0x19265474	8.599054e-24
173	0x99291508	-8.7413424e-24
174	0x19265474	8.599054e-24
175	0x80371485	-5.058313e-39
176	0x19265474	8.599054e-24
177	0x97b17f01	-1.1470417e-24
178	0x19291508	8.7413424e-24
179	0x992cc610	-8.93219e-24
180	0x9500dc19	-2.602302e-26
181	0x15010686	2.605649e-26
182	0x1500dc5a	2.602322e-26
183	0x95010686	-2.605649e-26
184	0x1500dc5a	2.602322e-26
185	0x8cad5cd6	-2.6710744e-31
186	0x1500dc19	2.602302e-26
187	0x0dd14d9e	1.2899305e-30
188	0x15010686	2.605649e-26
189	0x0c81f917	2.0025513e-31
190	0x81e994f4	-8.580442e-38
191	0x00000022	4.8e-44
192	0x939503c4	-3.76166e-27
193	0x80000334	-1.149e-42
194	0x02ccdc4d	3.0101552e-37
195	0x8000e726	-8.292e-41
196	0x890df295	-1.708632e-33
197	0xa817dc22	-8.4299175e-15
198	0x00000372	1.236e-42
199	0xa89891cd	-1.6938621e-14
200	0x80000004	-6e-45
201	0x80000004	-6e-45
202	0x00000004	6e-45
203	0x80000004	-6e-45
204	0x00000004	6e-45
205	0x00000004	6e-45
206	0x80000004	-6e-45
207	0x80000004	-6e-45
208	0x00000004	6e-45
209	0x00000004	6e-45
210	0x80000093	-2.06e-43
211	0x00000002	3e-45
212	0x8a0fba73	-6.920267e-33
213	0x80000002	-3e-45
214	0x000006d4	2.45e-42
215	0x8000000a	-1.4e-44
216	0x01b62d81	6.6921536e-38
217	0x20c65709	3.36001e-19
218	0x80000002	-3e-45
219	0x20ab8da6	2.9062262e-19
220	0x00000004	6e-45
221	0x80000004	-6e-45
222	0x80000004	-6e-45
223	0x00000004	6e-45
224	0x80000004	-6e-45
225	0x00000004	6e-45
226	0x80000004	-6e-45
227	0x00000004	6e-45
228	0x80000004	-6e-45
229	0x00000004	6e-45
230	0x80000004	-6e-45
231	0x00000004	6e-45
232	0x00000004	6e-45
233	0x00000004	6e-45
234	0x80000004	-6e-45
235	0x80000004	-6e-45
236	0x80000004	-6e-45
237	0x00000004	6e-45
238	0x00000004	6e-45
239	0x80000004	-6e-45
240	0x80000004	-6e-45
241	0x80000004	-6e-45
242	0x80000004	-6e-45
243	0x80000004	-6e-45
244	0x00000004	6e-45
245	0x00000004	6e-45
246	0x80000004	-6e-45
247	0x80000004	-6e-45
248	0x80000004	-6e-45
249	0x80000004	-6e-45
250	0x80000004	-6e-45
251	0x80000004	-6e-45
252	0x00000004	6e-45
253	0x80000004	-6e-45
254	0x00000004	6e-45
255	0x00000004	6e-45

exp_avg_sq f4 [40, 10]
0	0x011541c5	2.7414165e-38
1	0x011541c5	2.7414165e-38
2	0x01153df2	2.7411421e-38
3	0x011541c5	2.7414165e-38
4	0x011541c5	2.7414165e-38
5	0x000001f4	7e-43
6	0x011541c5	2.7414165e-38
7	0x1bd9cff0	3.6034015e-22
8	0x011541c5	2.7414165e-38
9	0x000001f4	7e-43
10	0x000001f4	7e-43
11	0x000001f4	7e-43
12	0x000001f4	7e-43
13	0x000001f4	7e-43
14	0x000001f4	7e-43
15	0x000001f4	7e-43
16	0x000001f4	7e-43
17	0x000001f4	7e-43
18	0x000001f4	7e-43
19	0x000001f4	7e-43
20	0x0c67207e	1.780537e-31
21	0x0ffcc3bc	2.4924513e-29
22	0x07dbdb8c	3.3080496e-34
23	0x0ffcc3bc	2.4924513e-29
24	0x07dbbfe5	3.3064243e-34
25	0x0ca6f3e2	2.5723131e-31
26	0x0c67207e	1.780537e-31
27	0x0c69d84d	1.8014758e-31
28	0x0ffcc3be	2.4924516e-29
29	0x0c6892ff	1.7916865e-31
30	0x000001f4	7e-43
31	0x000001f4	7e-43
32	0x000001f4	7e-43
33	0x000001f4	7e-43
34	0x000001f4	7e-43
35	0x000001f4	7e-43
36	0x000001f4	7e-43
37	0x05d5b190	2.009565e-35
38	0x000001f4	7e-43
39	0x063e7c01	3.5826132e-35
40	0x000001f4	7e-43
41	0x000001f4	7e-43
42	0x000001f4	7e-43
43	0x000001f4	7e-43
44	0x000001f4	7e-43
45	0x000001f4	7e-43
46	0x000001f4	7e-43
47	0x075aa3d4	1.6448642e-34
48	0x000001f4	7e-43
49	0x0b9ebfe0	6.114809e-32
50	0x06389136	3.4713238e-35
51	0x06389136	3.4713238e-35
52	0x06389136	3.4713238e-35
53	0x06389136	3.4713238e-35
54	0x06389136	3.4713238e-35
55	0x000001f4	7e-43
56	0x06389136	3.4713238e-35
57	0x000003bc	1.34e-42
58	0x06389136	3.4713238e-35
59	0x004d27f7	7.08567e-39
60	0x000001f4	7e-43
61	0x000001f4	7e-43
62	0x000001f4	7e-43
63	0x000001f4	7e-43
64	0x000001f4	7e-43
65	0x000001f4	7e-43
66	0x000001f4	7e-43
67	0x000001f4	7e-43
68	0x000001f4	7e-43
69	0x000001f4	7e-43
70	0x000001f4	7e-43
71	0x000001f4	7e-43
72	0x000001f4	7e-43
73	0x000001f4	7e-43
74	0x000001f4	7e-43
75	0x000001f4	7e-43
76	0x000001f4	7e-43
77	0x000001f4	7e-43
78	0x000001f4	7e-43
79	0x000001f4	7e-43
80	0x000001f4	7e-43
81	0x000001f4	7e-43
82	0x000001f4	7e-43
83	0x000001f4	7e-43
84	0x000001f4	7e-43
85	0x000001f4	7e-43
86	0x000001f4	7e-43
87	0x0a4693e9	9.561172e-33
88	0x000001f4	7e-43
89	0x000001f4	7e-43
90	0x09c2b6f8	4.6875864e-33
91	0x09c2f51a	4.6934294e-33
92	0x0000287f	1.4527e-41
93	0x09c2f510	4.6934257e-33
94	0x000098e2	5.4844e-41
95	0x0a16e1db	7.264716e-33
96	0x09c2b6f8	4.6875864e-33
97	0x09c2b6fa	4.687587e-33
98	0x09c2f51d	4.6934305e-33
99	0x09c284ab	4.682856e-33
100	0x00005668	3.0997e-41
101	0x00005668	3.0997e-41
102	0x00005668	3.0997e-41
103	0x00005668	3.0997e-41
104	0x00005668	3.0997e-41
105	0x000001f4	7e-43
106	0x00005668	3.0997e-41
107	0x000001f4	7e-43
108	0x00005668	3.0997e-41
109	0x000001f4	7e-43
110	0x000001f4	7e-43
111	0x000001f4	7e-43
112	0x000001f4	7e-43
113	0x000001f4	7e-43
114	0x000001f4	7e-43
115	0x000001f4	7e-43
116	0x000001f4	7e-43
117	0x000001f4	7e-43
118	0x000001f4	7e-43
119	0x000001f4	7e-43
120	0x117e4f44	2.0061493e-28
121	0x1184a214	2.0925816e-28
122	0x1184a214	2.0925816e-28
123	0x1184a213	2.0925814e-28
124	0x1184a213	2.0925814e-28
125	0x0e4f1203	2.5523392e-30
126	0x117e4f44	2.0061493e-28
127	0x13154dd7	1.8844822e-27
128	0x1184a214	2.0925816e-28
129	0x1282e396	8.260258e-28
130	0x000001f4	7e-43
131	0x000001f4	7e-43
132	0x000001f4	7e-43
133	0x000001f4	7e-43
134	0x000001f4	7e-43
135	0x000001f4	7e-43
136	0x000001f4	7e-43
137	0x08b6ab89	1.0994054e-33
138	0x000001f4	7e-43
139	0x0564ea80	1.0763579e-35
140	0x000001f4	7e-43
141	0x000001f4	7e-43
142	0x000001f4	7e-43
143	0x000001f4	7e-43
144	0x000001f4	7e-43
145	0x000001f4	7e-43
146	0x000001f4	7e-43
147	0x000001f4	7e-43
148	0x000001f4	7e-43
149	0x000001f4	7e-43
150	0x000001f4	7e-43
151	0x000001f4	7e-43
152	0x000001f4	7e-43
153	0x000001f4	7e-43
154	0x000001f4	7e-43
155	0x000001f4	7e-43
156	0x000001f4	7e-43
157	0x0be1ccc5	8.697495e-32
158	0x000001f4	7e-43
159	0x10ae4663	6.8739347e-29
160	0x00000201	7.19e-43
161	0x00000201	7.19e-43
162	0x00000201	7.19e-43
163	0x00000201	7.19e-43
164	0x00000201	7.19e-43
165	0x000001f4	7e-43
166	0x00000201	7.19e-43
167	0x17a7bdff	1.0840084e-24
168	0x00000201	7.19e-43
169	0x000001f4	7e-43
170	0x000001f4	7e-43
171	0x000001f4	7e-43
172	0x000001f4	7e-43
173	0x000001f4	7e-43
174	0x000001f4	7e-43
175	0x000001f4	7e-43
176	0x000001f4	7e-43
177	0x000001f4	7e-43
178	0x000001f4	7e-43
179	0x000001f4	7e-43
180	0x000001f4	7e-43
181	0x000001f4	7e-43
182	0x000001f4	7e-43
183	0x000001f4	7e-43
184	0x000001f4	7e-43
185	0x000001f4	7e-43
186	0x000001f4	7e-43
187	0x000001f4	7e-43
188	0x000001f4	7e-43
189	0x000001f4	7e-43
190	0x000001f4	7e-43
191	0x000001f4	7e-43
192	0x000001f4	7e-43
193	0x000001f4	7e-43
194	0x000001f4	7e-43
195	0x000001f4	7e-43
196	0x000001f4	7e-43
197	0x12eeb2fc	1.5064035e-27
198	0x000001f4	7e-43
199	0x13847d5a	3.344509e-27
200	0x000001f4	7e-43
201	0x000001f4	7e-43
202	0x000001f4	7e-43
203	0x000001f4	7e-43
204	0x000001f4	7e-43
205	0x000001f4	7e-43
206	0x000001f4	7e-43
207	0x000001f4	7e-43
208	0x000001f4	7e-43
209	0x000001f4	7e-43
210	0x000001f4	7e-43
211	0x000001f4	7e-43
212	0x000001f4	7e-43
213	0x000001f4	7e-43
214	0x000001f4	7e-43
215	0x000001f4	7e-43
216	0x000001f4	7e-43
217	0x0383f0e3	7.754793e-37
218	0x000001f4	7e-43
219	0x038addc9	8.16183e-37
220	0x000001f4	7e-43
221	0x000001f4	7e-43
222	0x000001f4	7e-43
223	0x000001f4	7e-43
224	0x000001f4	7e-43
225	0x000001f4	7e-43
226	0x000001f4	7e-43
227	0x000001f4	7e-43
228	0x000001f4	7e-43
229	0x000001f4	7e-43
230	0x000001f4	7e-43
231	0x000001f4	7e-43
232	0x000001f4	7e-43
233	0x000001f4	7e-43
234	0x000001f4	7e-43
235	0x000001f4	7e-43
236	0x000001f4	7e-43
237	0x000001f4	7e-43
238	0x000001f4	7e-43
239	0x000001f4	7e-43
240	0x000001f4	7e-43
241	0x000001f4	7e-43
242	0x000001f4	7e-43
243	0x000001f4	7e-43
244	0x000001f4	7e-43
245	0x000001f4	7e-43
246	0x000001f4	7e-43
247	0x000001f4	7e-43
248	0x000001f4	7e-43
249	0x000001f4	7e-43
250	0x000001f4	7e-43
251	0x000001f4	7e-43
252	0x000001f4	7e-43
253	0x000001f4	7e-43
254	0x000001f4	7e-43
255	0x000001f4	7e-43

exp_avg f4 [40]
0	0x299715e4	6.7095445e-14
1	0x854387dc	-9.1938094e-36
2	0x2662d932	7.8703856e-16
3	0xa20da524	-1.9196488e-18
4	0xa29b01da	-4.2014795e-18
5	0x9f8da5e0	-5.999024e-20
6	0x91d4193e	-3.346326e-28
7	0x0c3b5bef	1.4433621e-31
8	0x2392ee6d	1.5930329e-17
9	0x23c001d8	2.0817463e-17
10	0x2a146595	1.3180284e-13
11	0x00000004	6e-45
12	0x27eafbb3	6.522094e-15
13	0x22327c23	2.4189216e-18
14	0x264c8dc4	7.0968846e-16
15	0xa6eaff74	-1.6306252e-15
16	0xa8c8f00b	-2.2308563e-14
17	0x19b30426	1.8509842e-23
18	0x95296c0f	-3.421452e-26
19	0x28c85445	2.2241007e-14
20	0x00000004	6e-45
21	0xa0e1416d	-3.8159778e-19
22	0x80000004	-6e-45
23	0x00000004	6e-45
24	0x00000004	6e-45
25	0x00000004	6e-45
26	0x00000004	6e-45
27	0x80000004	-6e-45
28	0x00000004	6e-45
29	0x1a367e2b	3.7738636e-23
30	0x9d8ce5e0	-3.7295377e-21
31	0x0c8a5de4	2.1318775e-31
32	0x25628a6e	1.9649277e-16
33	0x8f7190d2	-1.1910109e-29
34	0x189b4e57	4.0145664e-24
35	0x9604838f	-1.0704388e-25
36	0x9e35ea85	-9.630558e-21
37	0x9a4b193e	-4.1999807e-23
38	0x9297e7fc	-9.586628e-28
39	0xa7612b1f	-3.1248399e-15

exp_avg_sq f4 [40]
0	0x1e3a96c1	9.877933e-21
1	0x000001f4	7e-43
2	0x105b0bdf	4.319928e-29
3	0x06a435f5	6.1769226e-35
4	0x0c08d8cf	1.0542302e-31
5	0x069f2899	5.9868805e-35
6	0x000001f4	7e-43
7	0x000001f4	7e-43
8	0x0bbf127c	7.3598336e-32
9	0x0a280f4b	8.091782e-33
10	0x1773c786	7.876937e-25
11	0x000001f4	7e-43
12	0x1390e2f3	3.65745e-27
13	0x0950e244	2.5143479e-33
14	0x10893ca0	5.413038e-29
15	0x11163c5f	1.1851517e-28
16	0x1810994c	1.8688959e-24
17	0x000001f4	7e-43
18	0x000001f4	7e-43
19	0x13e46b86	5.7661318e-27
20	0x000001f4	7e-43
21	0x03ef6a05	1.4071498e-36
22	0x000001f4	7e-43
23	0x000001f4	7e-43
24	0x000001f4	7e-43
25	0x000001f4	7e-43
26	0x000001f4	7e-43
27	0x000001f4	7e-43
28	0x000001f4	7e-43
29	0x000001f4	7e-43
30	0x0011f2a4	1.648246e-39
31	0x000001f4	7e-43
32	0x0fc7da6e	1.9707051e-29
33	0x000001f4	7e-43
34	0x000001f4	7e-43
35	0x000001f4	7e-43
36	0x0017e46c	2.194159e-39
37	0x000001f4	7e-43
38	0x000001f4	7e-43
39	0x10d42f97	8.369258e-29

exp_avg f4 [40]
0	0x299715e4	6.7095445e-14
1	0x854387de	-9.193811e-36
2	0x2662d934	7.8703866e-16
3	0xa20da524	-1.9196488e-18
4	0xa29b01da	-4.2014795e-18
5	0x9f8da5e1	-5.9990246e-20
6	0x91d4193e	-3.346326e-28
7	0x0c3b5bef	1.4433621e-31
8	0x2392ee6d	1.5930329e-17
9	0x23c001d7	2.0817461e-17
10	0x2a146595	1.3180284e-13
11	0x00000004	6e-45
12	0x27eafbb6	6.5220952e-15
13	0x22327c23	2.4189216e-18
14	0x264c8dc4	7.0968846e-16
15	0xa6eaff76	-1.6306255e-15
16	0xa8c8f00b	-2.2308563e-14
17	0x19b30425	1.850984e-23
18	0x95296c0f	-3.421452e-26
19	0x28c85445	2.2241007e-14
20	0x00000004	6e-45
21	0xa0e1416d	-3.8159778e-19
22	0x80000004	-6e-45
23	0x00000004	6e-45
24	0x00000004	6e-45
25	0x00000004	6e-45
26	0x00000004	6e-45
27	0x80000004	-6e-45
28	0x00000004	6e-45
29	0x1a367e28	3.7738626e-23
30	0x9d8ce5df	-3.7295373e-21
31	0x0c8a5de5	2.1318777e-31
32	0x25628a6a	1.9649272e-16
33	0x8f7190d0	-1.1910107e-29
34	0x189b4e52	4.0145644e-24
35	0x9604838f	-1.0704388e-25
36	0x9e35ea83	-9.630556e-21
37	0x9a4b1944	-4.1999825e-23
38	0x9297e7fd	-9.586629e-28
39	0xa7612b1f	-3.1248399e-15

exp_avg_sq f4 [40]
0	0x1e3a96c1	9.877933e-21
1	0x000001f4	7e-43
2	0x105b0bdf	4.319928e-29
3	0x06a435f6	6.176923e-35
4	0x0c08d8cf	1.0542302e-31
5	0x069f2899	5.9868805e-35
6	0x000001f4	7e-43
7	0x000001f4	7e-43
8	0x0bbf127c	7.3598336e-32
9	0x0a280f4a	8.091781e-33
10	0x1773c786	7.876937e-25
11	0x000001f4	7e-43
12	0x1390e2f3	3.65745e-27
13	0x0950e244	2.5143479e-33
14	0x10893ca0	5.413038e-29
15	0x11163c5f	1.1851517e-28
16	0x1810994c	1.8688959e-24
17	0x000001f4	7e-43
18	0x000001f4	7e-43
19	0x13e46b86	5.7661318e-27
20	0x000001f4	7e-43
21	0x03ef6a05	1.4071498e-36
22	0x000001f4	7e-43
23	0x000001f4	7e-43
24	0x000001f4	7e-43
25	0x000001f4	7e-43
26	0x000001f4	7e-43
27	0x000001f4	7e-43
28	0x000001f4	7e-43
29	0x000001f4	7e-43
30	0x0011f2a4	1.648246e-39
31	0x000001f4	7e-43
32	0x0fc7da6d	1.970705e-29
33	0x000001f4	7e-43
34	0x000001f4	7e-43
35	0x000001f4	7e-43
36	0x0017e46d	2.19416e-39
37	0x000001f4	7e-43
38	0x000001f4	7e-43
39	0x10d42f97	8.369258e-29
