results/baseline_lstm_task1_seed42/model_lstm_ntask1_nchar2_seed42.pt (torch, 20479 bytes, 21 tensors)

embedding.weight f4 [2, 10]
00000000: a607 e9bf 77a8 81c0 707d 1fc0 2299 e03f
00000010: d18d ebbf d78e a6bf ec95 4840 8741 c93f
00000020: c369 bfc0 3a9f ccbf 3cc7 84bf e320 cfbf
00000030: 87f3 9940 42a0 d1bf 8536 623f a680 b9bf
00000040: 59a4 6140 b7be bbbf 7e5f 19c0 14fd 603f
-1.8205459 -4.0518146 -2.492031 1.7546732 -1.8402654 -1.3012341 3.1341505 1.5723122
-5.9816604 -1.5986092 -1.0373302 -1.6181911 4.8109775 -1.6377032 0.8836444 -1.4492385
3.525656 -1.4667577 -2.3964534 0.87886167

lstm.weight_ih_l0 f4 [40, 10]
00000000: 7bdc a4bf 6d43 2840 50df 3f40 21c0 953f
00000010: 4754 c9bf 707a 913f 8933 14c0 55ff 963f
00000020: 57c0 4140 8a51 a7bf 40eb 7340 2979 2bc0
00000030: 5972 34c0 9d36 1940 5e79 3ac0 e54d e23f
00000040: 4e5d 9540 f129 0440 9e6e 49c0 39dd dcbf
00000050: ccd2 49c0 275b 51c0 7251 f6bf 2bf1 bd40
00000060: 1f56 9ec0 7671 8140 fc12 8bc0 8c39 8c40
00000070: a1c9 0fbf 228e 8ec0 689c d03f 72a9 1540
00000080: c0a5 0f40 3b4c 05c0 f9e0 1340 1722 cebf
00000090: 3102 58bf 9320 21c0 2881 b23f 66a4 e23f
000000a0: b2ea 30c0 2a5d 52c0 c07c 0fc0 fd9a 5640
000000b0: d282 18c0 2dc9 4840 83bc 1cc0 cfe7 4e40
000000c0: a0ed 3fc0 e5be 44c0 d5db 3cc0 cc28 8b40
000000d0: 8bd5 7240 05ff 6940 9796 5fc0 5c6f 5140
000000e0: 0998 75c0 b4cb 4e40 d73f 8440 b955 40c0
000000f0: 4d8f 49bf 5e3b 8240 72e1 8f40 6fcb 943e
00000100: 8985 a0bc cd0c 5e3f 3302 7cbf 8224 ec3e
00000110: 16f0 7c40 9ad9 e1bf cdd3 7ebf 1e8b 27c0
00000120: 8090 3bc0 ccea e83f 5c30 08c0 7ab5 a9c0
00000130: e877 6b40 c906 e83f 8497 55c0 551b a9bf
00000140: b9d0 8240 b8e8 7a40 9739 3540 778f 43c0
00000150: 781a 6040 13a3 54c0 8429 f5bf 02de 6bc0
00000160: 9809 9740 54ae 4b40 13e1 ab3e 1a64 4140
00000170: e446 9e40 9f1b a0bf fe8f 163f 388e 84be
00000180: 7e2d f03f 13b5 48bf 2708 9340 e84e 7abe
00000190: 6358 8740 d54f e4bf 2de2 2bc0 8aa7 46c0
000001a0: 733f 4d40 3a80 86c0 d348 6140 b470 8cc0
000001b0: 01ed 24c0 f451 8840 25df 0840 f77a 11c0
000001c0: d54a 26c0 bd7a 1640 e9d2 fabf 6780 a43f
000001d0: 1591 8840 80c9 0840 ad7d 29c0 6115 d5bf
000001e0: 2e9f 0dc0 c57f 6b40 3f49 7340 1333 2f40
000001f0: c39d 09c0 c90f 3240 50be 83c0 e740 1f40
00000200: 2b8f 6640 d3bd 28c0 14dd 283f eeb5 cb3f
00000210: 38b1 233f 4f83 76bf b356 a73f aabb 8dbf
00000220: 776c 87be dfa2 b0bf 4fe6 6c3f 1ab5 8c3e
00000230: d82e b6bf aa7c 103f 3291 3dbf fdae 7f3f
00000240: 1333 98bf 7a3e 9f3f ab62 13c0 62cd 8e3f
00000250: cb19 d83e 61b2 b3bf 466e 1cc0 9b26 7d40
00000260: 4605 8540 2d31 2c40 d46f 37c0 eea3 1d40
00000270: f722 57c0 c420 3640 77b1 8640 9fea 29c0
00000280: f4a4 a9bf e4e2 8b40 5a26 8940 1f45 c83f
00000290: 2275 aebf 3ee7 1a40 5d3f e0bf 4acd bc3f
000002a0: ff14 8e40 238d 2cc0 ef60 6f40 438e 06c0
000002b0: e211 31c0 1f8b e2bf f0a5 0640 45ec 96c0
000002c0: b64c 7940 1718 7cc0 6529 51c0 e029 7b40
000002d0: 505c 2040 f0b5 7bc0 6c87 99c0 c326 ecbf
000002e0: 8225 2f40 8e7c cbbf 9d47 f33f 62a2 e3bf
000002f0: 4416 65c0 e642 c83f 16b2 8a3f 109d 3440
00000300: ae00 9f40 c356 09c0 5891 ca3f 06d6 e9bf
00000310: d503 0540 da65 01c0 3c8c 6b40 812c 963f
00000320: 6d98 bebd 073f 6e3c c98e 393d c800 083f
00000330: 38d1 bbbe d9cb 973f 3883 88bf 087e d83e
00000340: a8f5 cebe 1eab f6be c891 f1bf 30a9 1bbf
00000350: 7629 a23e 25c2 fd3f f817 ecbf 908d 1e40
00000360: 8faf 18c0 b1cb 0240 5dbe 6fbc faa3 2fc0
00000370: 5f1c 1140 12ca 7dc0 2dc0 65c0 ceb7 0fc0
00000380: b168 1440 d1aa 3ec0 5641 5b40 1425 12c0
00000390: e7b2 67c0 74ab 0b40 2fb7 2ac0 6936 01c0
000003a0: 46b8 40c0 a69f 1f40 4a49 2fc0 9ea0 5740
000003b0: 791b a8c0 424e 2940 5234 1dc0 8368 36c0
000003c0: 1aa0 ce3e 8a43 b8bf eb02 26c0 0950 47bf
000003d0: 044c debd f7a6 a4bf 6c93 0540 6a77 3abf
000003e0: c346 2fc0 b71e 0d40 b838 3540 839f 8340
000003f0: e9f3 a140 2621 56c0 4058 3a40 fa7c 27c0
-1.2879785 2.6291153 2.998005 1.1699258 -1.5728844 1.136549 -2.3156455 1.1796671
3.0273645 -1.3071759 3.8112335 -2.67927 -2.8194792 2.3939583 -2.9136577 1.7680022
4.6676397 2.06506 -3.1473765 -1.7255012 -3.153491 -3.2711885 -1.9243605 5.9356894
-4.948013 4.0451 -4.3460674 4.382025 -0.56167036 -4.45485 1.6297731 2.3384671
2.2444916 -2.0827777 2.3106062 -1.6104153 -0.84378344 -2.5176132 1.3945665 1.770642
-2.7643247 -3.2869363 -2.2419891 3.3532097 -2.3829846 3.1372788 -2.4490058 3.2328985
-2.9988785 -3.0741513 -2.9509175 4.34873 3.7942836 3.6561902 -3.4935663 3.2724218
-3.8374045 3.231183 4.132793 -3.005232 -0.78734285 4.069747 4.49627 0.29061458
-0.019594925 0.8673828 -0.98440856 0.46121603 3.9521537 -1.7644532 -0.9954193 -2.617866
-2.9306946 1.8196654 -2.1279516 -5.303403 3.6791935 1.8127071 -3.3373728 -1.3211466
4.087979 3.920454 2.83164 -3.0556314 3.5016155 -3.3224533 -1.9153295 -3.6854253
4.719921 3.1825151 0.33570156 3.0217347 4.9461536 -1.2508429 0.58813465 -0.25889754
1.8763883 -0.784013 4.594745 -0.24444163 4.2295394 -1.7836863 -2.6856797 -3.1039758
3.2069976 -4.2031527 3.5200698 -4.3887577 -2.5769656 4.260004 2.1386197 -2.2731302
-2.5983174 2.3512414 -1.9595615 1.2851685 4.26771 2.1372986 -2.6482956 -1.6647149
-2.2128406 3.6796734 3.8013456 2.7374923 -2.150254 2.7822134 -4.1169815 2.4883363
3.6024883 -2.636586 0.6596234 1.5914896 0.6394229 -0.9629411 1.3073334 -1.1072896
-0.2644994 -1.3799704 0.92538923 0.2748192 -1.4233046 0.5644022 -0.74049675 0.99876386
-1.1890587 1.2440941 -2.3028972 1.1156428 0.42207178 -1.4038812 -2.4442306 3.9554813
4.1568937 2.6905015 -2.8662004 2.4631305 -3.361509 2.8457499 4.209163 -2.6549451
-1.3253465 4.3714466 4.2859316 1.5646094 -1.3629496 2.420364 -1.7519337 1.4750149
4.440063 -2.6961143 3.7402914 -2.102433 -2.7667165 -1.7698706 2.103878 -4.7163415
3.895307 -3.9389703 -3.2681515 3.9244308 2.5056343 -3.9329796 -4.797781 -1.8449329
2.7366643 -1.5897386 1.900623 -1.778393 -3.579484 1.5645416 1.0835598 2.8220863
4.968833 -2.1459205 1.5825605 -1.826844 2.078359 -2.0218415 3.6804342 1.1732332
-0.09306417 0.014541394 0.045302186 0.5312619 -0.3668306 1.1859084 -1.0665045 0.42283654
-0.40421796 -0.48177427 -1.8872614 -0.60805035 0.31672257 1.9824873 -1.8444815 2.4773903
-2.3857152 2.0436823 -0.0146327885 -2.7443833 2.2673566 -3.9654584 -3.5898545 -2.2455935
2.3188899 -2.9791758 3.4258628 -2.283513 -3.6202943 2.1823397 -2.6674306 -2.018946
-3.0112472 2.4941192 -2.7388482 3.3691783 -5.2533536 2.6454015 -2.4563184 -2.850129
0.40356523 -1.4395611 -2.593928 -0.778565 -0.108543426 -1.2863454 2.087123 -0.7283846
-2.738694 2.2049997 2.8315868 4.1132216 5.061024 -3.3457732 2.9116364 -2.617003

lstm.weight_hh_l0 f4 [40, 10]
00000000: 84e7 4340 9695 83bf db9c a6bf ec57 153f
00000010: 8441 c1bc 959f 17c0 164c 6740 50f0 eabf
00000020: d733 a2bf 4991 7040 8d5e d3be fadf 7640
00000030: 1d31 2940 5c91 85be 3fb2 9b3f 6f6e d0be
00000040: f272 4dbe 1b10 79be f17d 4b40 3423 babe
00000050: 9d31 7940 879f e53e 4165 55c0 c643 7abf
00000060: 585d f9be b3e9 82c0 61a4 0f40 9cdc 7fc0
00000070: 08a0 d5bf 73c8 62c0 5e2c 273f 1a11 243f
00000080: 7e1a 0cbf 1c51 30bf 3c20 0ec0 f99a 2abf
00000090: 6a5d 2fbf f84c 73bf 6b4d 0bc0 8c39 82bf
000000a0: 3cd6 053f 4d96 893f 935e 8c3f 15dd 7abf
000000b0: 6046 0f40 2d22 53be 8fa3 59bf 98ca 82be
000000c0: 0adf 3140 4a3a d73b efba 8a40 69d0 8dc0
000000d0: b447 6140 6282 4c40 b096 e3bd f4bd 18c0
000000e0: 2921 ac40 e939 c9bf 68f5 94c0 5f2a 8940
000000f0: 2e00 6240 0670 3fc0 aa66 6040 66b6 06c0
00000100: 9b8c 0ebf 027f 47c0 2639 ef3f eaf8 89c0
00000110: 133e 4cc0 51a1 91c0 9dd3 e33e be20 8140
00000120: c249 6b40 7f89 5c3e 1eac fe3c 85bb 06bf
00000130: 3e82 efbc da33 3cc0 779d 7540 cbf9 8a3e
00000140: 956c c0bf cada 3ec0 4351 5140 1666 0ec0
00000150: 577b ba3f bac9 893f d800 3fc0 453d 543f
00000160: f9f8 8dbf 196e 29c0 5635 0f40 6034 74c0
00000170: 24f2 2a40 bbea fe3e e2fa 7ac0 63a6 eabf
00000180: a74f ba3f f00f 43c0 3bc1 c2c0 8f12 5b3e
00000190: e498 bebe 1f5f 4a40 0eaa 4b40 fb04 fe3e
000001a0: 4256 0a3f 0202 bcbd 04f2 3f3f 3e9e 073f
000001b0: e0b1 5940 b596 073f 400c b33e 8f87 2340
000001c0: 016b ef3f 2877 8bbf 78d6 ff3d 0036 b5be
000001d0: 8488 e7be edca b1be a789 3340 1fd6 58bf
000001e0: 566f 6d40 b19e 0ec0 6b1e 2740 1f62 9dbf
000001f0: b115 a3bf f825 7cc0 98e6 0b40 5da4 90c0
00000200: 3229 89c0 3696 41c0 2ec7 8d3f 301f 033f
00000210: d162 74bf 16f6 3dbf f39b 8cbf 0b59 69bf
00000220: d3ce 44bf b790 1bbf 894b 90bf 953a 19bf
00000230: 811b 363f 2122 303f f182 eb3f 129d f1be
00000240: 6139 0fbd a2f3 9abf 0bab 6cbf 583c 36bf
00000250: 309a 3abe 49cb 2ebf 4f57 6540 4584 7bc0
00000260: 609a 6040 1ea6 6c40 be60 2dbe 1b55 cdbf
00000270: 3bca a040 b299 53c0 1508 7ac0 bc9e 8f40
00000280: 3993 5440 2b5f 3ec0 f8aa 0f40 aa2a c7bf
00000290: 104b 1fbf 81ad 42c0 fb67 373f 7511 5fc0
000002a0: 11bc 83c0 6c65 81c0 fb19 10bc 6cd8 8640
000002b0: e33f 6240 0fc7 3a3e eedc 4cbe 889a 09bf
000002c0: dcc1 fa3e fdc0 d6be 9535 4340 2622 343f
000002d0: c583 6bc0 1edb 6040 33c2 db3f af1b 0abf
000002e0: 9422 e1bd 8f42 6d40 b459 99c0 0678 5040
000002f0: 782c 7140 c3fe a6c0 ca9d 583f a8f1 39c0
00000300: c08e 0dc0 1722 f23e 62b0 43c0 7a0b f0be
00000310: 4de6 463e 2541 3ebf c915 77c0 a932 8e3f
00000320: 733c 3c3f 7b20 47be 04a1 67be 0660 cdbe
00000330: 6e89 31bf 9531 54bf eac8 99bd 3ef4 81bf
00000340: de7d 26be 3a14 08bf 8872 0d3c ed37 93bf
00000350: 2bf4 b0be 56af c73d 3358 0a3f 54e7 363f
00000360: 855a 583e b462 823e 338a 833d 17fc e43e
00000370: bdc7 3cc0 da54 0e40 f4d8 62c0 c6f0 8cbf
00000380: e7be 8abf 226f 5440 0263 6ac0 834e 5540
00000390: 6ba2 2540 a27f 63c0 8b51 6140 9e76 17c0
000003a0: 4c67 6bc0 29e1 d63f 1d8f 0bbf ca26 66c0
000003b0: 54f3 2440 8cb9 bb3f ef3c 2dc0 331b 2040
000003c0: 6653 9bbe 5e10 4440 8342 f9bf 9a56 fcbe
000003d0: 6e56 8b3e 939d 9e3e a7ee 80bf 9f36 813f
000003e0: 609b f03f 6193 743e ce4e 8abe 47ac 813e
000003f0: 8c43 3b40 3780 3bc0 470c 2e3f a853 2abf
3.0610056 -1.0280025 -1.3016618 0.58337283 -0.02359081 -2.369115 3.614019 -1.8354588
-1.267207 3.7588675 -0.41283074 3.8574204 2.6436226 -0.26087463 1.2163771 -0.40709254
-0.2006338 -0.2432255 3.1795619 -0.36354983 3.8936532 0.44848272 -3.334305 -0.97759664
-0.48704028 -4.0910277 2.244408 -3.99784 -1.6689463 -3.5434844 0.65302074 0.64088595
-0.54727924 -0.68873763 -2.2207174 -0.6664272 -0.68501914 -0.9503932 -2.1766002 -1.0173812
0.5228002 1.0748993 1.0966362 -0.97993594 2.2386703 -0.20618506 -0.85015196 -0.25545192
2.7792382 0.006568228 4.335319 -4.4316907 3.5200014 3.195458 -0.11112726 -2.3865938
5.379048 -1.5720798 -4.654957 4.2864223 3.531261 -2.9912124 3.506266 -2.1048827
-0.55683297 -3.117127 1.8689315 -4.311635 -3.1912887 -4.550942 0.44497386 4.035247
3.6763768 0.21536826 0.031087931 -0.5262988 -0.029236909 -2.9406648 3.837736 0.27143702
-1.5033137 -2.9821038 3.2705848 -2.2249808 1.456889 1.0764687 -2.9844265 0.8290599
-1.1091605 -2.6473448 2.2376304 -3.8156967 2.671029 0.4978846 -3.9215627 -1.8332027
1.4555558 -3.0478477 -6.0860877 0.21393798 -0.3722602 3.1620557 3.1822543 0.49613175
0.5403787 -0.091800705 0.7497866 0.52975833 3.4014816 0.52964336 0.34970284 2.5551488
1.870453 -1.0895739 0.124920785 -0.3539276 -0.4522134 -0.34725133 2.8052766 -0.8470172
3.7099204 -2.2284358 2.6112316 -1.2295569 -1.2740995 -3.9398174 2.1859493 -4.520064
-4.2862787 -3.0247931 1.107641 0.51219463 -0.9546328 -0.7420362 -1.0985092 -0.91151494
-0.7687809 -0.6076769 -1.1273052 -0.59855014 0.7113572 0.68802077 1.8399335 -0.47190148
-0.03496683 -1.2105601 -0.9244849 -0.7118583 -0.1822288 -0.6827894 3.583454 -3.929948
3.5094223 3.697639 -0.16931435 -1.6041597 5.0246863 -3.3062558 -3.9067433 4.4881268
3.3214858 -2.9745586 2.24481 -1.5559895 -0.6222391 -3.0418398 0.71643037 -3.4854405
-4.1167073 -4.0436306 -0.008795257 4.2139187 3.5351493 0.18239997 -0.20006153 -0.5375142
0.48976028 -0.41944113 3.0501454 0.70364606 -3.6799176 3.5133739 1.716864 -0.5394849
-0.109929234 3.7071874 -4.7922 3.2573256 3.7683392 -5.218599 0.84615767 -2.9053745
-2.2118378 0.47291633 -3.0576406 -0.46883756 0.1942379 -0.7431815 -3.8607047 1.110921
0.7352974 -0.19445984 -0.22620016 -0.40112323 -0.69350326 -0.82888156 -0.075090244 -1.0152662
-0.16258952 -0.53155863 0.008633263 -1.1501442 -0.34561285 0.097502396 0.5404083 0.7144673
0.2112828 0.2546593 0.06422844 0.4472358 -2.949691 2.223929 -3.5444918 -1.1010978
-1.0839509 3.319283 -3.662293 3.332917 2.5880382 -3.554665 3.520602 -2.3666148
-3.6781797 1.6787463 -0.5451525 -3.5961175 2.5773516 1.4666 -2.706844 2.50166
-0.30337065 3.063499 -1.9473423 -0.49284822 0.27214378 0.30979595 -1.0072831 1.0094794
1.8797417 0.23884346 -0.27013248 0.2532675 2.9259977 -2.9297006 0.67987484 -0.665339

lstm.bias_ih_l0 f4 [40]
00000000: 24a6 f3bf 9ce5 5540 e957 663f 5e2b dcbf
00000010: 839d 2a40 459f 93c0 c89e 4ac0 05f4 3c40
00000020: 4159 03bf 6d92 a5bf 1a42 6940 cc47 5b40
00000030: e2ff 58c0 e99b 473d 5e4b 863f d2a3 30c0
00000040: db15 2ac0 a48d 5d40 f417 9a40 a01b a6bf
00000050: a7dd 91be bea9 e93e 3c9e 7540 50ea 2dc0
00000060: 1c0e 6d3f 67e8 f23d be4b 8bbe 439e 03bf
00000070: 9e5f 7f40 4479 2f3f e0de 61c0 5615 7540
00000080: 6a0e 90c0 e831 edbf 7e81 47c0 7024 67c0
00000090: db9a 23bf c428 853f ff60 bd3f 626f 1cbf
-1.9035077 3.3421392 0.8997789 -1.7200735 2.6658638 -4.613192 -3.1659412 2.9523938
-0.51308066 -1.2935311 3.6446595 3.4262571 -3.3906178 0.048732672 1.049175 -2.7599988
-2.657584 3.46177 4.815424 -1.297718 -0.2848942 0.45637316 3.8377829 -2.7174263
0.92599654 0.118607335 -0.27206224 -0.51413363 3.990211 0.6854441 -3.5292282 3.8294272
-4.5017595 -1.8530855 -3.1172786 -3.611599 -0.63908166 1.0403066 1.4795226 -0.61107457

lstm.bias_hh_l0 f4 [40]
00000000: 24a6 f3bf 9ae5 5540 f157 663f 612b dcbf
00000010: 829d 2a40 459f 93c0 c79e 4ac0 05f4 3c40
00000020: 4159 03bf 7392 a5bf 1a42 6940 ce47 5b40
00000030: e5ff 58c0 149c 473d 5d4b 863f d0a3 30c0
00000040: dc15 2ac0 a68d 5d40 f417 9a40 a01b a6bf
00000050: a5dd 91be b5a9 e93e 3c9e 7540 50ea 2dc0
00000060: 1c0e 6d3f 4ae8 f23d c24b 8bbe 429e 03bf
00000070: 9b5f 7f40 3d79 2f3f e0de 61c0 5315 7540
00000080: 690e 90c0 e831 edbf 7c81 47c0 7124 67c0
00000090: d99a 23bf c128 853f 0361 bd3f 6c6f 1cbf
-1.9035077 3.3421388 0.8997794 -1.7200738 2.6658635 -4.613192 -3.165941 2.9523938
-0.51308066 -1.2935318 3.6446595 3.4262576 -3.3906186 0.048732832 1.0491749 -2.7599983
-2.6575842 3.4617705 4.815424 -1.297718 -0.28489414 0.4563729 3.8377829 -2.7174263
0.92599654 0.11860712 -0.27206236 -0.5141336 3.9902103 0.6854437 -3.5292282 3.8294265
-4.501759 -1.8530855 -3.117278 -3.6115992 -0.63908154 1.0403062 1.4795231 -0.61107516

output_proj.weight f4 [2, 10]
00000000: 4738 c1bf 564f 28c0 50bf 3bc0 a2e3 ac40
00000010: 5884 c0be df74 e73f fa45 5540 dd21 5f40
00000020: d16c b8bf 9ca8 f940 8746 ad3f 097b 3140
00000030: d1ee 3240 a6f6 7ac0 8892 b53e 1dbe f3bf
00000040: 026d 51c0 ba98 3cc0 1399 c53f fc74 cdc0
-1.50953 -2.6298423 -2.9335518 5.402787 -0.3760097 1.8082541 3.332396 3.4864419
-1.4408208 7.801832 1.3537148 2.7731345 2.7958262 -3.9213042 0.35463357 -1.9042393
-3.2722783 -2.9468217 1.543734 -6.4205303

output_proj.bias f4 [2]
00000000: 8310 7c40 9710 7cc0
3.9385078 -3.9385126

exp_avg f4 [2, 10]
00000000: 0768 3f20 4bcd 979f 162a c71f 6450 06a0
00000010: a8e7 1f20 5c4e 27a0 dcd8 9a20 2c08 16a0
00000020: 920a 639f 57cb 3c20 a9ab b128 2ccb 38aa
00000030: eabb 4baa 89b3 7da7 dcbe 0ba8 7c2a f2a8
00000040: 0a4a 1c29 4888 0ca8 9818 30aa 27d2 8929
1.6212749e-19 -6.4290616e-20 8.4349404e-20 -1.137684e-19 1.3544472e-19 -1.4171377e-19 2.623212e-19 -1.2708198e-19
-4.8077863e-20 1.5991499e-19 1.9725393e-14 -1.6412972e-13 -1.8095218e-13 -3.520813e-15 -7.757436e-15 -2.6885822e-14
3.4703177e-14 -7.8011125e-15 -1.5640473e-13 6.120478e-14

exp_avg_sq f4 [2, 10]
00000000: 231b 571f 3234 201f 473a 4a1d 2dbd 381f
00000010: 8630 151f 3f14 ae1d b125 4f1d 9bcb 331f
00000020: 89a5 4a1e 78a0 631f 65e6 0d18 745a 6d17
00000030: ae43 2617 a9a2 4618 25a8 8a17 e1bc 1d17
00000040: 6245 1219 4fb0 df17 8718 0018 062a 6617
4.5550468e-20 3.3924493e-20 2.6764606e-21 3.9119998e-20 3.1592115e-20 4.607835e-21 2.7415708e-21 3.8073143e-20
1.0728023e-20 4.8201856e-20 1.8340142e-24 7.6693e-25 5.3722917e-25 2.5673023e-24 8.960487e-25 5.0967835e-25
7.562035e-24 1.4455544e-24 1.6555995e-24 7.437005e-25

exp_avg f4 [40, 10]
00000000: 8664 6491 3f24 b291 0068 8412 1a4a b491
00000010: 1d8e 4211 c08a 9f91 6710 4212 7b78 a191
00000020: b5e8 0392 9080 4111 8343 56a5 161f a7a5
00000030: 386e 7826 e622 a9a5 fc84 3625 1fac 95a5
00000040: 0c0f 3626 4d7b 97a5 6e7f f7a5 2288 3525
00000050: 0400 0000 0400 0000 0400 0080 0400 0080
00000060: 0400 0000 0400 0080 0400 0000 0400 0080
00000070: 0400 0080 0400 0000 6061 9927 6144 ef27
00000080: b2d6 b1a8 e826 f227 03a8 82a7 1449 d627
00000090: 9553 82a8 37e0 d827 b92b 3128 fdf2 81a7
000000a0: 7b25 481f 2f1c 9c1f e30f 68a0 0afe 9d1f
000000b0: 647e 2a9f 90cf 8b1f 3910 2aa0 3a80 8d1f
000000c0: ca30 e71f 2d92 299f 87fd 5c80 aa0f 9180
000000d0: 32a3 5701 6bcf 9280 a036 4f00 56ea 8180
000000e0: e106 1e01 607c 8380 ded3 d680 e2c8 4e00
000000f0: ea9e 3129 628a 8a29 c6f1 4daa 0136 8c29
00000100: 2a4e 17a9 bd26 7829 66ec 16aa ae26 7b29
00000110: ca2b cd29 8b7c 16a9 0400 0000 0400 0000
00000120: 0400 0000 0400 0080 0400 0000 0400 0000
00000130: 0400 0080 0400 0080 0400 0000 0400 0000
00000140: 361d 0a12 cc73 5712 5223 2093 d00c 5a12
00000150: b94d eb91 08f5 4012 adb5 ea92 2b4a 4312
00000160: 5e89 9f12 b607 ea91 ba70 2126 1ed7 7b26
00000170: 112f 3ba7 75e0 7e26 ab85 09a6 c08b 6126
00000180: cd2c 09a7 be45 6426 1c7b ba26 23c7 08a6
00000190: 0400 0080 0400 0080 0400 0080 0400 0000
000001a0: 0400 0080 0400 0000 0400 0000 0400 0000
000001b0: 0400 0080 0400 0080 975b 4f26 20bc a126
000001c0: 616c 70a7 54af a326 fda2 30a6 25d9 9026
000001d0: db30 30a7 6799 9226 4385 ef26 47ae 2fa6
000001e0: 0400 0080 0400 0080 0400 0080 0400 0000
000001f0: 0400 0080 0400 0000 0400 0000 0400 0000
00000200: 0400 0080 0400 0080 0af6 8724 fd17 d424
00000210: 43a4 9da5 a5a6 d624 b0a2 67a4 fff2 bd24
00000220: 040d 67a5 d23e c024 b40c 1d25 c361 66a4
00000230: f2dc 0b21 1b76 8121 ab81 8ca1 0e60 8220
00000240: c641 a49e 11a3 1921 495a baa1 1b6d 6920
00000250: 8368 bf21 8e51 4e9f 0400 0080 0400 0080
00000260: 0400 0080 0400 0000 0400 0080 0400 0000
00000270: 0400 0000 0400 0000 0400 0080 0400 0080
00000280: 24f7 8c1f 77e6 db1f a671 a3a0 338d de1f
00000290: 4a29 709f cff0 c41f 1a8e 6fa0 4452 c71f
000002a0: 87d4 2220 90dc 6e9f 0400 0000 0400 0000
000002b0: 0400 0000 0400 0080 0400 0000 0400 0080
000002c0: 0400 0080 0400 0080 0400 0000 0400 0000
000002d0: 0400 0080 0400 0000 0400 0000 0400 0000
000002e0: 0400 0080 0400 0000 0400 0080 0400 0000
000002f0: 0400 0000 0400 0080 0400 0000 0400 0080
00000300: 0400 0080 0400 0080 0400 0000 0400 0080
00000310: 0400 0000 0400 0080 0400 0080 0400 0000
00000320: 6d41 0108 67da 4908 fd5e 1589 9c39 4b08
00000330: 3efb da87 125b 3408 f060 db88 1203 3608
00000340: 0e77 9508 5ee1 d987 0400 0000 0400 0000
00000350: 0400 0000 0400 0080 0400 0000 0400 0000
00000360: 0400 0080 0400 0080 0400 0000 0400 0000
00000370: 0400 0080 0400 0000 0400 0000 0400 0000
00000380: 0400 0080 0400 0000 0400 0080 0400 0000
00000390: 0400 0000 0400 0080 0400 0000 0400 0000
000003a0: 0400 0000 0400 0080 0400 0000 0400 0080
000003b0: 0400 0000 0400 0080 0400 0000 0400 0000
000003c0: 0400 0080 0400 0000 0400 0000 0400 0000
000003d0: 0400 0080 0400 0000 0400 0080 0400 0000
000003e0: 0400 0000 0400 0080 0400 0080 0400 0080
000003f0: 0400 0080 0400 0000 0400 0080 0400 0000
-1.8017005e-28 -2.8105787e-28 8.356009e-28 -2.844466e-28 1.5347694e-28 -2.5171288e-28 6.1235824e-28 -2.5475573e-28
-4.1623145e-28 1.5264632e-28 -1.8584415e-16 -2.8990947e-16 8.619166e-16 -2.9340475e-16 1.583104e-16 -2.5964014e-16
6.3164327e-16 -2.6277876e-16 -4.293402e-16 1.5745371e-16 6e-45 6e-45 -6e-45 -6e-45
6e-45 -6e-45 6e-45 -6e-45 -6e-45 6e-45 4.2571605e-15 6.6409962e-15
-1.9744057e-14 6.7210675e-15 -3.6264407e-15 5.9476163e-15 -1.4469147e-14 6.0195138e-15 9.834955e-15 -3.606814e-15
4.238265e-20 6.6115196e-20 -1.9656421e-19 6.691236e-20 -3.6103448e-20 5.921217e-20 -1.4404928e-19 5.9927956e-20
9.791302e-20 -3.5908056e-20 -8.539814e-39 -1.3321766e-38 3.960635e-38 -1.348239e-38 7.2746e-39 -1.1930843e-38
2.9024952e-38 -1.2075067e-38 -1.97288e-38 7.235232e-39 3.943973e-14 6.152437e-14 -1.829154e-13 6.226617e-14
-3.3596532e-14 5.5100662e-14 -1.3404693e-13 5.5766745e-14 9.111425e-14 -3.3414715e-14 6e-45 6e-45
6e-45 -6e-45 6e-45 6e-45 -6e-45 -6e-45 6e-45 6e-45
4.3581127e-28 6.798477e-28 -2.0212253e-27 6.8804464e-28 -3.7124363e-28 6.088654e-28 -1.4812263e-27 6.162257e-28
1.0068174e-27 -3.6923443e-28 5.601087e-16 8.7374657e-16 -2.5976978e-15 8.842815e-16 -4.7712577e-16 7.8251953e-16
-1.9036856e-15 7.919791e-16 1.2939712e-15 -4.745436e-16 -6e-45 -6e-45 -6e-45 6e-45
-6e-45 6e-45 6e-45 6e-45 -6e-45 -6e-45 7.194168e-16 1.1222611e-15
-3.3365443e-15 1.135792e-15 -6.1283157e-16 1.0050864e-15 -2.4451391e-15 1.0172365e-15 1.6620077e-15 -6.095151e-16
-6e-45 -6e-45 -6e-45 6e-45 -6e-45 6e-45 6e-45 6e-45
-6e-45 -6e-45 5.8963724e-17 9.198098e-17 -2.7346467e-16 9.309001e-17 -5.0227942e-17 8.2377336e-17
-2.0040466e-16 8.337315e-17 1.3621883e-16 -4.9956107e-17 4.738745e-19 8.772642e-19 -9.521092e-19 2.208642e-19
-1.7391379e-20 5.2054233e-19 -1.2627749e-18 1.9771968e-19 1.2970327e-18 -4.3689657e-20 -6e-45 -6e-45
-6e-45 6e-45 -6e-45 6e-45 6e-45 6e-45 -6e-45 -6e-45
5.9701166e-20 9.313138e-20 -2.768848e-19 9.425425e-20 -5.085613e-20 8.340761e-20 -2.0291105e-19 8.4415875e-20
1.3792253e-19 -5.0580905e-20 6e-45 6e-45 6e-45 -6e-45 6e-45 -6e-45
-6e-45 -6e-45 6e-45 6e-45 -6e-45 6e-45 6e-45 6e-45
-6e-45 6e-45 -6e-45 6e-45 6e-45 -6e-45 6e-45 -6e-45
-6e-45 -6e-45 6e-45 -6e-45 6e-45 -6e-45 -6e-45 6e-45
3.8896433e-34 6.074297e-34 -1.7979886e-33 6.115581e-34 -3.2948661e-34 5.4273832e-34 -1.3203373e-33 5.477224e-34
8.995601e-34 -3.278299e-34 6e-45 6e-45 6e-45 -6e-45 6e-45 6e-45
-6e-45 -6e-45 6e-45 6e-45 -6e-45 6e-45 6e-45 6e-45
-6e-45 6e-45 -6e-45 6e-45 6e-45 -6e-45 6e-45 6e-45
6e-45 -6e-45 6e-45 -6e-45 6e-45 -6e-45 6e-45 6e-45
-6e-45 6e-45 6e-45 6e-45 -6e-45 6e-45 -6e-45 6e-45
6e-45 -6e-45 -6e-45 -6e-45 -6e-45 6e-45 -6e-45 6e-45

exp_avg_sq f4 [40, 10]
00000000: faef 5015 8581 9b14 272f c816 58eb 7214
00000010: 9772 6114 9aed fa14 7808 bb15 62aa dc14
00000020: 827c 4b16 adbc e814 b300 2116 13ee e919
00000030: 6ad3 971a 63d6 3618 7ae1 e216 8047 4916
00000040: 2dbb e418 2dfb 5d17 6c98 0a1a 695d 5a16
00000050: 1f40 c117 3a3b 8b17 a9d3 6219 3ba5 d316
00000060: ab79 c416 6cd5 7417 547c 4818 9425 4f17
00000070: e185 e418 a0bf 6617 ba4d 1a13 b540 1913
00000080: d6c1 ed13 2810 aa13 837c 9e12 1e46 5913
00000090: dcd7 9514 dac2 d413 2605 1b13 7bac 6913
000000a0: 225b 0a14 ae55 cc13 40d3 d914 a4db 7c14
000000b0: 15c5 6d14 1392 0d14 f8a0 0e12 2497 4c14
000000c0: 3193 e213 c187 0e14 e364 5019 8e92 eb17
000000d0: 6687 431a 4b69 8518 3d92 9518 5df5 de18
000000e0: f748 bf19 cf6a ef18 fbf1 c119 7dad 8418
000000f0: af8c 8717 e5fc 9f16 5a3f 0019 ad80 9016
00000100: 38a9 9116 d827 2c17 7c13 0218 689c 1517
00000110: fed0 8018 c9ed 1a17 9e2b 0814 6bd4 0f18
00000120: 39c8 2f19 95b8 8116 1441 8616 2a89 bf14
00000130: 13dd b418 d1c1 9115 f2fa f818 215a 8a15
00000140: bd5f ea1c c38c 931d 2d73 db1c 8683 0f1d
00000150: 83cc 0c1d 5e88 841a c132 841d 30c2 df1c
00000160: 75df e51d d938 f41c dc82 aa15 c947 1c15
00000170: 82b0 cb16 2cba 8e15 7bd7 e414 f736 9715
00000180: fce8 8416 1487 ce15 f6ba 5116 7d8c 9015
00000190: 11c0 b412 b807 4213 6a6d bc14 e459 1e11
000001a0: 96d6 4d11 600f 3e12 8e52 9413 2295 d811
000001b0: 3452 4214 6646 2012 7e8e 5615 9b46 0b18
000001c0: 312f b818 40c8 7b16 b2ab 5215 7fd3 1815
000001d0: 3704 1917 3855 bc15 f4de 2618 897a bd14
000001e0: 95b7 6b17 75f6 9116 2e98 ec18 6bf8 6d16
000001f0: 53a6 7016 6856 1717 1242 e017 3e02 0017
00000200: 1fb3 6e18 7c1c 0e17 dd2d 3512 3612 7e11
00000210: ee91 7712 ab04 f111 ed81 b411 1ff8 5411
00000220: 0348 6b10 bde9 a711 72f2 2e12 8d68 1611
00000230: 1102 e411 1a58 8f10 7dc8 2112 2fb1 b511
00000240: c4dd ab11 4695 8911 4f56 ee10 2bb1 ab11
00000250: bd7b f210 0dba 1811 2905 c518 c3b8 d917
00000260: 4afb 301a 6856 d117 f63c d917 11b3 7418
00000270: 9034 3a19 0e72 5818 4b3e b219 c275 5718
00000280: e5b3 8a15 1549 a914 cc89 0817 f530 8f14
00000290: 0bf8 8e14 0466 3215 c0fc 0116 4d63 1715
000002a0: 29ba 8916 be11 2515 72ed 5812 72ca d712
000002b0: a596 4914 4e59 3811 d673 3211 8fc8 c311
000002c0: 4574 2513 733c 8d11 1796 d313 4279 ae11
000002d0: a02c 9419 17de c118 6759 161b 9089 9418
000002e0: 05a5 9618 03ee 3d19 5b08 0e1a 794b 2019
000002f0: 3bbb 971a 7245 3219 b885 dc13 5366 8113
00000300: 5006 1914 b625 4d14 abf5 2613 79b0 1914
00000310: a935 2f15 2cc9 8a14 304d 9513 6f6c 1f14
00000320: b7a7 7715 6fd3 d814 e6b9 9615 0f6e b214
00000330: f166 4a15 5878 2714 26fe 1014 b3bd a714
00000340: 740c b615 57a0 ab14 3801 0017 04e4 0316
00000350: 4b54 2217 6609 a616 eb10 4116 fc92 e615
00000360: 2da4 4415 b63c 6216 1e3f c416 5212 3315
00000370: 7a3a d91e 787a 061e 0e1f 5a20 8b1e db1d
00000380: 04b0 dd1d 0381 8b1e f8c3 4e1f 92f3 6b1e
00000390: 8d0e dc1f 8f03 831e 4ae3 c318 c8f0 c015
000003a0: b517 4717 56e0 2e18 bafd 5218 5252 f817
000003b0: 4e7f e318 7df5 7718 98b8 8916 7d83 3e17
000003c0: 8c8d c313 37e7 5913 5830 8514 42d3 f112
000003d0: f650 b313 4280 8413 9a2b 1e13 9a9a 3313
000003e0: c9af 2514 f541 6b12 dda1 9418 0aa3 8b16
000003f0: 32c4 e218 6311 d817 01ef f817 361a 0c18
4.2194574e-26 1.5702087e-26 3.23415e-25 1.2264291e-26 1.1382196e-26 2.5337266e-26 7.554206e-26 2.2281527e-26
1.6437497e-25 2.3500433e-26 1.3005697e-25 2.4187793e-23 6.2793694e-23 2.3631186e-24 3.6654565e-25 1.6259212e-25
5.9125618e-24 7.172598e-25 2.8660857e-23 1.7639375e-25 1.2488519e-24 8.997615e-25 1.17266706e-23 3.4193164e-25
3.174229e-25 7.911003e-25 2.5912164e-24 6.693274e-25 5.90718e-24 7.4558873e-25 1.9475855e-27 1.9343218e-27
6.0018348e-27 4.2929965e-27 1.0001896e-27 2.7423821e-27 1.5130297e-26 5.3708462e-27 1.9566289e-27 2.9493774e-27
6.985192e-27 5.1581327e-27 2.1994724e-26 1.2766065e-26 1.200431e-26 7.147489e-27 4.500571e-28 1.0329175e-26
5.7195563e-27 7.195941e-27 1.0773722e-23 1.5223515e-24 4.043443e-23 3.4486013e-24 3.866326e-24 5.763341e-24
1.9778407e-23 6.18879e-24 2.0053467e-23 3.429638e-24 8.759684e-25 2.5847434e-25 6.630239e-24 2.334566e-25
2.3532805e-25 5.5626487e-25 1.6811943e-24 4.834191e-25 3.3298253e-24 5.006021e-25 6.874847e-27 1.858956e-24
9.0877226e-24 2.0957562e-25 2.1689938e-25 1.9340173e-26 4.6752137e-24 5.887082e-26 6.4359887e-24 5.5879954e-26
1.5509569e-21 3.905612e-21 1.4521977e-21 1.8993888e-21 1.8634576e-21 5.4814234e-23 3.4992587e-21 1.4807098e-21
6.0846844e-21 1.616126e-21 6.886891e-26 3.1560578e-26 3.290781e-25 5.764707e-26 2.3107109e-26 6.1075134e-26
2.1472784e-25 8.3415853e-26 1.694188e-25 5.838279e-26 1.1406945e-27 2.4490048e-27 1.9026305e-26 1.2491702e-28
1.6237773e-28 5.997238e-28 3.7441858e-27 3.4170701e-28 9.810709e-27 5.057387e-28 4.3329362e-26 1.8000976e-24
4.7610536e-24 2.0338806e-25 4.2544606e-26 3.0862997e-26 4.9442286e-25 7.6067047e-26 2.156756e-24 1.9132455e-26
7.616431e-25 2.358155e-25 6.1158232e-24 1.9223094e-25 1.9439528e-25 4.889979e-25 1.4492339e-24 4.136186e-25
3.0851212e-24 4.5918627e-25 5.717006e-28 2.0042679e-28 7.811933e-28 3.8025972e-28 2.8479066e-28 1.680031e-28
4.6401054e-29 2.6492007e-28 5.5203556e-28 1.1865131e-28 3.597333e-28 5.6539297e-29 5.1049763e-28 2.8665963e-28
2.7115717e-28 2.1706786e-28 9.400743e-29 2.708823e-28 9.564282e-29 1.2048017e-28 5.0928517e-24 1.4069937e-24
3.6598937e-23 1.352812e-24 1.4038685e-24 3.1626666e-24 9.6265895e-24 2.7974929e-24 1.8429929e-23 2.7847551e-24
5.602158e-26 1.7093465e-26 4.4117894e-25 1.445862e-26 1.4436172e-26 3.602729e-26 1.0500291e-25 3.0572542e-26
2.2251027e-25 3.333548e-26 6.8450256e-28 1.3618314e-27 1.0177616e-26 1.454256e-28 1.4077419e-28 3.088918e-28
2.0883253e-27 2.2283132e-28 5.341189e-27 2.752709e-28 1.5320865e-23 5.0113584e-24 1.2436597e-22 3.8396006e-24
3.894072e-24 9.819137e-24 2.937166e-23 8.287048e-24 6.2754623e-23 9.216409e-24 5.5667665e-27 3.2665078e-27
7.725771e-27 1.0357292e-26 2.107327e-27 7.759329e-27 3.53833e-26 1.4013787e-26 3.7689e-27 8.048833e-27
5.0013556e-26 2.1893822e-26 6.0877814e-26 1.8016817e-26 4.0874782e-26 8.455079e-27 7.320264e-27 1.6937514e-26
7.352886e-26 1.732983e-26 4.136057e-25 1.0654045e-25 5.2451416e-25 2.6824678e-25 1.5595754e-25 9.312816e-26
3.9711397e-26 1.8275292e-25 3.170534e-25 3.6163214e-26 2.2999954e-20 7.119227e-21 1.8475593e-19 5.80004e-21
5.868021e-21 1.4770555e-20 4.3784298e-20 1.24911656e-20 9.3197696e-20 1.3871636e-20 5.063582e-24 7.792807e-26
6.433029e-25 2.2602234e-24 2.7269963e-24 1.6047405e-24 5.880667e-24 3.2047942e-24 2.225004e-25 6.1558273e-25
4.9364496e-27 2.7503248e-27 1.3448636e-26 1.5261317e-27 4.5265786e-27 3.3447957e-27 1.99639e-27 2.26692e-27
8.365039e-27 7.4234223e-28 3.8420543e-24 2.2559553e-25 5.8617737e-24 1.3963062e-24 1.6086957e-24 1.810781e-24

exp_avg f4 [40, 10]
00000000: 0400 0000 4f0f 5c11 0400 0080 b4af 9c8a
00000010: 4f17 0900 0400 0080 f9f2 0a88 2c5b ca8a
00000020: 0400 0000 aeb1 9c8a cbf4 0e86 7b3d 4d25
00000030: 0400 0000 17bb aba3 4da3 ce17 0400 0000
00000040: 88bf e8a2 2ba7 b4a3 86aa 860c 91bd aba3
00000050: 0400 0080 0400 0000 0400 0080 0400 0000
00000060: 0400 0080 0400 0000 0400 0080 0400 0000
00000070: 0400 0000 0400 0000 ddca 8f03 42c9 93a7
00000080: 0400 0080 7a45 fe1f 7503 e593 0100 0080
00000090: ef09 961c 84c7 2520 20fd 3c86 1c49 fe1f
000000a0: 94a7 1500 8cc8 409f 0400 0080 2bf9 4a1c
000000b0: bd07 4e90 0400 0000 f8f3 481b 451e 611c
000000c0: 2eae b684 d8fe 4a1c 0400 0000 a298 5900
000000d0: 0400 0080 dc08 0080 0400 0080 0400 0080
000000e0: 0800 0080 960b 0080 0400 0000 dc08 0080
000000f0: d54c 110c 6b86 29a9 0400 0080 5889 0f29
00000100: 69a7 179d 490c 0080 bf0c 0228 f983 2229
00000110: 7b5f 8791 428c 0f29 0400 0000 0400 0080
00000120: 0400 0080 0400 0080 0400 0080 0400 0080
00000130: 0400 0000 0400 0000 0400 0080 0400 0000
00000140: 0400 0000 be13 0592 0400 0000 962e bd0a
00000150: 128c 0a80 0400 0080 2e90 d307 c01a f50a
00000160: 0400 0080 ae31 bd0a cbfe ef01 e18d 1ba6
00000170: 0400 0080 ef26 5d1e b8b5 4392 0300 0000
00000180: 0a15 a01b c0be 8e1e 816c c084 bd2a 5d1e
00000190: 0400 0000 0400 0000 0400 0000 0400 0080
000001a0: 0400 0080 0200 0000 0400 0000 0400 0080
000001b0: 0400 0000 0400 0080 6def b006 fb3d 47a6
000001c0: 0400 0080 cc5d 6324 80d1 9098 0400 0080
000001d0: da05 9e23 4b8a 6e24 9b3f 3d8d 4260 6324
000001e0: 0400 0000 0400 0000 0400 0000 0400 0080
000001f0: 0400 0000 0400 0000 0400 0080 0400 0000
00000200: 0400 0000 0400 0000 b232 de07 4477 82a4
00000210: 0400 0000 c183 4a24 a35c 3498 0b00 0080
00000220: 0c8b 7721 890f 8324 009d a98a 1587 4a24
00000230: 0400 0000 94d6 d9a0 0400 0080 0cbf e211
00000240: 57ca f685 0400 0000 2a58 bd10 9115 0212
00000250: 4606 0080 5cc3 e211 0400 0080 0400 0000
00000260: 0400 0000 0400 0080 0400 0080 0400 0000
00000270: 0400 0080 0400 0000 0400 0000 0400 0080
00000280: 1bf7 d800 c8d0 859f 0400 0000 1cca 861f
00000290: aeb4 a493 0400 0000 c787 d31e 67e4 871f
000002a0: bd3b 6c88 86cc 861f 0400 0080 0400 0080
000002b0: 0400 0080 0400 0000 0400 0080 0400 0000
000002c0: 0400 0000 0400 0000 0400 0080 0400 0000
000002d0: 0400 0000 0400 0080 0400 0080 0400 0000
000002e0: 0400 0080 0400 0080 0400 0000 0400 0080
000002f0: 0400 0080 0400 0000 0400 0080 0400 0000
00000300: 0400 0000 0400 0080 0400 0000 0400 0000
00000310: 0400 0080 0400 0000 0400 0000 0400 0080
00000320: 0300 0080 7eb3 f887 0400 0080 9dda b403
00000330: 2a00 0080 0400 0080 beb4 7b01 f65d e703
00000340: 0400 0000 e9dc b403 0400 0080 0400 0080
00000350: 0300 0000 0400 0080 0400 0080 0400 0000
00000360: 0400 0080 0100 0000 0300 0080 0400 0080
00000370: 0400 0000 0400 0080 0400 0000 0400 0000
00000380: 0400 0000 0400 0080 0400 0000 0400 0080
00000390: 0400 0080 0400 0000 0400 0080 0400 0000
000003a0: 0400 0000 0400 0080 0400 0000 0400 0000
000003b0: 0400 0080 0400 0080 0400 0000 0400 0080
000003c0: 0400 0000 0400 0080 0400 0000 0400 0000
000003d0: 0400 0000 0400 0080 0400 0000 0400 0080
000003e0: 0400 0080 0400 0000 0400 0000 0400 0080
000003f0: 0400 0080 0400 0000 0400 0080 0400 0000
6e-45 1.7359657e-28 -6e-45 -1.5088346e-32 8.34881e-40 -6e-45 -4.1813477e-34 -1.9486187e-32
6e-45 -1.5089089e-32 -2.6887077e-35 1.7801746e-16 6e-45 -1.8619093e-17 1.3353661e-24 6e-45
-6.3086518e-18 -1.9586437e-17 2.07486e-31 -1.8620142e-17 -6e-45 6e-45 -6e-45 6e-45
-6e-45 6e-45 -6e-45 6e-45 6e-45 6e-45 8.45136e-37 -4.10189e-15
-6e-45 1.07688124e-19 -5.7811136e-27 -1e-45 9.928735e-22 1.4042058e-19 -3.5544837e-35 1.07694134e-19
1.988661e-39 -4.082347e-20 -6e-45 6.7158236e-22 -4.0632298e-29 6e-45 1.6622443e-22 7.448538e-22
-4.2947953e-36 6.716557e-22 6e-45 8.228113e-39 -6e-45 -3.178e-42 -6e-45 -6e-45
-1.1e-44 -4.156e-42 6e-45 -3.178e-42 1.1193514e-31 -3.7642127e-14 -6e-45 3.1871505e-14
-2.0071233e-21 -4.407e-42 7.2192135e-15 3.6085694e-14 -2.135809e-28 3.1874033e-14 6e-45 -6e-45
-6e-45 -6e-45 -6e-45 -6e-45 6e-45 6e-45 -6e-45 6e-45
6e-45 -4.1991734e-28 6e-45 1.8217562e-32 -9.68603e-40 -6e-45 3.1832493e-34 2.3602704e-32
-6e-45 1.8218725e-32 8.8160344e-38 -5.396871e-16 -6e-45 1.1707694e-20 -6.1755136e-28 4e-45
2.6483376e-22 1.5113727e-20 -4.5238628e-36 1.1708481e-20 6e-45 6e-45 6e-45 -6e-45
-6e-45 3e-45 6e-45 -6e-45 6e-45 -6e-45 6.6555646e-35 -6.9125994e-16
-6e-45 4.9302228e-17 -3.743467e-24 -6e-45 1.7132873e-17 5.1725162e-17 -5.8316684e-31 4.9304312e-17
6e-45 6e-45 6e-45 -6e-45 6e-45 6e-45 -6e-45 6e-45
6e-45 6e-45 3.3432643e-34 -5.658056e-17 6e-45 4.3913368e-17 -2.3311224e-24 -1.5e-44
8.387088e-19 5.683851e-17 -1.6333165e-32 4.3916187e-17 6e-45 -3.6903226e-19 -6e-45 3.5774255e-28
-2.3208057e-35 6e-45 7.4683194e-29 4.104735e-28 -2.25e-42 3.5776912e-28 -6e-45 6e-45
6e-45 -6e-45 -6e-45 6e-45 -6e-45 6e-45 6e-45 -6e-45
1.9925112e-38 -5.667309e-20 6e-45 5.708557e-20 -4.1577584e-27 6e-45 2.239665e-20 5.7552584e-20
-7.108889e-34 5.708956e-20 -6e-45 -6e-45 -6e-45 6e-45 -6e-45 6e-45
6e-45 6e-45 -6e-45 6e-45 6e-45 -6e-45 -6e-45 6e-45
-6e-45 -6e-45 6e-45 -6e-45 -6e-45 6e-45 -6e-45 6e-45
6e-45 -6e-45 6e-45 6e-45 -6e-45 6e-45 6e-45 -6e-45
-4e-45 -3.7420389e-34 -6e-45 1.062964e-36 -5.9e-44 -6e-45 4.6231095e-38 1.3598532e-36
6e-45 1.0630168e-36 -6e-45 -6e-45 4e-45 -6e-45 -6e-45 6e-45
-6e-45 1e-45 -4e-45 -6e-45 6e-45 -6e-45 6e-45 6e-45
6e-45 -6e-45 6e-45 -6e-45 -6e-45 6e-45 -6e-45 6e-45
6e-45 -6e-45 6e-45 6e-45 -6e-45 -6e-45 6e-45 -6e-45
6e-45 -6e-45 6e-45 6e-45 6e-45 -6e-45 6e-45 -6e-45
-6e-45 6e-45 6e-45 -6e-45 -6e-45 6e-45 -6e-45 6e-45

exp_avg_sq f4 [40, 10]
00000000: f754 5e14 d694 e514 ffc3 0614 78b7 9913
00000010: 6bb2 2613 a5f4 5313 8a47 ff12 3147 7614
00000020: 1e55 0015 655f 3813 72b8 f315 4440 ab17
00000030: 0e8a d716 c79a 9714 2c5e c715 5dd5 a515
00000040: fa8a 9313 79e7 e915 7580 181a fa95 a512
00000050: c7f4 d417 5f13 5d18 e459 9e17 b4fa 3a12
00000060: 1e34 8914 8b1a d616 afa7 7714 b3da 7d17
00000070: aec9 6c18 cc16 a311 749f 4c13 9875 8d12
00000080: 0f55 7911 1916 8812 2671 a812 c8fa 0413
00000090: 754f 9411 d3f1 4d13 5e3a a612 cd67 f110
000000a0: b749 aa12 1ff8 5311 0e86 5913 7465 0a12
000000b0: 324b d513 90e2 2912 187a 0111 799d a612
000000c0: d594 0b14 e838 9e10 6990 0719 25c9 4e19
000000d0: 2df6 0d15 cfef 0b18 8cd6 9113 1d8a d517
000000e0: f1af ff17 57ed ab18 94b8 4619 6cec 0b18
000000f0: 193e ac17 9d3a 0d18 5365 d114 4e7f 8f13
00000100: da96 fd12 6c36 b816 15fe 4414 6824 4f17
00000110: c12c 0718 734f 0713 58f2 1e13 109f 9a17
00000120: 848a 9416 c050 9b13 7557 e912 749a dc12
00000130: 855f ed11 6fbe 8517 d6df 9a17 382e 0c11
00000140: a26a 1315 386c 711b 2158 8a12 5a40 7c11
00000150: 3bd7 cc13 6432 0115 e70c a511 a6de 1d15
00000160: 87ac 161a 2b35 cc11 a51c 9d15 1a5e ea15
00000170: 0e26 7212 ce49 7a14 b710 2116 43c7 dd14
00000180: ee60 7f12 9453 5915 c1f0 8516 f7f1 0215
00000190: 51aa 0013 cd60 f413 5e1f 8412 d347 e912
000001a0: 4eff 8912 ddd9 0212 a5e2 fa11 5639 0713
000001b0: 6f5a d313 b3bc 9011 8c7a 7916 a3f0 4716
000001c0: f3ae 0d15 054f 0d15 dda8 4215 38f8 3316
000001d0: 51ba 3114 3d6a 6c16 854a 3d18 4efe 1313
000001e0: e0d7 8f17 fa25 ea17 bff1 8414 f232 1f12
000001f0: 914d 0f12 4638 9316 fa7c 2314 d31a 2917
00000200: 2e94 e017 f2e2 0711 de4b 1214 3d4f 3a13
00000210: bd0d fc11 578f eb12 2651 c112 75b6 ce13
00000220: c7d5 1b12 c5ab 1014 e294 c012 7672 3d11
00000230: b3b6 8212 7173 7a11 bb32 9011 ff86 b411
00000240: 76d0 0d12 defa 1312 0ac6 ee10 4f8f 7c12
00000250: 110d fb11 d889 4910 39cb d718 3465 2e19
00000260: 0692 5215 3f7f 6f16 1606 f912 73ce f217
00000270: f375 a316 97cb 7b18 1be1 2819 5813 6e16
00000280: ad7c ba15 374d 0d16 672d 2a13 3c5b 3413
00000290: 0874 cd12 94ad df14 5a19 b612 4399 6215
000002a0: 4f51 0516 863c 0412 d2ef 5512 91f6 8013
000002b0: eb8e 4c12 cafb 0f12 b67a cc11 3128 cd11
000002c0: 63a7 ce10 365c 7412 df1f 6213 24d4 4310
000002d0: c38f ae19 61d0 121a eaa3 9317 cb38 e312
000002e0: 6b56 e214 e41d ac18 25f4 7316 a02e 5319
000002f0: a6e9 0c1a 8272 c212 5d11 bb13 a07a 5513
00000300: 3b21 a711 2143 2714 7a9c 4f15 f691 8e13
00000310: 5bc4 dc11 5c30 c013 8cb2 5115 ae4d a014
00000320: 70a2 6a15 25b5 8814 2630 0a15 ca8c a516
00000330: acc2 a115 86ce 7b15 5207 2f15 fa04 1516
00000340: b6b6 c015 beaf 3314 4629 1e18 5dcc 0517
00000350: 88f8 0616 0853 c916 946b cb16 ac33 ce17
00000360: f92c cf15 4c15 1a18 6303 0317 f1c9 d114
00000370: 6681 011f 5a3f 541f 0984 921b e9b5 ab12
00000380: 02fb 4815 1740 001e 56a9 b01b 7512 9c1e
00000390: 5a64 4c1f bc39 b516 8605 3d17 1ba2 d817
000003a0: dfd3 2116 84e9 1a16 3c51 7915 7988 1b17
000003b0: f267 de16 a1f2 ed17 6d64 fe15 b04f d916
000003c0: 9d39 9a13 3c68 4013 2006 fb11 d425 1713
000003d0: d70b 9213 8b6a d612 e5b0 7e13 d530 cd13
000003e0: 8017 2913 124c 7912 da11 c917 1769 1d18
000003f0: 8619 9714 5365 5117 5504 6315 a116 8d16
1.1224892e-26 2.3181796e-26 6.8039245e-27 3.8803544e-27 2.1040112e-27 2.6752563e-27 1.6110398e-27 1.2433866e-26
2.591654e-26 2.3271098e-27 9.843792e-26 1.1066839e-24 3.4822248e-25 1.5308152e-26 8.052404e-26 6.69796e-26
3.724506e-27 9.447315e-26 3.153663e-23 1.0449936e-27 1.3761969e-24 2.857336e-24 1.0233202e-24 5.9000267e-28
1.3854021e-26 3.4590316e-25 1.2503383e-26 8.2024746e-25 3.0604107e-24 2.5730915e-28 2.5827036e-27 8.92734e-28
1.9668847e-28 8.588254e-28 1.0630184e-27 1.6784387e-27 2.3399252e-28 2.5993866e-27 1.0490461e-27 9.521767e-29
1.074668e-27 1.6721423e-28 2.7455345e-27 4.3670173e-28 5.3842908e-27 5.3606257e-28 1.0213929e-28 1.0514893e-27
7.0470586e-27 6.240769e-29 7.0085e-24 1.0690571e-23 2.8668922e-26 1.8086401e-24 3.6814706e-27 1.3799667e-24
1.6523403e-24 4.4442116e-24 1.0273635e-23 1.8084691e-24 1.1130915e-24 1.8253415e-24 2.1143572e-26 3.6223807e-27
1.60037325e-27 2.9761148e-25 9.94558e-27 6.693126e-25 1.7470936e-24 1.7078567e-27 2.0061888e-27 9.99217e-25
2.3998105e-25 3.9207127e-27 1.4725927e-27 1.3922028e-27 3.7450875e-28 8.642996e-25 1.0008521e-24 1.1058295e-28
2.9770532e-26 1.997002e-22 8.73075e-28 1.9899125e-28 5.1709074e-27 2.6091094e-26 2.6040362e-28 3.1881536e-26
3.115864e-23 3.2218292e-28 6.345699e-26 9.4660313e-26 7.640864e-28 1.263633e-26 1.3010751e-25 2.2393892e-26
8.0583287e-28 4.3888733e-26 2.1639246e-25 2.6444168e-26 1.6239844e-27 6.1689712e-27 8.338104e-28 1.4722073e-27
8.708853e-28 4.1289304e-28 3.9582726e-28 1.7067664e-27 5.3353063e-27 2.283549e-28 2.0152729e-25 1.6151024e-25
2.8612734e-26 2.853706e-26 3.9311198e-26 1.4537829e-25 8.972961e-27 1.9097451e-25 2.44653e-24 1.867939e-27
9.295653e-25 1.5131482e-24 1.3423946e-26 5.023435e-28 4.521845e-28 2.3784644e-25 8.254044e-27 5.46407e-25
1.4513067e-24 1.0719555e-28 7.3860785e-27 2.3515568e-27 3.9767056e-28 1.4865921e-27 1.2200017e-27 5.2181627e-27
4.9172877e-28 7.304018e-27 1.2153606e-27 1.4944742e-28 8.249192e-28 1.9757096e-28 2.275046e-28 2.848219e-28
4.4748703e-28 4.669424e-28 9.4179575e-29 7.969382e-28 3.960887e-28 3.974645e-29 5.57814e-24 9.016027e-24
4.2524354e-26 1.9346418e-25 1.571561e-27 1.5690999e-24 2.6408507e-25 3.2543776e-24 8.730856e-24 1.9231591e-25
7.5321505e-26 1.1414254e-25 2.1479402e-27 2.2764176e-27 1.2965923e-27 2.258571e-26 1.1492064e-27 4.576124e-26
1.0769311e-25 4.1726457e-28 6.750655e-28 3.2554876e-27 6.454721e-28 4.54332e-28 3.2261151e-28 3.2368067e-28
8.1510573e-29 7.7106483e-28 2.8540924e-27 3.8620396e-29 1.8049243e-23 3.036042e-23 9.54103e-25 1.4339715e-27
2.2854254e-26 4.449114e-24 1.9706422e-25 1.091786e-23 2.914006e-23 1.227135e-27 4.722256e-27 2.6944838e-27
2.6368434e-28 8.444584e-27 4.1926755e-26 3.598977e-27 3.4830893e-28 4.85153e-27 4.2348063e-26 1.618651e-26
4.7384064e-26 1.380394e-26 2.790686e-26 2.6746038e-25 6.533452e-26 5.0851965e-26 3.5346743e-26 1.2037694e-25
7.783645e-26 9.0718496e-27 2.044186e-24 4.323256e-25 1.0902856e-25 3.2525701e-25 3.286431e-25 1.3325482e-24
8.367759e-26 1.9914786e-24 4.233266e-25 2.1183259e-26 2.742385e-20 4.494515e-20 2.4239e-22 1.08364615e-27
4.058769e-26 6.789517e-21 2.9226188e-22 1.6524776e-20 4.328169e-20 2.9278563e-25 6.1076165e-25 1.3999594e-24
1.3072331e-25 1.2513705e-25 5.0349232e-26 5.0255454e-25 3.5931633e-25 1.5377014e-24 1.0274823e-25 3.510853e-25
3.8931876e-27 2.4285199e-27 3.9604592e-28 1.907753e-27 3.6867256e-27 1.3531564e-27 3.2146523e-27 5.1797427e-27
2.1342385e-27 7.866431e-28 1.2993827e-24 2.0344831e-24 1.5257171e-26 6.765943e-25 4.5845702e-26 2.279406e-25

exp_avg f4 [40]
00000000: 6e2c 5c11 968d 4e25 0400 0000 58dc 93a7
00000010: 9cf1 409f daa4 5900 913a 2ba9 0400 0080
00000020: d224 0592 71a1 1ba6 0400 0000 4ae5 47a6
00000030: 0400 0000 7b11 83a4 2fe4 daa0 0400 0000
00000040: 7ae4 879f 0400 0080 0400 0080 0400 0000
00000050: 2fef f887 0400 0080 0400 0080 0400 0000
00000060: 0400 0080 0400 0080 d01b 5521 0400 0000
00000070: 0400 0080 9ff2 3025 702c 5c11 b0d8 28a6
00000080: e25d 0100 d093 fda4 201b 91a0 daa4 5900
00000090: 0400 0080 8160 bc82 0d4e f793 7d9a 55a5
1.7368631e-28 1.7915623e-16 6e-45 -4.1039593e-15 -4.0857436e-20 8.232497e-39 -3.8020426e-14 -6e-45
-4.2012785e-28 -5.399522e-16 6e-45 -6.935274e-16 6e-45 -5.684181e-17 -3.7081636e-19 6e-45
-5.7552707e-20 -6e-45 -6e-45 6e-45 -3.7455472e-34 -6e-45 -6e-45 6e-45
-6e-45 -6e-45 7.2204017e-19 6e-45 -6e-45 1.534777e-16 1.7368633e-28 -5.8580375e-16
1.25514e-40 -1.09971664e-16 -2.4581905e-19 8.232497e-39 -6e-45 -2.7679508e-37 -6.242853e-27 -1.8527148e-16

exp_avg_sq f4 [40]
00000000: 1b03 4216 6350 221a 78b4 7d18 4d5f 1e15
00000010: a689 1815 1fa1 5e19 f0ed fd17 6cc2 cd17
00000020: 22f6 d51b e598 de16 ff57 7014 549a 5e18
00000030: 6618 e817 dad2 a314 edef 5f13 30e4 2f19
00000040: bbfb 1716 d2c6 0b14 c61d 141a f800 c015
00000050: 852d 8d18 b20e ed18 1ffa 541f ea72 2b18
00000060: 9d0d f816 30fb 6918 0dcb 7716 2290 ee17
00000070: cd57 9c17 e16e 8f16 0cd3 091b 81ab b619
00000080: 118a 8d1c d6ae 4416 255a e419 f5bf dc19
00000090: b2f2 2018 e0a4 fb19 a0d1 7217 3798 9617
1.5672175e-25 3.356575e-23 3.2790597e-24 3.1983025e-26 3.080474e-26 1.1509669e-23 1.6409806e-24 1.3296893e-24
3.5396954e-22 3.5962524e-25 1.2134258e-26 2.8770743e-24 1.4998808e-24 1.654196e-26 2.826485e-27 9.09337e-24
1.2277115e-25 7.056917e-27 3.0629733e-23 7.754971e-26 3.649361e-24 6.1277903e-24 4.509964e-20 2.2159249e-24
4.0075152e-25 3.0241361e-24 2.0016573e-25 1.5416774e-24 1.0103428e-24 2.317287e-25 1.1400567e-22 1.8887629e-23
9.366287e-22 1.5887922e-25 2.3611057e-23 2.2824998e-23 2.0802045e-24 2.6019384e-23 7.8459e-25 9.731947e-25

exp_avg f4 [40]
00000000: 6e2c 5c11 968d 4e25 0400 0000 58dc 93a7
00000010: 9cf1 409f daa4 5900 913a 2ba9 0400 0080
00000020: d224 0592 71a1 1ba6 0400 0000 4ae5 47a6
00000030: 0400 0000 7b11 83a4 2fe4 daa0 0400 0000
00000040: 7ae4 879f 0400 0080 0400 0080 0400 0000
00000050: 2fef f887 0400 0080 0400 0080 0400 0000
00000060: 0400 0080 0400 0080 d01b 5521 0400 0000
00000070: 0400 0080 9ef2 3025 702c 5c11 b1d8 28a6
00000080: e25d 0100 d093 fda4 201b 91a0 daa4 5900
00000090: 0400 0080 8260 bc82 0d4e f793 7d9a 55a5
1.7368631e-28 1.7915623e-16 6e-45 -4.1039593e-15 -4.0857436e-20 8.232497e-39 -3.8020426e-14 -6e-45
-4.2012785e-28 -5.399522e-16 6e-45 -6.935274e-16 6e-45 -5.684181e-17 -3.7081636e-19 6e-45
-5.7552707e-20 -6e-45 -6e-45 6e-45 -3.7455472e-34 -6e-45 -6e-45 6e-45
-6e-45 -6e-45 7.2204017e-19 6e-45 -6e-45 1.5347768e-16 1.7368633e-28 -5.858038e-16
1.25514e-40 -1.09971664e-16 -2.4581905e-19 8.232497e-39 -6e-45 -2.767951e-37 -6.242853e-27 -1.8527148e-16

exp_avg_sq f4 [40]
00000000: 1b03 4216 6350 221a 78b4 7d18 4d5f 1e15
00000010: a689 1815 1fa1 5e19 f0ed fd17 6cc2 cd17
00000020: 22f6 d51b e598 de16 ff57 7014 549a 5e18
00000030: 6618 e817 dad2 a314 edef 5f13 30e4 2f19
00000040: bbfb 1716 d2c6 0b14 c61d 141a f800 c015
00000050: 852d 8d18 b20e ed18 1ffa 541f ea72 2b18
00000060: 9d0d f816 30fb 6918 0dcb 7716 2290 ee17
00000070: cd57 9c17 e16e 8f16 0cd3 091b a7ab b619
00000080: 118a 8d1c d6ae 4416 255a e419 f5bf dc19
00000090: b2f2 2018 e0a4 fb19 a0d1 7217 3798 9617
1.5672175e-25 3.356575e-23 3.2790597e-24 3.1983025e-26 3.080474e-26 1.1509669e-23 1.6409806e-24 1.3296893e-24
3.5396954e-22 3.5962524e-25 1.2134258e-26 2.8770743e-24 1.4998808e-24 1.654196e-26 2.826485e-27 9.09337e-24
1.2277115e-25 7.056917e-27 3.0629733e-23 7.754971e-26 3.649361e-24 6.1277903e-24 4.509964e-20 2.2159249e-24
4.0075152e-25 3.0241361e-24 2.0016573e-25 1.5416774e-24 1.0103428e-24 2.317287e-25 1.1400567e-22 1.8887689e-23
9.366287e-22 1.5887922e-25 2.3611057e-23 2.2824998e-23 2.0802045e-24 2.6019384e-23 7.8459e-25 9.731947e-25

exp_avg f4 [2, 10]
00000000: 0186 1191 d7d2 a93c 113d 0080 294b 7bad
00000010: 199c 6a21 f27d 3100 dbbe dba8 30ce a4ad
00000020: e85a be13 414e 7bad 6813 0000 d9d2 a9bc
00000030: 113d 0000 c547 5a80 2fa6 3085 0400 0080
00000040: 0400 0000 b341 6a01 3695 6280 0400 0000
-1.1479776e-28 0.02073042 -2.1906e-41 -1.4284387e-11 7.9488877e-19 4.54512e-39 -2.4396655e-14 -1.8736207e-11
4.8052384e-27 -1.4285074e-11 6.962e-42 -0.020730423 2.1906e-41 -8.290941e-39 -8.306003e-36 -6e-45
6e-45 4.302615e-38 -9.053405e-39 6e-45

exp_avg_sq f4 [2, 10]
00000000: d64a 061d a370 6b3b 2399 a01d bbd1 3f1d
00000010: f790 2820 f042 101c 5488 1b1b 5b6c 301f
00000020: 3225 8423 e47e 3f1d d64a 061d a670 6b3b
00000030: 2e99 a01d 11a1 241b f790 2820 f042 101c
00000040: 4f88 1b1b b10c 1d1f 3225 8423 662a 1f1b
1.7773442e-21 0.003592529 4.2509987e-21 2.5387068e-21 1.4278118e-19 4.773212e-22 1.286535e-22 3.735908e-20
1.4327222e-17 2.534424e-21 1.7773442e-21 0.0035925298 4.251003e-21 1.3617805e-22 1.4278118e-19 4.773212e-22
1.2865343e-22 3.325654e-20 1.4327222e-17 1.3165871e-22

exp_avg f4 [2]
00000000: ed72 a63c ee72 a6bc
0.020318473 -0.020318475

exp_avg_sq f4 [2]
00000000: 1852 733b 1652 733b
0.003712779 0.0037127784
