results/baseline_lstm_task1_seed42/model_lstm_ntask1_nchar2_seed42.pt (torch, 20479 bytes, 21 tensors)

embedding.weight f4 [2, 10]
00000000: df68 103f 79a5 ccbf 83eb ab3f 70f6 2fc0
00000010: 11cf 963f 4593 e0bf 7c5b 6dc0 7d4a 85c0
00000020: 5e85 c5be 3f50 3c40 a858 9ebf 4bf2 ad3f
00000030: 19b3 033f 8dc8 8e3f 1566 38c0 5902 863f
00000040: 7176 c23f df78 ad3f 7635 ce3f 190f dabf
0.5641002 -1.5987998 1.3431247 -2.7494164 1.1781942 -1.7544943 -3.7087088 -4.165343
-0.38578314 2.9423978 -1.2370806 1.3589567 0.51445156 1.1154953 -2.8812306 1.0469466
1.5192395 1.3552512 1.6110065 -1.7035857

lstm.weight_ih_l0 f4 [40, 10]
00000000: d0d1 91bf 4abe c43f 95e6 9ebf ee3a af3f
00000010: 66c9 f2bf 7c3e af3f bfe2 b13f 0394 d13f
00000020: 4540 a83f 6b24 e6bf afac c7bf 184a 4840
00000030: d5f8 61c0 31ac 4640 36ba c5bf 4cde 6440
00000040: ab79 7f40 c9e1 c83f 74d7 d13f 8247 bdbf
00000050: 54c0 babf 9e39 3abe a10f a03f b749 b63f
00000060: d201 debf 15e7 f43d ad54 a83f 5fe8 1340
00000070: 3483 7e3f 0cba c0bf 0d04 bcbf 6797 f8bf
00000080: bbcc ce3f ff59 12c0 f2d8 bfbf 1d2b fabf
00000090: a6b3 d8bf 6968 bfbf fe66 1c40 92a0 b03f
000000a0: 5f8e af3f 7d7a 943d 4903 473f 290e 8840
000000b0: 924e d53f e552 aa40 5742 b840 5e2c 7cbf
000000c0: b227 f1bf 4e9c fb3e a0e1 74bf cba9 243d
000000d0: 88b7 a7bf 9b78 3c3f 09ce f3bf 8ab0 893f
000000e0: ef44 b93f 0e50 ef3f a5db 903f 763a 11c0
000000f0: 7232 363e c37c 11be b45b 0b3f 8ca6 85be
00000100: c580 61bd b959 5fbf 3d00 b1bd 19c9 99bf
00000110: 32c9 663e 56ee 433f 2b2d 8cbf a1ef c0bf
00000120: f45c 4840 e40d 0fc0 c957 00c0 445d f9bf
00000130: da7d 89bf 577d 75bf fec4 1040 b6e0 c3bd
00000140: 3f00 3740 71fb 56bf 35da a23f b1da 28bf
00000150: a059 4c40 fc61 9abe 8591 8fbf 824a 0ec0
00000160: dd25 5fc0 8b6d 2240 9624 403f 8817 c0bf
00000170: d7b5 4c3f 5747 13c0 2a82 9e3e 26d9 e8bf
00000180: 6be2 e1bf 7733 97bf 6c8d d0be 05db 383f
00000190: afbf 9a3f 086f 413f 7ace 9bbf 0b15 db3f
000001a0: cc30 ae3f a72c 0440 fc5a 903f 8db3 143f
000001b0: d998 f8bf c588 afbe 846d 193f 370c a13f
000001c0: d877 e7bf 4627 bc3f 17a2 d0be 02a2 b33f
000001d0: ca54 de3f aa8f 2340 d3d5 0dbd 0322 aebf
000001e0: 2d12 3240 bba9 c5bf 9e83 1440 2ae1 a440
000001f0: f686 3840 e3e1 7e40 d868 6540 3c8e debf
00000200: 2206 4bc0 4c72 3140 2bab e83f eef5 52c0
00000210: 7240 3540 5cfe 90c0 9023 a83f 2052 7fc0
00000220: 5ee6 56c0 bb74 babf 4825 a2bf 4baa 733f
00000230: 4124 4440 8b90 6dbf 68c3 0b40 f98f 6240
00000240: f94c 4a40 4c1d 8440 5798 5340 7c52 21c0
00000250: ad5d 54c0 c40e 2d40 8c1d 963f 21ea c33e
00000260: b944 c2bf 1fe2 853f e539 563f b1f5 933f
00000270: 4b74 c83f 3e4a c63f 7f8f 8bbf 26b6 78bf
00000280: 65d0 dfbe 2f3f 68bd 06f8 2b40 679b 0cbf
00000290: e35f bcbf 97be bfbf b376 9abf 2a52 80bd
000002a0: 0317 ad3f 2591 1ebe c7f6 793f 70b2 ba3e
000002b0: 539a bebf 0e98 a53f fd80 8f3f fff6 cb3f
000002c0: 87f4 9f3f a24e b7be 7099 e1bf c70f 57bc
000002d0: 655c 2740 0f4c 4cbf 1b9a 403f bc43 62bf
000002e0: 2123 5640 88b5 f6be 2b5d 88bf 989b 45c0
000002f0: 9eba 2ac0 4855 3840 20da c8be 4665 e43f
00000300: 44b7 38c0 3782 4140 19bb 34bf d3b6 5040
00000310: d4cb 3e40 4060 3e40 4ca7 f1be d07d ffbf
00000320: 48ea 153f 3f1c f7bf c6a9 4cbd 23cb 6bbf
00000330: bf8d b63f e9f1 cdbf b09e acbf 2fd2 bebf
00000340: d533 3ebf 9c90 d23f 7735 073f 0e57 3ebf
00000350: 3eac a13f a24c 3c3e 5dee 0dbf a417 0fbf
00000360: 3ac5 1d3f 8d45 e03e 5197 583f a267 c5bf
00000370: e92b 99bf a243 c33f 26b5 f4be 2776 eb3e
00000380: b19e b7bf 1f06 083f ea67 adbe 8828 b03f
00000390: bdfc 4a3f 9705 03c0 8243 f33e 569b c3bc
000003a0: 65a8 ec3e 8c55 ea3f 3363 33bf cf65 be3e
000003b0: 24ba 703f 8f7a 5b3f 3d92 1e3f 2109 bbbd
000003c0: 67e5 38c0 3572 0b40 08b2 14c0 831f c1bf
000003d0: 6164 02c0 9420 73bf 0c70 f7bf 13c7 0140
000003e0: d1fa 2c40 71cd 41c0 dc85 fa3e 7a52 c43e
000003f0: 62b0 dbbe 5547 b93f b40e 8b3f cefc 713f
-1.1392155 1.5370572 -1.2414118 1.3689859 -1.8967712 1.3690944 1.3897322 1.6373295
1.3144614 -1.7979864 -1.5599574 3.1295223 -3.5308125 3.1042597 -1.5447452 3.576068
3.991801 1.5693904 1.6393876 -1.4787447 -1.4589944 -0.18186042 1.250477 1.4241246
-1.7344306 0.11958138 1.3150841 2.3110578 0.9941895 -1.5056777 -1.4688736 -1.9421204
1.6156229 -2.286743 -1.4988081 -1.9544407 -1.6929824 -1.4953738 2.4437861 1.3799002
1.3715323 0.07249925 0.7773939 4.2517285 1.6664603 5.322619 5.758098 -0.985052
-1.8840239 0.4914269 -0.95656776 0.04020099 -1.3102884 0.7362153 -1.9047252 1.0757
1.4474162 1.8696306 1.131703 -2.2691932 0.17792681 -0.14207749 0.544368 -0.26103628
-0.055054445 -0.8724628 -0.086426236 -1.2014495 0.22537687 0.76535547 -1.0951284 -1.5073129
3.1306734 -2.2352228 -2.005358 -1.9481587 -1.0741532 -0.9589438 2.2620234 -0.095643446
2.85939 -0.8397742 1.2722842 -0.65958697 3.1929703 -0.3015288 -1.1216284 -2.2232976
-3.486686 2.537936 0.75055826 -1.5007181 0.79964966 -2.3012292 0.30958682 -1.8191268
-1.7647222 -1.1812581 -0.40732896 0.722092 1.2089747 0.75560045 -1.2172387 1.7115797
1.3608642 2.0652254 1.1277766 0.5808647 -1.9421645 -0.34284034 0.5993273 1.2581853
-1.8083448 1.4699485 -0.40748665 1.4033816 1.7369626 2.5556436 -0.034627747 -1.360413
2.7823594 -1.5442423 2.3205333 5.152486 2.8832374 3.982537 3.5845242 -1.7387156
-3.1722493 2.7726011 1.8177236 -3.2962604 2.8320584 -4.5310497 1.3135853 -3.9893875
-3.3578105 -1.4566873 -1.2667627 0.9518172 3.0647128 -0.9279868 2.1838017 3.5400374
3.160948 4.1285763 3.306173 -2.5206594 -3.3182175 2.7040262 1.1727767 0.38264564
-1.5177222 1.0459632 0.8368209 1.1559354 1.566049 1.5491407 -1.0903167 -0.97152936
-0.4371368 -0.05670088 2.6870131 -0.54924625 -1.4716762 -1.4980038 -1.2067474 -0.062656716
1.3522648 -0.15485056 0.9764218 0.36464262 -1.4890846 1.2937028 1.1211239 1.5934752
1.2496499 -0.3580218 -1.762495 -0.01312632 2.6150143 -0.79803556 0.75235146 -0.88384604
3.345894 -0.48185372 -1.0653433 -3.0876217 -2.6676402 2.8802052 -0.39228916 1.7843406
-2.8861856 3.0235727 -0.7059799 3.2611587 2.9811907 2.9746246 -0.4719795 -1.996027
0.5856061 -1.9305495 -0.049966596 -0.9210684 1.4262007 -1.608945 -1.3485928 -1.4907893
-0.7429784 1.6450381 0.52815956 -0.74351585 1.2630689 0.18388608 -0.5544184 -0.5589545
0.6162907 0.43803063 0.8460589 -1.5422251 -1.1966525 1.5255015 -0.47794455 0.4598858
-1.4345304 0.5313434 -0.33868343 1.3762369 0.792919 -2.0472162 0.47512442 -0.02387778
0.46222225 1.8307357 -0.7007324 0.3718705 0.9403403 0.85733885 0.6194189 -0.091326006
-2.8890016 2.1788456 -2.3233662 -1.5087742 -2.0373766 -0.94971585 -1.9331069 2.0277755
2.7028086 -3.0281641 0.48930252 0.38344175 -0.42908007 1.4474894 1.0863862 0.94526374

lstm.weight_hh_l0 f4 [40, 10]
00000000: 30f7 d5c0 39bf 133f 8c5e c83f 9844 1841
00000010: c6b6 2f40 c8cc c23e cbd6 d3be 9dad a6c0
00000020: 7d66 133e 601b fac0 aecc 60bf aad9 04c0
00000030: 9d1d 5ebf a2f3 5e40 9848 40bf 2fb2 f93e
00000040: abe6 533f fe08 1abf dced 20be f0a7 34c0
00000050: e1da 963f e7d7 c4be 618a 3740 8a76 b7bf
00000060: 3471 2640 515f a2bd c487 24be 918a fb3f
00000070: b8e6 3bbf 0168 263f d2a7 9440 914f 2a3f
00000080: 55fb 9d3f 28c7 a8c0 4892 a63f 6f7d 8c3d
00000090: e60b a3bf 3bda ac40 cddf 853f 6ea5 d640
000000a0: 609e 35bf 4833 533f 7833 3240 1f06 5940
000000b0: b29d 6940 ed3c 07bf 390d 5f3f 9bca 7ebf
000000c0: 3eb1 04bf 54e0 2bc0 a5c0 79be 065e bc3e
000000d0: 2b1a 45bf 8384 643f 923b c3be 60d9 da3e
000000e0: 9b08 c43e f2ba 18be 9fe4 0ebf 172c 63bf
000000f0: 11a3 943f 1f23 53bf 765a 0e3e 4363 9ebf
00000100: 8e68 2abf 9e86 b2be b0f0 fbbe 7dc0 983f
00000110: c193 16bf dd6b 833f 9224 9abf 1a3b 413f
00000120: b07e 933d e382 643f 3d77 503f 4b28 0dbf
00000130: 3eeb aebd fec6 7ebf 9664 20be 9dab 753e
00000140: 01eb 8dbf f5dd 4e3f d67e a0bf f12c 29bc
00000150: c58b a7be 1f8b cd3e c2e1 8d3f d792 6bbf
00000160: 7715 a23f e068 363f e649 8ebf 3711 063f
00000170: 240f e7bb d1cb 1ac0 37f9 3c3e 80a0 4ebf
00000180: 8e63 9c3e 5e7b 60bf e10b ebbc 31fd 1740
00000190: 7c5f 23c0 40e5 623f 5e05 8f3e 97e2 1b40
000001a0: 540c a23f 37a6 733f e0bf d33d 8cf7 0fc0
000001b0: 463e 83bf c9eb fdbf 7275 23bf 142e a63e
000001c0: 347f 18bf 5d28 8f3f 7412 56bf c601 093f
000001d0: 87b0 5f3f ce11 19bf 2d1f 963d 6c5b 2bbf
000001e0: 34e0 ec3f f7b7 26bf 2639 6240 7aea 6340
000001f0: 7a2c 3e40 badd 383f f26e b0be 8aaa 1b40
00000200: a6ea cdbf 4233 99c0 03ef 3fc0 491f 1c3f
00000210: 0ea0 383f 940e b83e 2908 ab3f 3df8 343f
00000220: 9929 d2be 20fb a3bf bc10 fc3f 4acc 7d40
00000230: 4875 98bf 4f8e 693f 38ba 3540 0320 7540
00000240: 2a00 5d40 be5f a03e 728e 2b3f e579 99bf
00000250: a4c4 10bf 8504 66c0 af5a 9abf 54b5 263f
00000260: 3877 83bf f89a c13f d94b c2be c902 983f
00000270: 6972 183f c3a0 11bf 7037 2ebe 8ac6 50bf
00000280: a713 063f bd34 3ebf b952 273f dab2 acbf
00000290: 7eac a2be 700a 9cbd ea88 78bf ff70 883e
000002a0: e2a7 a5be 72ed f63e 70c6 bdbf 5ad8 2f3f
000002b0: 038c 8bbe 55b7 0740 245c 983f dfd3 aebe
000002c0: b5de 7cbd aaf3 90bf a531 c6be 2582 d8bf
000002d0: 8cba 95bf e836 933f d0d4 99bf 5018 4dbe
000002e0: 3968 6dbe 48fb ef3d 8414 953f a75e 5ebf
000002f0: 5d47 3c3f 434e 013f ed4f 13c0 9d25 523f
00000300: 8139 5fbf 4023 6340 1cc1 24bf 998b 283f
00000310: 702e b03f 6c43 92bf eb3b 1ac0 aea3 73c0
00000320: 59d1 993d 1f58 f53d 298f c1bf 239c 04bf
00000330: 2eae 44bf e2e9 6d3f f109 883f 63dc 043e
00000340: caf9 a53e 1a69 ddbe 8376 783f 70aa 3ebf
00000350: 731f 483f f7fc 00bf 71a4 40bf fc5f f53e
00000360: 01ff 40bf 1781 303f b9f0 313f 9daf f13e
00000370: 48ef a6be 3512 febe 01a8 b3bf 5d8b e9bf
00000380: 4a9f a4bd 7bc0 1cbe fc85 3fbc ce67 5cbe
00000390: d9f8 5ebf d334 003f d27c 59be 6ab7 f4be
000003a0: a214 b23f 8228 2340 be42 02bf 69c5 193f
000003b0: fe8d 2abf 8e59 d3bd ef63 583f ac87 02c0
000003c0: 8344 553e 610e f5be 9110 16c0 2812 27c0
000003d0: 5f0f 14bf 16d9 efbd bb03 a13d c00b 783d
000003e0: 31bb 48bf 50f4 be3f d0d8 45bf 28ea f43e
000003f0: a586 1cbf ef97 283f 9e13 293f c437 4dbf
-6.6864243 0.5771366 1.5653853 9.5167465 2.7455306 0.3804686 -0.41374812 -5.208693
0.14394565 -7.8158417 -0.87812316 -2.0757852 -0.86763936 3.4836202 -0.7511077 0.48768756
0.82773846 -0.6016997 -0.15715736 -2.82275 1.1785547 -0.3844597 2.867821 -1.433305
2.6006594 -0.079283364 -0.16067415 1.9651662 -0.73398924 0.6500245 4.645486 0.6652766
1.2342325 -5.274311 1.3013391 0.06859862 -1.2738006 5.4016395 1.0458924 6.707694
-0.70944786 0.82500124 2.7843914 3.3909986 3.65025 -0.5282734 0.8712955 -0.995279
-0.5183295 -2.685567 -0.24389894 0.36790484 -0.76993054 0.89264697 -0.38131386 0.4274397
0.38287815 -0.14915064 -0.558176 -0.8873915 1.1612264 -0.82475466 0.13901696 -1.2374042
-0.6656579 -0.3486833 -0.49207067 1.1933743 -0.58819205 1.0267292 -1.204241 0.75480807
0.07201898 0.8926222 0.81431943 -0.5513961 -0.08540963 -0.9952239 -0.1566337 0.23991247
-1.1087343 0.8080743 -1.2538707 -0.010325656 -0.32723823 0.40145203 1.1084521 -0.92020935
1.26628 0.71253777 -1.1116302 0.5237002 -0.0070513655 -2.41869 0.18454443 -0.80713654
0.30544704 -0.87688243 -0.028692188 2.3748286 -2.552703 0.8863106 0.27933782 2.435705
1.2660012 0.951755 0.103393316 -2.249484 -1.0253379 -1.9837581 -0.6385108 0.3245703
-0.59569097 1.1184193 -0.8362191 0.5351833 0.87378734 -0.5979279 0.07330165 -0.66936374
1.8505921 -0.6512446 3.534738 3.5611863 2.9714646 0.7221333 -0.34459645 2.4322839
-1.6087234 -4.787507 -2.998963 0.6098524 0.72119224 0.35948622 1.3361865 0.7069128
-0.41047361 -1.2811012 1.9692607 3.9655938 -1.1910791 0.9123277 2.839491 3.8300788
3.453135 0.31323045 0.6701423 -1.1990324 -0.5655005 -3.5940259 -1.2058924 0.65120435
-1.0270758 1.5125418 -0.37948492 1.187585 0.59549576 -0.5688593 -0.17013335 -0.81552947
0.5237374 -0.7429922 0.653606 -1.3492081 -0.31772226 -0.07619178 -0.97083914 0.2664871
-0.32354647 0.4822803 -1.4826183 0.686895 -0.27255258 2.1205647 1.1903119 -0.3414602
-0.061735827 -1.132436 -0.3870975 -1.6914717 -1.1697555 1.1501131 -1.201807 -0.20028806
-0.23184289 0.1171785 1.1646886 -0.8686318 0.7354639 0.5051004 -2.3017533 0.82088643
-0.8719712 3.5490265 -0.6435716 0.6583801 1.3764172 -1.1426826 -2.409907 -3.8068652
0.07510633 0.119796984 -1.5121814 -0.51800746 -0.7682828 0.92935 1.0628034 0.12974696
0.32417136 -0.4324425 0.97055835 -0.74478817 0.7817299 -0.50385994 -0.7525092 0.47924793
-0.75389105 0.68946975 0.6950794 0.47204295 -0.32604432 -0.49623266 -1.4035646 -1.8245655
-0.080381945 -0.153078 -0.011689659 -0.21523973 -0.8709846 0.50080603 -0.21239021 -0.47796184
1.3912547 2.5493474 -0.5088309 0.6006685 -0.6662291 -0.103198156 0.84527487 -2.0395308
0.20826916 -0.47862533 -2.3447611 -2.6104832 -0.57835954 -0.11711328 0.0786204 0.06055808
-0.7841063 1.4918308 -0.77283955 0.47834897 -0.6114295 0.6585683 0.6604556 -0.80163217

lstm.bias_ih_l0 f4 [40]
00000000: 0334 103f 8b9e 2fc0 4a06 043e f76f 9440
00000010: 02c6 40c0 40fa 90bf 7dc0 3e3d ca9c 4240
00000020: 7405 873f 79c0 1740 9a43 e3be 145d 16be
00000030: 3f79 06c0 c071 8d40 4070 dfbf cdab 35bf
00000040: 8e1f c93f 288d 573e 0b77 0b40 0907 37c0
00000050: b4c7 533e 4dbc 11bf 2670 4b3f 1f3f 2bbf
00000060: 1828 a13f 8c77 a43d 27e8 41bf 8603 163f
00000070: 3fa3 bc3e d4a3 c13e 929d 0840 c672 07c0
00000080: 619a 30c0 53e6 6240 cc81 3bc0 fca2 c3bf
00000090: e757 78bf 1d60 b73e 5e19 793f 010a 4640
0.56329364 -2.7440517 0.12893024 4.6386676 -3.0120854 -1.132637 0.04657029 3.0408196
1.0548539 2.3711226 -0.44387513 -0.14683944 -2.1011503 4.4201355 -1.7456131 -0.7096527
1.5712755 0.2104994 2.1791408 -2.8598044 0.2068165 -0.5692795 0.79468 -0.6689319
1.2590361 0.08030614 -0.7574486 0.58599126 0.36843297 0.37820303 2.1346173 -2.1163802
-2.7594225 3.5453079 -2.9297972 -1.5284114 -0.9700913 0.35815516 0.9730433 3.0943606

lstm.bias_hh_l0 f4 [40]
00000000: 0434 103f 8c9e 2fc0 3206 043e f56f 9440
00000010: 02c6 40c0 3ffa 90bf 9ac0 3e3d ca9c 4240
00000020: 7205 873f 76c0 1740 9d43 e3be 125d 16be
00000030: 4079 06c0 c071 8d40 4270 dfbf caab 35bf
00000040: 8d1f c93f 1f8d 573e 0a77 0b40 0807 37c0
00000050: bec7 533e 4ebc 11bf 2470 4b3f 1e3f 2bbf
00000060: 1828 a13f 8d77 a43d 26e8 41bf 8603 163f
00000070: 3ea3 bc3e d5a3 c13e 919d 0840 c672 07c0
00000080: 619a 30c0 53e6 6240 cc81 3bc0 faa2 c3bf
00000090: e757 78bf 2c60 b73e 6019 793f 000a 4640
0.5632937 -2.744052 0.12892988 4.6386666 -3.0120854 -1.1326369 0.046570398 3.0408196
1.0548537 2.371122 -0.44387522 -0.14683941 -2.1011505 4.4201355 -1.7456133 -0.70965254
1.5712754 0.21049927 2.1791406 -2.8598042 0.20681664 -0.56927955 0.7946799 -0.66893184
1.2590361 0.08030615 -0.75744855 0.58599126 0.36843294 0.37820306 2.134617 -2.1163802
-2.7594225 3.5453079 -2.9297972 -1.5284111 -0.9700913 0.3581556 0.97304344 3.0943604

output_proj.weight f4 [2, 10]
00000000: 9ea3 bb40 fb8b bfc0 5f00 6f3e 0dfb 1e40
00000010: 5cd4 a6bd d0e7 d1bd cae2 9040 bfaa 5140
00000020: 2d15 33bf 38f2 4740 7981 82c0 9e7b 4e40
00000030: 98e3 3dbe 7d45 20c0 b2b7 0bbe ec86 483e
00000040: 1e2d 0ec0 dbcf 36c0 85f4 2e3f 0ef4 48c0
5.863723 -5.9858375 0.23339985 2.484073 -0.08145973 -0.10249293 4.527684 3.2760465
-0.69954187 3.1241589 -4.078305 3.226295 -0.18543851 -2.5042412 -0.13644293 0.19582719
-2.2215037 -2.8564365 0.6834186 -3.139896

output_proj.bias f4 [2]
00000000: 7fab 0140 eeab 01c0
2.0260923 -2.0261188

exp_avg f4 [2, 10]
00000000: b473 d527 4832 8ca7 d6b4 23a7 8e93 f0a6
00000010: 11e4 4f28 999d 76a7 3f7f afa7 761a b4a7
00000020: d8fe 0ea8 9840 0228 836f d329 ed96 cca9
00000030: 480a b828 c8e8 d5a9 2baa 262a f856 cca9
00000040: e500 d7a9 3dbb d8a9 717c eba9 2d35 072a
5.924482e-15 -3.891232e-15 -2.2718825e-15 -1.669334e-15 1.1540262e-14 -3.4224792e-15 -4.8710218e-15 -4.9988725e-15
-7.937844e-15 7.230456e-15 9.3896265e-14 -9.085601e-14 2.0432562e-14 -9.499481e-14 1.48028e-13 -9.0745066e-14
-9.548073e-14 -9.6248076e-14 -1.04576836e-13 1.2008858e-13

exp_avg_sq f4 [2, 10]
00000000: 80e3 1827 b7ca 2525 223a b424 760e 9725
00000010: 795f 1e27 0c6e 1725 faf8 2e24 d5d9 1623
00000020: 0cb6 8a27 9670 fa22 91eb 8717 69e3 ae18
00000030: e175 3b18 f4e1 9d18 1a1d a417 6ca0 f817
00000040: ba73 0f18 38ad b918 5ff7 8c18 6076 9a18
2.1217565e-15 1.4380151e-16 7.816104e-17 2.6204124e-16 2.197866e-15 1.3134448e-16 3.7941127e-17 8.177644e-18
3.850007e-15 6.788184e-18 8.783636e-25 4.520757e-24 2.4228697e-24 4.0811703e-24 1.0605598e-24 1.6067121e-24
1.8540744e-24 4.7996285e-24 3.6438933e-24 3.9927595e-24

exp_avg f4 [40, 10]
00000000: 8244 9e29 4b8c aba9 c815 0ba9 dd6b 89a9
00000010: 9f77 382a 4eed 82a9 993e bba9 7602 a5a9
00000020: 18ee cea9 4cd6 d429 d130 1200 958e 3380
00000030: e74f 2b00 45a9 5880 5bfe 2500 e293 3880
00000040: 8698 7780 2e52 8680 c170 0c80 66e2 5e00
00000050: 8158 8698 9e39 9318 bfc5 e117 0ba7 7018
00000060: 5f79 1c99 1a77 6218 f3e3 a318 56e3 9118
00000070: a714 af18 3d38 b898 7ea9 23a6 35c9 3326
00000080: f61e 8825 a493 1326 d796 bea6 0782 0a26
00000090: adfd 4826 b54b 3326 a421 5526 2061 61a6
000000a0: 7366 4327 a1a6 56a7 a384 a2a6 0a32 30a7
000000b0: 918c e327 365e 25a7 d0f7 6fa7 c910 56a7
000000c0: 7e76 7ea7 018b 8627 614b c89d 6f7f dc1d
000000d0: 9112 251d 76af b51d 4c37 699e ab1f aa1d
000000e0: 816d f71d c421 dd1d 9c55 021e e86e 0a9e
000000f0: b358 b727 b856 c9a7 a5b8 18a7 0c2a a5a7
00000100: 6284 5528 1113 9ba7 5bf2 e0a7 8a9a c8a7
00000110: 7bca eea7 7d54 fc27 7e51 0928 c8d8 16a8
00000120: ac6b 64a7 eda4 f7a7 3de9 9f28 176d e8a7
00000130: 77a3 28a8 7d6f 16a8 28d3 32a8 f019 3d28
00000140: 9c17 0d8a 17fe 1a0a c2b2 6a09 4373 fe09
00000150: 524e a48a 5cd0 ee09 f145 2d0a e691 1a0a
00000160: 4ebd 370a 634c 428a 58f6 1221 de70 21a1
00000170: 7676 74a0 ab84 04a1 4c24 ab21 e7bf f8a0
00000180: 6d7b 34a1 2d00 21a1 4362 3fa1 cd61 4a21
00000190: a1be 1b28 a716 2ba8 2c89 81a7 fb6f 0ca8
000001a0: 7d5e b528 afce 03a8 8244 3fa8 3b9f 2aa8
000001b0: 1fd2 4aa8 ec79 5628 7ae1 c120 54fb d4a0
000001c0: 1f41 21a0 4cd3 aea0 99c7 6121 0515 a4a0
000001d0: 1d1a eea0 a866 d4a0 f17b fca0 2e7f 0521
000001e0: 53f5 6b9a 379a 811a 4b40 c419 74c4 541a
000001f0: df63 099b 4bb1 471a 6fe3 901a bd3f 811a
00000200: e0a3 991a 2778 a29a 98e7 641e ca74 7b9e
00000210: 6d62 be9d 3268 4e9e 7448 051f 15b9 419e
00000220: a38e 8c9e 42c5 7a9e 1a0c 959e d09c 9d1e
00000230: 238a 1920 8daa 28a0 5e67 7f9f f772 0aa0
00000240: 20cd b220 f4f0 01a0 468f 3ca0 cf34 28a0
00000250: 01f3 47a0 9070 5320 4790 8ea3 dc9b 9c23
00000260: 5225 ed22 468d 8023 f504 26a4 e84d 7123
00000270: 8614 af23 8c2e 9c23 d2a7 b923 1853 c4a3
00000280: ccb0 3224 0a2a 43a4 cf43 98a3 478a 1ea4
00000290: 2c2b d024 6bc0 15a4 c1f6 57a4 a9a9 3fa4
000002a0: fc1a 69a4 f292 7324 626f 71a8 149c 8428
000002b0: cfcf c827 b3b3 5928 3f94 0ca9 4753 4c28
000002c0: ac3f 9428 ef3e 8428 e034 9d28 0d3d a6a8
000002d0: c8d7 180c 9de6 278c ae3e 7e8b 24d2 098c
000002e0: 6cfd b10c 025a 018c 3cb4 3b8c 6b71 278c
000002f0: bd0a 478c f27a 520c 0f4f d39f 7620 e81f
00000300: e7bf 2f1f 608a be1f 3d13 76a0 e0d4 b21f
00000310: a8c0 0120 6c7e e71f 0d97 0920 347f 11a0
00000320: 0400 0080 0400 0000 0400 0080 0400 0080
00000330: 0400 0080 0400 0080 0400 0080 0400 0000
00000340: 0400 0000 0400 0080 5d0a d126 90a2 e5a6
00000350: efdc 2da6 c27e bca6 016f 7327 6fe9 b0a6
00000360: 165c 00a7 4302 e5a6 f21c 08a7 5def 0f27
00000370: 0400 0000 0400 0080 0400 0000 0400 0000
00000380: 0400 0000 0400 0000 0400 0000 0400 0080
00000390: 0400 0080 0400 0000 cc34 64a4 61b0 7a24
000003a0: b5cd bd23 f8c6 4d24 59e0 04a5 c521 4124
000003b0: d820 8c24 6101 7a24 af97 9424 b321 9da4
000003c0: 0400 0080 0400 0000 0400 0080 0400 0000
000003d0: 0400 0080 0400 0000 0400 0000 0400 0000
000003e0: 0400 0000 0400 0080 4de7 b924 f637 cca4
000003f0: 9c9e 1aa4 d6a1 a7a4 6e7d 5825 b754 9da4
7.028494e-14 -7.6182624e-14 -3.0883092e-14 -6.1027335e-14 1.6383985e-13 -5.8143255e-14 -8.315327e-14 -7.327899e-14
-9.1895404e-14 9.451866e-14 1.670551e-39 -4.734759e-39 3.97759e-39 -8.142246e-39 3.489159e-39 -5.195838e-39
-1.0983139e-38 -1.2335437e-38 -1.142474e-39 8.713753e-39 -3.4727554e-24 3.8056788e-24 1.4590202e-24 3.1103608e-24
-8.089522e-24 2.9269946e-24 4.2364682e-24 3.7711172e-24 4.5257293e-24 -4.761967e-24 -5.678169e-16 6.2375787e-16
2.361322e-16 5.120096e-16 -1.3224784e-15 4.805459e-16 6.9732734e-16 6.22057e-16 7.394481e-16 -7.8194185e-16
2.7117224e-15 -2.9788796e-15 -1.1276959e-15 -2.4452033e-15 6.315756e-15 -2.2949422e-15 -3.3302252e-15 -2.9707565e-15
-3.5313816e-15 3.734318e-15 -5.30175e-21 5.836528e-21 2.1847167e-21 4.8091723e-21 -1.23463524e-20 4.503137e-21
6.549358e-21 5.8533126e-21 6.899846e-21 -7.328594e-21 5.088887e-15 -5.5882728e-15 -2.1194333e-15 -4.5842287e-15
1.1852581e-14 -4.3041814e-15 -6.243525e-15 -5.5678703e-15 -6.62778e-15 7.0035653e-15 7.6226985e-15 -8.37368e-15
-3.1699725e-15 -6.8735085e-15 1.7753697e-14 -6.451121e-15 -9.361319e-15 -8.350848e-15 -9.926772e-15 1.0497232e-14
-6.7933435e-33 7.462619e-33 2.8250777e-33 6.1256667e-33 -1.5822086e-32 5.7492356e-33 8.3428015e-33 7.442271e-33
8.846734e-33 -9.355127e-33 4.9792757e-19 -5.46983e-19 -2.0706799e-19 -4.4898924e-19 1.1597018e-18 -4.2139825e-19
-6.1149725e-19 -5.4549154e-19 -6.4843365e-19 6.85697e-19 8.6455645e-15 -9.497319e-15 -3.5953415e-15 -7.795843e-15
2.0136015e-14 -7.316778e-15 -1.0617485e-14 -9.471423e-15 -1.1258815e-14 1.1905824e-14 3.284468e-19 -3.6080512e-19
-1.3658777e-19 -2.961657e-19 7.649713e-19 -2.779659e-19 -4.0336049e-19 -3.598213e-19 -4.2772478e-19 4.5230474e-19
-4.8795032e-23 5.36023e-23 2.0291893e-23 4.3999266e-23 -1.1364644e-22 4.1295452e-23 5.992444e-23 5.3456124e-23
6.354407e-23 -6.7195746e-23 1.2118112e-20 -1.3311981e-20 -5.039435e-21 -1.0927096e-20 2.8223777e-20 -1.0255609e-20
-1.488207e-20 -1.3275682e-20 -1.5780994e-20 1.6687878e-20 1.300531e-19 -1.4286584e-19 -5.4083854e-20 -1.1727093e-19
3.0290113e-19 -1.100645e-19 -1.5971625e-19 -1.4247626e-19 -1.6936359e-19 1.7909639e-19 -1.5456775e-17 1.6979563e-17
6.4278493e-18 1.393762e-17 -3.599971e-17 1.30811335e-17 1.898223e-17 1.6933267e-17 2.0128815e-17 -2.1285554e-17
3.874735e-17 -4.2319493e-17 -1.6508591e-17 -3.4377914e-17 9.027876e-17 -3.247221e-17 -4.6829702e-17 -4.156023e-17
-5.0546678e-17 5.2816693e-17 -1.340234e-14 1.4722632e-14 5.5736458e-15 1.2084886e-14 -3.1214828e-14 1.1342333e-14
1.6458914e-14 1.4682237e-14 1.7453432e-14 -1.8456179e-14 1.1774588e-31 -1.293461e-31 -4.8965776e-32 -1.0617333e-31
2.742369e-31 -9.964884e-32 -1.4460193e-31 -1.2899343e-31 -1.5333634e-31 1.6214809e-31 -8.949277e-20 9.8309524e-20
3.721643e-20 8.069705e-20 -2.0843376e-19 7.5738104e-20 1.099047e-19 9.804145e-20 1.165433e-19 -1.2324066e-19
-6e-45 6e-45 -6e-45 -6e-45 -6e-45 -6e-45 -6e-45 6e-45
6e-45 -6e-45 1.4505097e-15 -1.593413e-15 -6.0320853e-16 -1.3079478e-15 3.37832e-15 -1.2275726e-15
-1.7813488e-15 -1.589068e-15 -1.8889483e-15 1.9974996e-15 6e-45 -6e-45 6e-45 6e-45
6e-45 6e-45 6e-45 -6e-45 -6e-45 6e-45 -4.948434e-17 5.4359507e-17
2.0578541e-17 4.4620822e-17 -1.1525187e-16 4.1878808e-17 6.077096e-17 5.4211277e-17 6.444173e-17 -6.8144985e-17
-6e-45 6e-45 -6e-45 6e-45 -6e-45 6e-45 6e-45 6e-45
6e-45 -6e-45 8.06228e-17 -8.85657e-17 -3.3527774e-17 -7.2698866e-17 1.8777511e-16 -6.823141e-17

exp_avg_sq f4 [40, 10]
00000000: 1812 2e1a 9217 831b ef73 661b 36f6 d61b
00000010: fe4f dd1a e4f9 a21b ec46 971b e942 481b
00000020: f36f dc19 54d7 2c1b 3159 c614 8d5e ec15
00000030: 7d59 8c15 e0fb 3416 3f8a 7c15 fc57 0416
00000040: 62d9 f115 9642 b515 558e 8414 9d0a a515
00000050: c0c7 1815 2627 3f14 363c 4d14 e1e1 1916
00000060: e3d0 8315 79f6 1615 9347 6e15 2f21 5115
00000070: 0f40 5115 84e2 3d15 9cb1 8b26 98d8 0a24
00000080: 4e82 2a25 210a 2a26 f434 f026 0ea0 9724
00000090: 37b4 ed26 6c02 3d27 4de3 6326 5995 1a27
000000a0: 1b22 c716 1d68 3b15 de0e 5315 8c00 db17
000000b0: cbc7 4417 3d5a 4e16 6400 cc16 863d 0e17
000000c0: 44b3 2517 dd41 1417 251b 0015 d7fe 6314
000000d0: 5e6d 7214 094a 0b15 828b 4915 3a05 8c14
000000e0: 1802 6f15 7bcd 9a15 e2b3 d614 b79e 7915
000000f0: 929c 8916 2cfc a416 42c5 4b15 ec9b 6216
00000100: 70bf b717 844f 4716 31ef cd16 073d a216
00000110: ec79 e716 e960 0017 f1e7 6114 ee25 e315
00000120: b81a 8c15 96c0 2c16 99b4 5c15 4223 0016
00000130: f4b1 eb15 b137 a815 2113 4314 1a45 9515
00000140: dbf6 821e 80c1 521e 1530 731e c5e3 2f1f
00000150: 8ecb 201f 7396 981e 2bbe a41f b2a3 711f
00000160: e0c8 5d1e d7f4 621f 9ac2 5c14 8fd9 9f15
00000170: d671 2014 d12b e015 00a0 0414 1707 c415
00000180: 4ac4 2815 d6fa 6914 eaa8 d613 ae86 bd14
00000190: 28c1 8114 9d07 3915 8853 fb14 36b0 4015
000001a0: 4aa4 3814 b06b 3115 a4a3 0415 66f4 8914
000001b0: 1bd3 9614 a381 4f14 a368 c212 6324 1113
000001c0: 9fad e412 9aeb 8b13 637f 5c12 b157 3613
000001d0: 1145 6313 7fd9 8f11 8958 9b12 9de0 b911
000001e0: 6dab 9616 eb9e 3f14 ba92 5014 aba0 bb17
000001f0: a7b0 1417 1255 1316 71bd 1a16 a184 9816
00000200: 76cf 0a17 b87a b716 b0e1 a11e 6890 3a1c
00000210: d858 531d cac5 451e 3b9b 021f b5ca c41c
00000220: 9cee 031f f543 6d1f 0df5 801e 6dbc 2d1f
00000230: 9f58 5516 119c 7d14 8257 5914 2606 8317
00000240: 3d0b cf16 528d db15 6ae0 ea15 3150 5416
00000250: e529 c216 3ec2 7f16 61d0 bc14 d6fe 9015
00000260: f84a 8715 9d1d b115 4b3e b214 461d aa15
00000270: 3d7a 7f15 fd30 1e15 f3cc d914 65b3 a414
00000280: 9149 9912 bf0e 5b12 f32c af11 f320 6712
00000290: 3740 6212 d9ed 0612 31a1 6112 17f0 4b12
000002a0: 16c8 1112 d3af 8c12 45a2 ba13 7a29 ed13
000002b0: d43d 8e12 7c05 a913 24c7 e014 6a21 8713
000002c0: 6e92 0614 6695 ce13 94ec 1014 c3d0 2514
000002d0: 3ea1 9517 95dc 7017 34df 8a17 87ea 4818
000002e0: 53a4 3718 684f ae17 cb2a bc18 f4f6 8918
000002f0: 8d68 7d17 8597 8118 e580 9e17 c4a7 1316
00000300: aceb 8e16 2d32 6317 5c65 0018 0d6a 5616
00000310: 7663 0c18 860f 7518 8a83 8017 dc72 2c18
00000320: bcef a915 95fe be15 c3e5 6f16 0836 8416
00000330: a24c 1516 73fd 5d15 8b2b 7815 e10c ab15
00000340: 4806 b115 0d09 dc15 5f1f ec16 450a 8917
00000350: 439f d514 54a9 6515 5cd9 cc16 1368 6e16
00000360: eaab fa17 6854 4117 6830 8015 0293 0114
00000370: e86d 9b15 4e2e c015 acaa 0a15 4d17 d715
00000380: 1151 3615 e0f5 6615 b933 d015 9089 db14
00000390: 116d 5215 95ba 0615 ebe4 2516 ff87 b416
000003a0: dc65 e615 2e06 8416 9ba6 7e16 a4c1 0516
000003b0: 0775 1d17 cc78 aa16 b272 2e15 d432 4315
000003c0: 0346 1017 8d7b 9716 83d4 8b15 8a71 d017
000003d0: a879 4617 8841 8316 f4fb 1017 4d6b fd16
000003e0: d9cd 2217 c4dc f216 4546 0f16 598f 3615
000003f0: d584 5814 2443 5a14 44b4 1615 7b90 4e15
3.5996973e-23 2.1687364e-22 1.9062614e-22 3.556244e-22 9.153269e-23 2.696214e-22 2.5026687e-22 1.6565232e-22
2.2792683e-23 1.4297083e-22 2.002807e-26 9.5468816e-26 5.668674e-26 1.4619762e-25 5.1000052e-26 1.0690638e-25
9.7682094e-26 7.321037e-26 1.3384734e-26 6.6659714e-26 3.085373e-26 9.650756e-27 1.03617296e-26 1.2430516e-25
5.3240044e-26 3.048669e-26 4.812018e-26 4.223339e-26 4.2257747e-26 3.8346935e-26 9.693204e-16 3.0107442e-17
1.4789298e-16 5.8994325e-16 1.6667698e-15 6.5756954e-17 1.6494026e-15 2.6230332e-15 7.9064496e-16 2.1452755e-15
3.2171708e-25 3.784648e-26 4.262284e-26 1.4152681e-24 6.358319e-25 1.6669022e-25 3.2958224e-25 4.596033e-25
5.354064e-25 4.790451e-25 2.5870807e-26 1.15108295e-26 1.22394466e-26 2.812923e-26 4.070168e-26 1.4138449e-26
4.8267317e-26 6.2524296e-26 2.1679429e-26 5.0410353e-26 2.2232353e-25 2.6654772e-25 4.1151132e-26 1.8305335e-25
1.1874423e-24 1.6100183e-25 3.3270487e-25 2.6211025e-25 3.7397006e-25 4.148135e-25 1.14053394e-26 9.174441e-26
5.6587704e-26 1.3954819e-25 4.4571113e-26 1.0350883e-25 9.5196505e-26 6.7942525e-26 9.8487566e-27 6.0289644e-26
1.3866382e-20 1.1157322e-20 1.2874256e-20 3.7246098e-20 3.4049694e-20 1.615585e-20 6.977131e-20 5.116914e-20
1.17411826e-20 4.8059888e-20 1.114554e-26 6.4562836e-26 8.100386e-27 9.054201e-26 6.695851e-27 7.9174955e-26
3.4082175e-26 1.18129625e-26 5.4187757e-27 1.9137245e-26 1.3101858e-26 3.7366458e-26 2.537747e-26 3.8913097e-26
9.322026e-27 3.5829816e-26 2.6786277e-26 1.3929863e-26 1.5229396e-26 1.04763956e-26 1.2268916e-27 1.8319513e-27
1.4431624e-27 3.5320854e-27 6.9576776e-28 2.3014865e-27 2.868548e-27 2.2695464e-28 9.803701e-28 2.9326282e-28
2.4341992e-25 9.674377e-27 1.0530253e-26 1.212515e-24 4.8044346e-25 1.1901409e-25 1.2499798e-25 2.4640625e-25
4.4852057e-25 2.964269e-25 1.713988e-20 6.172888e-22 2.7971549e-21 1.0469995e-20 2.7656974e-20 1.3022591e-21
2.7937702e-20 5.0242915e-20 1.3653878e-20 3.6790037e-20 1.7233967e-25 1.28040144e-26 1.0972958e-26 8.467229e-25
3.3449746e-25 8.867636e-26 9.486591e-26 1.7150528e-25 3.136883e-25 2.0660028e-25 1.906534e-26 5.85632e-26
5.4644346e-26 7.153645e-26 1.7997977e-26 6.870864e-26 5.159327e-26 3.194649e-26 2.1992239e-26 1.6630527e-26
9.673793e-28 6.912239e-28 2.7637834e-28 7.293136e-28 7.1392177e-28 4.2576114e-28 7.1196165e-28 6.435144e-28
4.6000557e-28 8.878586e-28 4.711301e-27 5.986811e-27 8.976702e-28 4.2667006e-27 2.2696767e-26 3.411174e-27
6.794149e-27 5.214903e-27 7.316799e-27 8.371542e-27 9.669603e-25 7.7826596e-25 8.974385e-25 2.59678e-24
2.3735158e-24 1.1264531e-24 4.864007e-24 3.566303e-24 8.188067e-25 3.3498714e-24 1.0243048e-24 1.1927503e-25
2.3090067e-25 7.3410987e-25 1.6594786e-24 1.7320246e-25 1.814479e-24 3.1673345e-24 8.305011e-25 2.2288468e-24
6.863679e-26 7.714205e-26 1.9378766e-25 2.1359849e-25 1.2060305e-25 4.483053e-26 5.011755e-26 6.908667e-26
7.149964e-26 8.887157e-26 3.8147654e-25 8.85601e-25 2.1570321e-26 4.6379758e-26 3.309515e-25 1.9258327e-25
1.6199269e-24 6.24682e-25 5.177516e-26 6.541828e-27 6.27774e-26 7.762124e-26 2.8003514e-26 8.687457e-26
3.6818557e-26 4.664209e-26 8.4092135e-26 2.2167608e-26 4.24952e-26 2.7208272e-26 1.3400828e-25 2.9166394e-25
9.3056966e-26 2.132965e-25 2.0570528e-25 1.0804757e-25 5.0877145e-25 2.7541215e-25 3.52295e-26 3.9420033e-26
4.6617277e-25 2.4473337e-25 5.647694e-26 1.3470346e-24 6.41308e-25 2.1205547e-25 4.684692e-25 4.094207e-25
5.260484e-25 3.9236531e-25 1.1573621e-25 3.686769e-26 1.093141e-26 1.10194285e-26 3.0434463e-26 4.1715344e-26

exp_avg f4 [40, 10]
00000000: 3076 3f89 0400 0080 519f 8600 5df5 8029
00000010: 0400 0000 eee1 7d06 0352 120a 346f 6e89
00000020: 5df5 80a9 ea82 44a9 0400 0000 0400 0000
00000030: 0400 0080 d422 2080 0400 0080 0400 0000
00000040: 0400 0080 0400 0080 d422 2000 318f 1800
00000050: 728a 2598 35ab 2518 3933 a80f a1b2 5313
00000060: 78ed 8f13 6405 8f94 1b74 5998 737d 2598
00000070: 9d1d 1893 caa3 d692 e231 01a6 255b 0126
00000080: e457 6622 17de bc20 c0d5 ba25 3c2c 2aa4
00000090: 5149 04a6 afb9 ffa5 cb2d 8602 0b1e 2b1b
000000a0: 7ad9 a325 a8fc a3a5 1fd3 0ea0 755b 0327
000000b0: 7b29 80a3 9012 7622 d52a d425 eda5 a325
000000c0: 685d 03a7 a02e c8a6 064a 8799 3576 8719
000000d0: 01d1 8313 9d22 a19d d435 a317 0499 8196
000000e0: b822 ae99 36a1 8699 a922 a11d aa85 751d
000000f0: d117 e6a1 e771 e621 f204 8b1b b7e8 9327
00000100: 85dd 2f20 685d 009f dc4e 13a2 e47f e4a1
00000110: b5e8 93a7 03f5 61a7 1138 8421 0059 84a1
00000120: a8ab c59a b1dd dd27 c779 009f 7b7c 281e
00000130: 6553 ac21 a1f0 8321 b2dd dda7 7e0b a9a7
00000140: 1b98 0086 a1b9 0006 0de6 4402 78ee e289
00000150: 6280 9b05 2484 0f84 57a7 0986 7143 ff85
00000160: a4ee e209 8fe7 ac09 523e 9b1c 6a58 9b9c
00000170: 75cf 1999 c2e0 ec20 31d5 639c a65b cd1a
00000180: d4a7 9d1c c150 9a1c e2e0 eca0 797b b4a0
00000190: 1189 c027 cab5 c0a7 ca78 91a0 0db6 09a2
000001a0: b66d efa4 c4a3 5724 aeb4 fb27 333f c027
000001b0: 64b1 4598 afa6 969e 60db 7620 4247 77a0
000001c0: 8130 959a 8185 aa9a 0603 fa9e 5b69 a41d
000001d0: a0ab 9c20 b0ba 7420 9649 1380 2e3a 2697
000001e0: 8eb7 3b9a c508 3c1a a4b6 a216 6c8c 0415
000001f0: 2ecf 0c1a c398 8098 a9b8 3e9a 6317 399a
00000200: 6008 8284 76b6 230f 2342 279c 1081 271c
00000210: d49b 9618 3d9e 431e 9eb0 fa1b 9001 649a
00000220: adba 299c 802e 259c 549c 439e 9600 159e
00000230: 9764 f61f 2aae f69f 3889 6b9c 9dd4 bb9a
00000240: cfda bb9f 3b19 2a1e 4037 f81f fbe8 f31f
00000250: be1a 0000 2f62 ad94 cd0a 37a3 f35b 3723
00000260: b169 d51d b281 841d 0716 e021 dbb4 89a0
00000270: 1868 66a3 3d5d 35a3 9c01 990e 32df ec19
00000280: 8ca1 1c22 b917 1da2 4e54 859c 82db 0524
00000290: 4e25 2aa1 70c3 bb1f 22e4 3e22 5d9b 1922
000002a0: 43dc 05a4 6265 cca3 c91f ce28 2465 cea8
000002b0: 3438 10a3 cce9 34a9 b98d 12a7 944d d825
000002c0: 6d1e 0429 1007 cd28 7ae0 3429 8ad0 0929
000002d0: 0400 0000 0400 0080 0400 0000 230f f70b
000002e0: 0400 0000 0200 0080 0400 0000 0400 0000
000002f0: 230f f78b 2a31 bc8b b448 1400 0400 0000
00000300: 0b00 0080 7ebd aa9f 0400 0000 11a8 0080
00000310: d7dc 6080 d61f 0200 7ebd aa1f 0417 821f
00000320: 0400 0000 0400 0000 0400 0080 0400 0080
00000330: 0400 0080 0400 0080 0400 0080 0400 0080
00000340: 0400 0000 0400 0000 6ddd b125 655a b2a5
00000350: 0d28 54a0 9f2f 6526 36e0 baa4 0add 4d23
00000360: a436 d925 58b2 ae25 e536 65a6 08a5 2ea6
00000370: 0400 0000 0400 0080 0400 0000 0400 0000
00000380: 0400 0000 0400 0080 0400 0080 0400 0000
00000390: 0400 0000 0400 0080 8c3e ba9d db84 ba1d
000003a0: 75ea 231a 9f5e 38a4 827d 891d 4dcc fa9b
000003b0: e2d8 bd9d eff8 b79d a05e 3824 9679 0c24
000003c0: 0400 0080 0400 0000 0400 0000 0400 0000
000003d0: 0400 0000 0400 0000 0400 0000 0400 0080
000003e0: 0400 0080 0400 0080 b204 7523 ccb4 75a3
000003f0: d2a6 869e 7ac9 6224 ba95 98a2 904b 2121
-2.304636e-33 -6e-45 1.2363108e-38 5.7269056e-14 6e-45 4.7749998e-35 7.045069e-33 -2.8700495e-33
-5.7269056e-14 -4.3634292e-14 6e-45 6e-45 -6e-45 -2.95123e-39 -6e-45 6e-45
-6e-45 -6e-45 2.95123e-39 2.25542e-39 -2.1395647e-24 2.1412188e-24 1.658581e-29 2.6720015e-27
3.6332437e-27 -1.4441436e-26 -2.810521e-24 -2.1389086e-24 -1.9199698e-27 -1.3545676e-27 -4.482347e-16 4.487939e-16
3.1217341e-18 3.1995406e-19 3.24107e-16 -3.6900342e-17 -4.589606e-16 -4.4361273e-16 1.9715814e-37 1.4154496e-22
2.842336e-16 -2.84472e-16 -1.2097722e-19 1.822948e-15 -1.3895355e-17 3.3349044e-18 3.6805162e-16 2.8388428e-16
-1.8230538e-15 -1.3890426e-15 -1.398857e-23 1.4006416e-23 3.3275143e-27 -4.2652134e-21 1.0547216e-24 -2.093764e-25
-1.8005201e-23 -1.3920388e-23 4.2652183e-21 3.2494583e-21 -1.559171e-18 1.5615556e-18 2.2998817e-22 4.1053006e-15
1.4896371e-19 -2.7182318e-20 -1.9963963e-18 -1.5483733e-18 -4.1052998e-15 -3.1357844e-15 8.959509e-19 -8.968226e-19
-8.1754616e-23 6.158018e-15 -2.7205786e-20 8.919588e-21 1.1677248e-18 8.940599e-19 -6.1580185e-15 -4.6919383e-15
-2.4185874e-35 2.4210503e-35 1.4465827e-37 -5.4631776e-33 1.462329e-35 -1.6870245e-36 -2.5889778e-35 -2.4004859e-35
5.4631937e-33 4.162525e-33 1.0273149e-21 -1.0279894e-21 -7.95181e-24 4.0128687e-19 -7.5383543e-22 8.493408e-23
1.0432771e-21 1.021174e-21 -4.012877e-19 -3.0574893e-19 5.3439313e-15 -5.34878e-15 -2.4643887e-19 -1.866334e-18
-1.03835585e-16 4.6759408e-17 6.986239e-15 5.3359226e-15 -2.5551213e-24 -1.5950806e-20 2.0909596e-19 -2.0945291e-19
-6.170332e-23 -7.052604e-23 -2.647103e-20 4.3519374e-21 2.6541e-19 2.0729374e-19 -1.771272e-39 -5.3710926e-25
-3.8818968e-23 3.8884573e-23 2.6287774e-25 2.676796e-26 2.911868e-23 -3.3241474e-24 -3.9440246e-23 -3.8275995e-23
-3.0570544e-36 8.071661e-30 -5.5341145e-22 5.5422474e-22 3.8931437e-24 1.0355937e-20 4.1473167e-22 -4.7150557e-23
-5.615868e-22 -5.465402e-22 -1.0355542e-20 -7.8881155e-21 1.04351464e-19 -1.0447318e-19 -7.793233e-22 -7.768488e-23
-7.955957e-20 9.004943e-21 1.0512349e-19 1.0329994e-19 9.593e-42 -1.7507262e-26 -9.922737e-18 9.939921e-18
5.6489913e-21 3.507421e-21 1.5184661e-18 -2.3328383e-19 -1.2490368e-17 -9.831774e-18 3.771896e-30 2.4491976e-23
2.1227465e-18 -2.1290026e-18 -8.822994e-22 2.9025708e-17 -5.7647613e-19 7.9520905e-20 2.5870574e-18 2.0817615e-18
-2.9026347e-17 -2.2160662e-17 2.2884379e-14 -2.2914457e-14 -7.818157e-18 -4.0170815e-14 -2.0338398e-15 3.7522596e-16
2.9336278e-14 2.2762635e-14 4.016273e-14 3.060099e-14 6e-45 -6e-45 6e-45 9.5163714e-32
6e-45 -3e-45 6e-45 6e-45 -9.5163714e-32 -7.248894e-32 1.862791e-39 6e-45
-1.5e-44 -7.231129e-20 6e-45 -6.0291e-41 -8.89543e-39 1.95092e-40 7.231129e-20 5.509522e-20
6e-45 6e-45 -6e-45 -6e-45 -6e-45 -6e-45 -6e-45 -6e-45
6e-45 6e-45 3.085465e-16 -3.0939332e-16 -1.797035e-19 7.9514874e-16 -8.104447e-17 1.1159879e-17
3.7680525e-16 3.030504e-16 -7.952473e-16 -6.0592036e-16 6e-45 -6e-45 6e-45 6e-45
6e-45 -6e-45 -6e-45 6e-45 6e-45 -6e-45 -4.929846e-21 4.937116e-21
3.3897003e-23 -3.9978787e-17 3.639337e-21 -4.1491057e-22 -5.0252135e-21 -4.8697088e-21 3.997879e-17 3.0460648e-17
-6e-45 6e-45 6e-45 6e-45 6e-45 6e-45 6e-45 -6e-45
-6e-45 -6e-45 1.3282471e-17 -1.3319762e-17 -1.4256797e-20 4.9176595e-17 -4.135821e-18 5.464893e-19

exp_avg_sq f4 [40, 10]
00000000: e574 eb18 fc29 2a12 8246 9d14 a4d5 491a
00000010: ba12 6813 016e 0517 724c cb14 596e 6513
00000020: 2277 bf13 7186 f419 2121 9d13 a4de 0d14
00000030: 86d5 ac13 d1c5 0415 fb4b e612 f94e a212
00000040: 427a 0214 3d6d 5f13 1aec 0912 8691 a214
00000050: 562e 5414 c6a8 9912 794e a914 9be7 6b16
00000060: ee96 a413 8da0 7012 da1d 9113 7cc6 9413
00000070: 3985 2711 4efe 0516 9c50 d614 b20b fd0f
00000080: e910 2a14 39ce c222 6f98 2413 45f7 4a14
00000090: f26f 4c14 8f55 0515 788e 9425 33bb 3025
000000a0: d68f b314 a9f8 4814 70cb d616 551b 3a18
000000b0: 6bf7 8f15 4425 7e13 40c3 f414 7298 9514
000000c0: e091 a012 f173 d917 9883 b314 d966 1413
000000d0: 707d 2013 c105 ab14 eea2 2512 ec3d a913
000000e0: 5541 9013 4be7 6313 09c6 d613 3835 c914
000000f0: 8f09 7314 f580 8a13 0b8a 0a13 161d 3016
00000100: bd3c b712 bbdc 2813 6569 8f13 5ade cc13
00000110: 5473 2416 b0b4 dc15 121a 8413 715b 4313
00000120: 1a48 b012 d746 aa13 ff21 3e12 6895 8e11
00000130: 7dda 1c13 8f22 6b13 7327 7d12 5fcd 0b13
00000140: 7e8e c112 baee e211 f2ba 1a13 bfef 8d1d
00000150: 3309 3612 f5dd 0e12 e458 6513 3597 8512
00000160: 361c e71c e9be 481d 4111 a515 2cb0 6d13
00000170: 260b 3f14 29bd 8a15 4488 2e13 a9bf 1c12
00000180: d958 8714 d4bd 8a15 f0a1 e910 fd2e 8a15
00000190: 3d2c 8815 d54f 0113 a6a2 b314 3677 a015
000001a0: 2351 dc13 00a4 1015 de1b e514 5eed 4513
000001b0: 2443 3311 d785 a415 187f 9913 91ec 0013
000001c0: 3de7 b913 b5e3 5d13 e018 1013 accc bc12
000001d0: 0dc5 0b14 40b6 6913 ab5f 1f12 b514 8613
000001e0: f5e6 7f13 eb52 cb12 d4cb cf16 b512 2f18
000001f0: 90c4 9e15 b40c 5d11 08a7 a112 99bb 5b13
00000200: a018 2a0f ffd2 c717 c422 3e16 3493 0a12
00000210: 8fa1 9e12 ea8f 3c1b bc3b 0a12 e63c 5e14
00000220: 9865 0b13 4b1d 0d16 e527 a71d 5d5c 431d
00000230: b9b2 5d14 e599 ad13 8f7c 9316 cb07 ee17
00000240: 7f94 5b15 b550 9313 5ae6 0c15 f083 2f14
00000250: 2285 fb12 d24d 8b17 a836 7115 a898 3413
00000260: ee28 0713 1aed d315 a79a 1c12 5dff 1f15
00000270: 13c8 6d13 adcb 7813 ffdc f312 f4d5 d415
00000280: f999 f813 dc5d aa13 c831 9312 7874 ac13
00000290: 9022 4112 d908 3312 669f 2e13 095f da13
000002a0: 5dea b210 6df4 fd12 bbf4 c513 47e4 9a13
000002b0: 7b0f a112 b89d 0b14 cd39 2412 4fcc d411
000002c0: ec95 5713 4150 ba13 6928 9313 7515 8113
000002d0: 375b a612 ae35 0912 4410 ba12 f53a 2817
000002e0: e601 fe11 75f3 ff11 05fc 0d13 dc3e 7312
000002f0: 3b87 7b16 4357 d616 e319 4215 4d76 a413
00000300: f25a d614 02f8 da15 2b4e a513 8131 3114
00000310: b700 2f15 430c e613 5245 a716 c56b 9316
00000320: eff1 5a15 513d 2514 52f4 1716 f2db e815
00000330: 9e1c 2816 e884 a314 9a63 9116 92b9 8a14
00000340: 63b4 9e14 8397 da14 7c8d 6e16 7613 6916
00000350: 14e8 d015 4452 3816 c2a1 8118 ae73 1b17
00000360: 110d 9b17 d239 d215 b8af 0417 d580 dd15
00000370: 1d51 ab16 05d0 3f16 5072 a315 5d53 b616
00000380: e00f 5516 60d7 4115 2289 0816 5e08 8416
00000390: 6803 9714 ca90 1a16 2567 a515 4431 1215
000003a0: c956 9315 54dc 3d16 fdff 3617 ebbd f315
000003b0: f017 eb16 1aa3 6014 f302 b915 8c01 2516
000003c0: 282e e717 ad3e aa17 c91b 4117 a273 7018
000003d0: e4b0 2a17 699f 6616 e6bd 7017 977d d217
000003e0: 7ff3 a215 fff7 f117 0950 8017 960d 3117
000003f0: 0e1d 0616 2002 1e17 4b25 7416 6ca5 b815
6.086411e-24 5.369429e-28 1.5880759e-26 4.1738403e-23 2.929175e-27 4.311346e-25 2.0527914e-26 2.895827e-27
4.8332653e-27 2.5283309e-23 3.966504e-27 7.162589e-27 4.3629455e-27 2.6813237e-26 1.4533771e-27 1.0243106e-27
6.587434e-27 2.8200416e-27 4.3520595e-28 1.6415219e-26 1.0712403e-26 9.697263e-28 1.7095591e-26 1.9056231e-25
4.154825e-27 7.592854e-28 3.663258e-27 3.7556173e-27 1.321503e-28 1.0823899e-25 2.1640273e-26 2.4952231e-29
8.5861416e-27 5.2802152e-18 2.0774866e-27 1.0247159e-26 1.0321445e-26 2.692663e-26 2.5770448e-16 1.5328992e-16
1.8131114e-26 1.0146459e-26 3.4701952e-25 2.4053736e-24 5.8147597e-26 3.207768e-27 2.4714716e-26 1.5105284e-26
1.0133381e-27 1.4052564e-24 1.8126286e-26 1.8730934e-27 2.0256685e-27 1.7268857e-26 5.2265646e-28 4.2722657e-27
3.6415133e-27 2.8765464e-27 5.4216473e-27 2.0316804e-26 1.227025e-26 3.496326e-27 1.748611e-27 1.4226345e-25
1.1563897e-27 2.131341e-27 3.6202202e-27 5.1716095e-27 1.3284206e-25 8.914237e-26 3.3347192e-27 2.4657544e-27
1.1124936e-27 4.2983887e-27 5.999533e-28 2.2495728e-28 1.9797691e-27 2.9678209e-27 7.988135e-28 1.7645522e-27
1.2215139e-27 3.580364e-28 1.9529704e-27 3.757028e-21 5.7440413e-28 4.5080883e-28 2.894769e-27 8.430755e-28
1.529359e-21 2.6568478e-21 6.667019e-26 3.0000465e-27 9.645234e-27 5.60362e-26 2.2029072e-27 4.946116e-28
1.366656e-26 5.603725e-26 9.21518e-29 5.581189e-26 5.499976e-26 1.632145e-27 1.8138535e-26 6.481157e-26
5.5615815e-27 2.9209942e-26 2.3134083e-26 2.4981927e-27 1.41413e-28 6.6450235e-26 3.8747954e-27 1.6272508e-27
4.6928584e-27 2.800639e-27 1.818762e-27 1.1914924e-27 7.056568e-27 2.949859e-27 5.0289473e-28 3.3846774e-27
3.2299396e-27 1.2831542e-27 3.3571287e-25 2.2627665e-24 6.412581e-26 1.743774e-28 1.0201705e-27 2.7734179e-27
8.38639e-30 1.2913336e-24 1.5359048e-25 4.3726564e-28 1.0011029e-27 1.5597497e-22 4.361875e-28 1.1220146e-26
1.7594356e-27 1.1399133e-25 4.424578e-21 2.5855786e-21 1.11928955e-26 4.382309e-27 2.3827738e-25 1.5382357e-24
4.434384e-26 3.71876e-27 2.845449e-26 8.861262e-27 1.5873147e-27 9.002309e-25 4.871268e-26 2.279446e-27
1.7059575e-27 8.55963e-26 4.9415544e-28 3.231124e-26 3.001225e-27 3.140242e-27 1.5389936e-27 8.5963677e-26
6.275583e-27 4.3006586e-27 9.289276e-28 4.353375e-27 6.0942663e-28 5.6493346e-28 2.2040477e-27 5.512465e-27
7.0569714e-29 1.60268e-27 4.9971114e-27 3.9100164e-27 1.0164345e-27 7.048811e-27 5.182052e-28 3.3573617e-28
2.7210732e-27 4.7032138e-27 3.7147864e-27 3.2585336e-27 1.0498559e-27 4.3295743e-28 1.174226e-27 5.435814e-25
4.0075304e-28 4.0381948e-28 1.7920957e-27 7.675476e-28 2.031829e-25 3.4628635e-25 3.919841e-26 4.1516074e-27
2.164435e-26 8.8440786e-26 4.1728935e-27 8.945979e-27 3.5341532e-26 5.8072254e-27 2.7024052e-25 2.3817143e-25
4.42156e-26 8.342464e-27 1.2274777e-25 9.4051066e-26 1.3579962e-25 1.6511216e-26 2.348887e-25 1.4007634e-26
1.6025073e-26 2.2072136e-26 1.9270131e-25 1.8827731e-25 8.4376686e-26 1.488936e-25 3.3509052e-24 5.022921e-25
1.0019939e-24 8.490955e-26 4.287329e-25 8.946445e-26 2.767773e-25 1.5494497e-25 6.601553e-26 2.9456295e-25
1.7211012e-25 3.914594e-26 1.1029264e-25 2.133103e-25 1.5248447e-26 1.2485708e-25 6.68057e-26 2.952333e-26
5.950975e-26 1.5336822e-25 5.9130474e-25 9.8446556e-26 3.7981404e-25 1.1341276e-26 7.472556e-26 1.3329082e-25
1.4939677e-24 1.1001814e-24 6.2396733e-25 3.1077653e-24 5.515323e-25 1.8629553e-25 7.778787e-25 1.3602635e-24
6.581545e-26 1.5636863e-24 8.29201e-25 5.720893e-25 1.0833602e-25 5.1055236e-25 1.9721931e-25 7.4578e-26

exp_avg f4 [40]
00000000: de5f 83a9 4e3f 2000 0442 5a18 124c 0426
00000010: ebf3 1da7 9f35 a11d 8650 94a7 0501 dea7
00000020: f61a e409 7198 eda0 47cb fba7 7cb9 9ca0
00000030: fcbc 3e1a 4e09 399e a93a f89f ec7b 6623
00000040: 8d20 12a4 fc2a 4328 501a f78b 08d0 aa1f
00000050: 0400 0000 a0fa a8a6 0400 0080 c578 3824
00000060: 0400 0080 b046 96a4 cb5f 9226 bf3d 0224
00000070: 0400 0080 0400 0000 70b2 1ca7 0400 0000
00000080: 8038 4126 1376 5728 e344 f8a6 d2e3 5d28
00000090: 7895 e4a5 91b7 19a7 a1d8 e88b ac22 1025
-5.834199e-14 2.961445e-39 2.8209169e-24 4.5899794e-16 -2.1920355e-15 4.267179e-21 -4.1165556e-15 -6.1618483e-15
5.4914357e-33 -4.025024e-19 -6.988689e-15 -2.655017e-19 3.944374e-23 -9.795743e-21 -1.0512913e-19 1.24945665e-17
-3.1686275e-17 1.0833995e-14 -9.518053e-32 7.234196e-20 6e-45 -1.1725274e-15 -6e-45 4.0000936e-17
-6e-45 -6.517188e-17 1.015675e-15 2.8241557e-17 -6e-45 6e-45 -2.174608e-15 6e-45
6.70369e-16 1.1960501e-14 -1.7227129e-15 1.2317365e-14 -3.965298e-16 -2.1332527e-15 -8.9689096e-32 1.2501756e-16

exp_avg_sq f4 [40]
00000000: 825f 541a 757b 9515 b4b7 8e16 86c9 9825
00000010: 12a8 4a18 b7d6 8d15 b05e 8716 192a eb14
00000020: 7856 211e 0db3 2516 1366 fa15 b9e7 8315
00000030: 0d0e 2d18 b367 a81d 525f 0218 0097 1816
00000040: bd5b 5015 68bd fc14 25ea 3c17 1e2c 1917
00000050: 7c68 f817 11b1 a71b 571f 3319 7dbe c81a
00000060: 3c90 8b1a 58a1 6e19 3361 3919 3112 3219
00000070: b60e 9b19 8552 a318 67d4 9517 55e4 d615
00000080: 82dc 581a 6c26 9a16 7f52 6e19 b42f 9b17
00000090: 0f28 2d18 2889 c522 dfdd 4c1f ddfd 2517
4.3917723e-23 6.03754e-26 2.305727e-25 2.6504354e-16 2.6192742e-24 5.7288207e-26 2.1870183e-25 2.374554e-26
8.54115e-21 1.3385092e-25 1.0113524e-25 5.327607e-26 2.236682e-24 4.4576452e-21 1.685023e-24 1.232611e-25
4.2077634e-26 2.5520205e-26 6.104161e-25 4.949265e-25 1.6053e-24 2.774226e-22 9.260412e-24 8.302581e-23
5.7722076e-23 1.2336895e-23 9.583905e-24 9.206058e-24 1.6032566e-23 4.2217836e-24 9.682517e-25 8.6794156e-26
4.4845878e-23 2.490429e-25 1.23209716e-23 1.0028682e-24 2.237995e-24 5.3542177e-18 4.3382208e-20 5.3634796e-25

exp_avg f4 [40]
00000000: dc5f 83a9 4e3f 2000 0242 5a18 124c 0426
00000010: ebf3 1da7 9f35 a11d 8650 94a7 0501 dea7
00000020: f61a e409 7198 eda0 47cb fba7 7cb9 9ca0
00000030: fcbc 3e1a 4e09 399e aa3a f89f ec7b 6623
00000040: 8d20 12a4 fc2a 4328 501a f78b 08d0 aa1f
00000050: 0400 0000 a0fa a8a6 0400 0080 c578 3824
00000060: 0400 0080 af46 96a4 cb5f 9226 bf3d 0224
00000070: 0400 0080 0400 0000 71b2 1ca7 0400 0000
00000080: 8138 4126 1276 5728 e344 f8a6 d3e3 5d28
00000090: 7895 e4a5 92b7 19a7 a1d8 e88b ac22 1025
-5.8341976e-14 2.961445e-39 2.8209165e-24 4.5899794e-16 -2.1920355e-15 4.267179e-21 -4.1165556e-15 -6.1618483e-15
5.4914357e-33 -4.025024e-19 -6.988689e-15 -2.655017e-19 3.944374e-23 -9.795743e-21 -1.0512914e-19 1.24945665e-17
-3.1686275e-17 1.0833995e-14 -9.518053e-32 7.234196e-20 6e-45 -1.1725274e-15 -6e-45 4.0000936e-17
-6e-45 -6.517187e-17 1.015675e-15 2.8241557e-17 -6e-45 6e-45 -2.1746082e-15 6e-45
6.7036903e-16 1.19605e-14 -1.7227129e-15 1.2317366e-14 -3.965298e-16 -2.133253e-15 -8.9689096e-32 1.2501756e-16

exp_avg_sq f4 [40]
00000000: 825f 541a 757b 9515 b4b7 8e16 86c9 9825
00000010: 12a8 4a18 b7d6 8d15 b05e 8716 6f2a eb14
00000020: 7856 211e 0db3 2516 1366 fa15 b9e7 8315
00000030: e90d 2d18 b367 a81d 525f 0218 0097 1816
00000040: bd5b 5015 68bd fc14 25ea 3c17 1e2c 1917
00000050: 7c68 f817 11b1 a71b 571f 3319 7dbe c81a
00000060: 3c90 8b1a 58a1 6e19 3361 3919 3112 3219
00000070: b60e 9b19 8552 a318 67d4 9517 55e4 d615
00000080: 82dc 581a 6c26 9a16 7f52 6e19 b42f 9b17
00000090: 0f28 2d18 2889 c522 dfdd 4c1f ddfd 2517
4.3917723e-23 6.03754e-26 2.305727e-25 2.6504354e-16 2.6192742e-24 5.7288207e-26 2.1870183e-25 2.3745673e-26
8.54115e-21 1.3385092e-25 1.0113524e-25 5.327607e-26 2.2366749e-24 4.4576452e-21 1.685023e-24 1.232611e-25
4.2077634e-26 2.5520205e-26 6.104161e-25 4.949265e-25 1.6053e-24 2.774226e-22 9.260412e-24 8.302581e-23
5.7722076e-23 1.2336895e-23 9.583905e-24 9.206058e-24 1.6032566e-23 4.2217836e-24 9.682517e-25 8.6794156e-26
4.4845878e-23 2.490429e-25 1.23209716e-23 1.0028682e-24 2.237995e-24 5.3542177e-18 4.3382208e-20 5.3634796e-25

exp_avg f4 [2, 10]
00000000: 9ed2 6cad bf04 6d2d 8acc 4c27 fc3c b7bc
00000010: a9d4 cf2a 0dc1 0faa 545a 9aad 9695 6cad
00000020: fc3c b73c 0074 893c 4c35 f324 0400 0080
00000030: d36c de94 f93c b73c 2bf2 0680 552c 4e9a
00000040: a2c1 8f9c 4819 c725 f93c b7bc 0074 89bc
-1.3461813e-11 1.3472944e-11 2.8421568e-15 -0.022367947 3.691815e-13 -1.276793e-13 -1.7547887e-11 -1.3448262e-11
0.022367947 0.016778946 1.0547474e-16 -6e-45 -2.2459195e-26 0.022367941 -6.37886e-40 -4.2635613e-23
-9.512999e-22 3.4538128e-16 -0.022367941 -0.016778946

exp_avg_sq f4 [2, 10]
00000000: 91b5 031c deb4 ed1b 1b34 a11a 9e58 723b
00000010: a107 b019 821d 9419 a478 4d1c 5e78 c91f
00000020: 9e58 723b c58d 113b 1bc6 951a 56e5 b619
00000030: 1b34 a11a 9d58 723b d0d9 ae19 6ee3 9319
00000040: 01b4 961a 8598 c81f 9f58 723b c58d 113b
4.3578933e-22 3.9325244e-22 6.667222e-23 0.003697909 1.8201055e-23 1.531476e-23 6.7984735e-22 8.532594e-20
0.003697909 0.0022209745 6.194501e-23 1.8910987e-23 6.667222e-23 0.0036979087 1.8079152e-23 1.5291302e-23
6.232936e-23 8.495562e-20 0.0036979092 0.0022209745

exp_avg f4 [2]
00000000: 167b b43c 147b b4bc
0.022031348 -0.022031344

exp_avg_sq f4 [2]
00000000: aef1 7a3b b0f1 7a3b
0.0038291025 0.003829103
