results/baseline_lstm_task3_seed42/model_lstm_ntask3_nchar3_seed42.pt (torch, 20863 bytes, 21 tensors)

embedding.weight f4 [3, 10]
0	0xc01c9333	-2.4464843
1	0x3ea64e33	0.32481536
2	0xc061e529	-3.5296118
3	0xbfa6d661	-1.3034173
4	0x3f3a11b4	0.7268326
5	0x401557ba	2.3334794
6	0xbfbf8011	-1.4960958
7	0x4029667c	2.6468801
8	0xbd315173	-0.043290567
9	0xc01e3ffa	-2.4726548
10	0xc007c8e9	-2.1216376
11	0xbd247a5e	-0.04015576
12	0x4033f275	2.8116734
13	0x3d84cecb	0.06484755
14	0x3efaa2e7	0.4895241
15	0xbfa5ae23	-1.2943767
16	0xbed6e59d	-0.41972056
17	0x3fb65f0b	1.4247755
18	0xc09f3ff3	-4.9765563
19	0x40903080	4.5059204
20	0x3fd513c2	1.6646655
21	0xbeeb30a0	-0.45935535
22	0xbf8bfba3	-1.0936168
23	0x3d90298b	0.07039174
24	0xbff9ca93	-1.9514946
25	0xbf2b20e7	-0.6684708
26	0xbecb0708	-0.39653802
27	0xbfac1dd8	-1.3446608
28	0x3fc2518d	1.5181137
29	0xbfda7633	-1.7067322

lstm.weight_ih_l0 f4 [40, 10]
0	0x3e1631a0	0.14667368
1	0x3dc23422	0.094826
2	0x3e10afb9	0.14129533
3	0x3f53ed65	0.8278411
4	0xbfacbe7b	-1.349563
5	0xbd54d1ec	-0.05195801
6	0xbda6c476	-0.08142941
7	0x3e9ed9c6	0.31025523
8	0xbf3d1575	-0.73860866
9	0xbf6829e9	-0.9068895
10	0x3f8a09a0	1.0784187
11	0xbe36c4b7	-0.17848478
12	0xbf4e841c	-0.8067033
13	0x3f343298	0.703897
14	0xbf72272f	-0.9459104
15	0xbf1708cc	-0.589978
16	0x3e14e66e	0.14541027
17	0xbfc6cd6e	-1.5531442
18	0x3f9f74e5	1.2457548
19	0xbecd9860	-0.40155315
20	0x3fb2a288	1.3955851
21	0xbf0f7baa	-0.5604807
22	0x4010a627	2.2601411
23	0xbd1bb73f	-0.038016554
24	0x3edb16f7	0.42790958
25	0xbf95d5a6	-1.1705825
26	0xbe9ae15d	-0.30250064
27	0xbfb38ea6	-1.4027908
28	0x3f286252	0.65775025
29	0x3e5b35de	0.21407267
30	0x3fb89b22	1.4422343
31	0xbf510f38	-0.81663847
32	0x4016f933	2.35896
33	0xbe5332d6	-0.20624861
34	0xbe05bfc8	-0.1306144
35	0xbf85d126	-1.0454452
36	0xbee3a069	-0.4445832
37	0xbf665041	-0.8996621
38	0x3f084db5	0.5324357
39	0x3d4ff639	0.050771926
40	0xbf08d951	-0.534566
41	0x3ff22719	1.8918182
42	0xbfd5b4d5	-1.669581
43	0x3ff662f7	1.9248952
44	0xc02f621e	-2.7403636
45	0x400243a3	2.0353782
46	0x3f3d8bfb	0.7404172
47	0x3fb63ae3	1.4236721
48	0xbc70d840	-0.0146999955
49	0xc006b498	-2.1047726
50	0x3df3368f	0.118756406
51	0x3a0dae3c	0.0005404686
52	0xc05dfa4e	-3.4684024
53	0x3f1d8274	0.6152718
54	0xc007e520	-2.1233597
55	0x3f4dc756	0.8038229
56	0xbe278a8b	-0.16361444
57	0xbddaa85a	-0.10676642
58	0x3f3669a9	0.71254975
59	0xbff4662f	-1.9093684
60	0x3fa81530	1.3131466
61	0xbf31dd81	-0.69478613
62	0x3fca7e3c	1.5819774
63	0x3d6c2e92	0.0576616
64	0xbea1143a	-0.31460744
65	0xbfa50e34	-1.289496
66	0xbec40db9	-0.3829172
67	0xbf9051b4	-1.1274934
68	0x3e73be20	0.23802996
69	0x3f30426a	0.6885134
70	0x3e2e51cd	0.17023392
71	0x3ea44d2c	0.32090127
72	0xc0341e00	-2.814331
73	0x3d0af653	0.03392632
74	0xbfc335d2	-1.52508
75	0x3f519d02	0.818802
76	0xbd95565d	-0.07291863
77	0x3f03f675	0.5154794
78	0x3e3ba076	0.1832293
79	0xbfe99276	-1.8247821
80	0xbeb6d7af	-0.3571143
81	0xbe72b637	-0.23702322
82	0x402d257c	2.7054129
83	0xbb803774	-0.0039128605
84	0x403098e0	2.7593307
85	0xbf8987e3	-1.0744594
86	0x3e88f0ca	0.26746207
87	0xbf35f987	-0.71083874
88	0xbf8e65d9	-1.1124831
89	0x40694266	3.6446776
90	0xc072e251	-3.7950633
91	0x40860af8	4.188839
92	0xbf624643	-0.8838846
93	0x406b070a	3.6723046
94	0xc0a48d6e	-5.1422644
95	0x3e9af1ff	0.30262753
96	0x402114d2	2.5168958
97	0x4082f4c3	4.092378
98	0xc0242d66	-2.565271
99	0xbf1244c0	-0.57136154
100	0x3eb63c1c	0.35592735
101	0x3db523bf	0.08844709
102	0x3fcc7dfa	1.5975945
103	0x3f91bbaf	1.1385401
104	0xbf25ded2	-0.6479312
105	0xbf1e53ff	-0.6184692
106	0x3f78ce33	0.97189635
107	0x3d5a394b	0.053277295
108	0xbfb2f5ea	-1.3981297
109	0x3e4d8e98	0.20073926
110	0x3fc2174b	1.5163358
111	0xbfba3a5e	-1.4549062
112	0xbf02061b	-0.50790566
113	0xbf1fbbbc	-0.62395835
114	0xbf2162b0	-0.6304121
115	0xbf3bf49a	-0.7342011
116	0xbe5d3fb7	-0.21606337
117	0xbfb58dfb	-1.4183954
118	0x3fa60274	1.2969499
119	0xbfb76d34	-1.4330201
120	0x3f8b6857	1.0891217
121	0xbf770a68	-0.96500254
122	0x3fbe4bf3	1.4866928
123	0xbe4890b2	-0.19586447
124	0xbe655c5d	-0.22398515
125	0xbf920db7	-1.1410435
126	0xbe771fbd	-0.24133201
127	0xbf854cdb	-1.041408
128	0x3eefdf66	0.46850127
129	0x3e089856	0.13339362
130	0x3f9faf27	1.2475327
131	0xbf429153	-0.76003
132	0x3fc6969f	1.5514716
133	0xbe72ed23	-0.23723273
134	0xbda73bde	-0.08165716
135	0xbfae39cf	-1.3611392
136	0x3d2faa3b	0.042886954
137	0xbfaa5b71	-1.3309156
138	0x3f03fc68	0.51557016
139	0x3eaea915	0.34113374
140	0xc005b614	-2.0892382
141	0x402799bb	2.618758
142	0xbf88ee34	-1.0697694
143	0x403a3b08	2.909853
144	0xbf9d0e8e	-1.2270067
145	0x401c4062	2.4414296
146	0x400a0cce	2.1570315
147	0x400b28e1	2.17437
148	0xbfa56872	-1.2922499
149	0xbf430d0a	-0.7619177
150	0x3f8c9f6f	1.0986155
151	0xc0100a0c	-2.2506132
152	0xbe49f2f5	-0.19721587
153	0xbfc1da58	-1.5144758
154	0x3f9b006a	1.2109501
155	0xc00a504a	-2.1611505
156	0xbf09f18d	-0.538842
157	0xc0039c95	-2.056432
158	0x3fa735ee	1.3063333
159	0x3ee5a9d9	0.44856146
160	0x3f7cc906	0.9874424
161	0xbfac6978	-1.3469687
162	0x3f497dee	0.7870778
163	0x3f23e3a9	0.64019257
164	0xbe08316b	-0.13300101
165	0xbf9ac378	-1.2090902
166	0x3cf1ae50	0.029502064
167	0xbf8915a7	-1.0709733
168	0xbd4c8fcb	-0.04994182
169	0xbdcc41f8	-0.0997352
170	0xbedc6d7a	-0.43052274
171	0x3d35c195	0.044374067
172	0xc0380d0b	-2.875796
173	0xbf8a273a	-1.0793221
174	0xbfa674a5	-1.3004347
175	0x3f29963e	0.66244876
176	0xbf22f70e	-0.63658226
177	0x3eb2b46a	0.3490327
178	0x3e8efc92	0.2792707
179	0xbf3f58dd	-0.7474497
180	0x40778672	3.867581
181	0x3fdd8d2d	1.7308708
182	0xc044ab87	-3.0729692
183	0x40299a34	2.6500368
184	0xc0118886	-2.2739577
185	0x404791a0	3.1182632
186	0x403c6164	2.9434443
187	0xc061444e	-3.519794
188	0x4089d7b7	4.3075824
189	0xc080217d	-4.004088
190	0x3fa02abf	1.2513045
191	0xbf056462	-0.52106297
192	0xc0502964	-3.2525263
193	0xbf139584	-0.5765002
194	0xbfdec052	-1.7402442
195	0x3fd4d649	1.6627895
196	0xbf64b24d	-0.89334565
197	0xbe5d5b29	-0.21616806
198	0x3fe843b6	1.8145664
199	0xc0436180	-3.052826
200	0x3f410ad6	0.7540716
201	0xbea26bbe	-0.31722826
202	0xbe78fd5d	-0.243154
203	0x3f8fb345	1.1226584
204	0xbf20f828	-0.62878656
205	0xbe9b6a45	-0.30354515
206	0x3f1e9991	0.61953074
207	0x3e9e8a50	0.309649
208	0xbf2901c8	-0.6601834
209	0x3f1b00c7	0.6054806
210	0xbf7a9840	-0.97888565
211	0x3ec18eae	0.37804168
212	0xbf9ac34f	-1.2090853
213	0xbf03c122	-0.5146657
214	0x3ea65461	0.3248625
215	0x3f2432a5	0.6413978
216	0x3da0411d	0.078249194
217	0x3f68a264	0.9087279
218	0xbe3f21e6	-0.18665275
219	0xbea1712d	-0.3153166
220	0x3f0e8b21	0.55681044
221	0xbeeda014	-0.46411192
222	0x3f851359	1.039653
223	0x3f24d00e	0.64379966
224	0xbf40739b	-0.751764
225	0xbf2980ad	-0.6621197
226	0x3f3c5927	0.73573536
227	0xbf3878c7	-0.7205929
228	0x3dd028bf	0.10164022
229	0x3ea58d7f	0.32334515
230	0x3f12106c	0.5705631
231	0xbeafba33	-0.34321746
232	0x3e64a704	0.22329336
233	0x3f3415b8	0.7034564
234	0xbf65edd2	-0.8981601
235	0xbf67d529	-0.9055963
236	0x3f274990	0.6534662
237	0xbeacd875	-0.33758894
238	0xbed8290b	-0.42218813
239	0x3f3ce1d4	0.73782086
240	0x4055662c	3.334361
241	0xc0234b34	-2.551465
242	0x408593d2	4.1742945
243	0xbfe1b87e	-1.7634428
244	0x40031709	2.048281
245	0xc0353f9b	-2.8320072
246	0xc00b427f	-2.1759336
247	0xc046f31e	-3.1085887
248	0x4020aa6e	2.5104022
249	0x404bf1b5	3.1866276
250	0x3fe4f931	1.7888547
251	0xbf67b35c	-0.90508056
252	0x3e9b2100	0.30298615
253	0xbf464f24	-0.7746451
254	0x3f0ede04	0.5580752
255	0xbfb1495e	-1.3850515

lstm.weight_hh_l0 f4 [40, 10]
0	0x3f4a260d	0.7896431
1	0xbef234a0	-0.47305775
2	0x3eeb0a87	0.4590647
3	0x3f04d3bf	0.518856
4	0x3e270d68	0.16313708
5	0xbf941518	-1.1568937
6	0xbf11c004	-0.5693362
7	0xbf4bb58f	-0.7957391
8	0x3e3f02ea	0.18653455
9	0x3d03cc4e	0.032177262
10	0x3f10027e	0.562538
11	0xbef1aa6f	-0.47200343
12	0x3d6e726d	0.058214594
13	0xbdb7be69	-0.08971865
14	0x3f2b3c0c	0.668885
15	0x3e69ca5e	0.22831103
16	0xbe82e50d	-0.25565377
17	0xbf1aaf7b	-0.6042401
18	0x3f215999	0.6302734
19	0xbf0fafcb	-0.56127614
20	0x3e30e112	0.17273358
21	0xbe6efedc	-0.23339409
22	0x3d1b6e36	0.037946902
23	0xbdce29a5	-0.10066537
24	0x3ecbb3dc	0.3978566
25	0xbe83b1d2	-0.25721604
26	0xbea8bd81	-0.3295708
27	0xbf23406a	-0.63770163
28	0x3f303f93	0.68847007
29	0xbea40b87	-0.32040045
30	0x3e334535	0.17506869
31	0xbe80502b	-0.25061163
32	0x3eb50bb9	0.35360506
33	0xbd364e97	-0.044508543
34	0x3cf29148	0.029610291
35	0xbebe6fd7	-0.37194702
36	0xbd2fb400	-0.04289627
37	0xbef3aab6	-0.4759118
38	0x3ec10ae9	0.37703636
39	0xbd137eea	-0.036009707
40	0x3f26e1d8	0.6518836
41	0xbecd4ff6	-0.40100068
42	0x3ea06df4	0.31333888
43	0x3eb65f4f	0.3561959
44	0x3f98657c	1.190597
45	0xbf8674dc	-1.0504413
46	0xbf0bb259	-0.5456901
47	0xbf82e813	-1.0227073
48	0xbf0010e0	-0.5002575
49	0x3f8674f2	1.0504439
50	0x3ea61d0e	0.32444042
51	0xbde5f692	-0.1122867
52	0x3e9fdafc	0.3122176
53	0x3e4fd5b9	0.20296372
54	0x3f70f9a5	0.9413093
55	0xbe469cad	-0.19395705
56	0xbf3b0ad5	-0.73063403
57	0x3e047704	0.12936026
58	0xbe974351	-0.29543546
59	0x3c946d19	0.018118428
60	0x3f26e714	0.6519635
61	0xbebbac4d	-0.36654893
62	0x3f14f083	0.5817949
63	0x3e6558f4	0.22397214
64	0x3ed28100	0.41114044
65	0x3dbe2846	0.09285025
66	0xbee9af17	-0.45641395
67	0xbebc231e	-0.36745542
68	0x3f2d3af3	0.67668074
69	0xbf7b5296	-0.9817289
70	0xbf69ccc5	-0.9132808
71	0x3f517862	0.81824315
72	0xbf3eb7f4	-0.7449944
73	0xbf342727	-0.7037224
74	0xbf05dd43	-0.52290744
75	0xbe3e298f	-0.18570541
76	0x3f54473c	0.82921195
77	0x3f55e20c	0.83548045
78	0x3f535e4c	0.8256576
79	0x3fa70832	1.3049376
80	0x3d3ea189	0.04654077
81	0xbdfd5151	-0.123690255
82	0xbd9e13c3	-0.07718613
83	0xbe28e472	-0.16493395
84	0xbf15b7cc	-0.58483577
85	0x3e231ec1	0.159297
86	0xbde17e81	-0.11010457
87	0x3f2278e2	0.634657
88	0xbef33e35	-0.47508398
89	0x3ed41d8a	0.41428787
90	0x3f02e933	0.51137084
91	0xbf2ec721	-0.68272597
92	0x3ed66ad7	0.41878387
93	0x3ef12d4e	0.47104877
94	0x403d87b4	2.9614077
95	0x3f1134cd	0.5672119
96	0xbf04e1b5	-0.519069
97	0x3f9cb02a	1.2241261
98	0xc014d3bb	-2.325423
99	0x3e78b18a	0.24286476
100	0x3f3916a3	0.72300166
101	0xbef9843c	-0.487337
102	0x3f01efe4	0.5075667
103	0x3f168f76	0.58812654
104	0x3eb63f7b	0.35595307
105	0x3f02bd91	0.51070505
106	0xbf15eb60	-0.5856228
107	0xbf2e912f	-0.6819028
108	0x3ce62482	0.02809358
109	0xbf03584c	-0.51306605
110	0x3e9e4ecf	0.309195
111	0xbeb298c7	-0.34882185
112	0x3e9a7d21	0.3017359
113	0x3d8d12ca	0.06888349
114	0x3eebe805	0.46075454
115	0x3f0a7e44	0.54098916
116	0xbeba2091	-0.3635297
117	0xbeb360dc	-0.35034835
118	0x3f9b5965	1.2136656
119	0xbf11b325	-0.5691398
120	0x3eaa62dc	0.3327855
121	0xbf0052d7	-0.50126404
122	0x3f0ab567	0.5418305
123	0x3eb8a178	0.3606069
124	0x3f3bba46	0.73331106
125	0x3f2f66e7	0.6851639
126	0xbec97be0	-0.39352322
127	0xbf37be9e	-0.71775234
128	0x3f7eb483	0.9949419
129	0xbef4df49	-0.47826603
130	0x3e5e05e4	0.21681935
131	0xbd0ba037	-0.03408834
132	0x3ef17664	0.47160637
133	0x3e07b9ba	0.13254443
134	0x3ea17a27	0.31538507
135	0x3e801a27	0.25019953
136	0xbe1baed6	-0.15203413
137	0xbf0ad875	-0.5423654
138	0x3f691918	0.91053915
139	0xbf59a933	-0.850238
140	0x3ec042d5	0.3755099
141	0xbeac7638	-0.33683944
142	0x3e83fd36	0.25779122
143	0x3ecb4e78	0.39708304
144	0xc0084a78	-2.1295452
145	0xc01878d7	-2.3823755
146	0xbe914d89	-0.28379467
147	0xc04188d4	-3.0239763
148	0xbf1c928f	-0.6116113
149	0x401e3088	2.471712
150	0x3de6e581	0.11274243
151	0xbf33e98d	-0.70278245
152	0x3e0f6d7d	0.1400661
153	0x3dd0b6af	0.10191094
154	0x3f69e7ed	0.91369516
155	0x4042c06b	3.0429943
156	0xbf07aa20	-0.52993965
157	0x400e4647	2.2230394
158	0xbe134c37	-0.14384542
159	0xc024a0d8	-2.5723171
160	0x3f2d8266	0.677771
161	0xbe2ccbd7	-0.16874634
162	0x3f2162f8	0.6304164
163	0x3ed5ba4e	0.41743702
164	0x3f0385cb	0.51376027
165	0x3f2a8856	0.6661428
166	0xbf67b406	-0.9050907
167	0xbf0ee75a	-0.55821764
168	0x3f7b194e	0.98085487
169	0xbf1f0852	-0.6212207
170	0xbf7e2cd4	-0.9928715
171	0x3f6c951d	0.9241503
172	0xbf285ea0	-0.65769386
173	0xbf8897cc	-1.0671325
174	0xbf153069	-0.58276993
175	0xbecf6559	-0.4050701
176	0x3f7dacd5	0.99091846
177	0x3f116569	0.56795365
178	0x3fa123cf	1.2589053
179	0x3f5d9c08	0.8656621
180	0xbeb616f3	-0.35564384
181	0x3e14444a	0.14479175
182	0xbe49b113	-0.19696455
183	0xbe184d99	-0.14873351
184	0x3f8102f7	1.007903
185	0x3efc34fd	0.49259177
186	0x3d59d614	0.053182676
187	0x3fac18dd	1.3445088
188	0x402c281a	2.6899476
189	0xbe823f97	-0.2543914
190	0x3d78f770	0.06078285
191	0xbf34cc0a	-0.7062384
192	0x3f03a791	0.5142756
193	0x3e41459c	0.1887421
194	0xc0822b4a	-4.0677843
195	0xc0164102	-2.3477178
196	0xbed65aac	-0.41866052
197	0xc0409b7c	-3.00949
198	0x3fd3a4a0	1.6534615
199	0x3f1e82a8	0.61918116
200	0x3f343520	0.7039356
201	0xbefbdeae	-0.4919333
202	0x3f75b5e2	0.95980656
203	0x3f3d63e0	0.7398052
204	0x3f2dbc24	0.67865205
205	0x3e880af6	0.26570863
206	0xbf4d8fed	-0.8029774
207	0xbf408b96	-0.7521299
208	0xbe218259	-0.1577238
209	0xbef8e6ed	-0.48613682
210	0xbf351646	-0.7073711
211	0x3f15768f	0.5838403
212	0xbeafe583	-0.3435479
213	0xbf1452ff	-0.5793914
214	0xbf26ab2f	-0.65104955
215	0xbecd343e	-0.4007892
216	0x3f0324f1	0.51228243
217	0x3f25b8ed	0.647353
218	0xbeda05d0	-0.4258256
219	0x3f34f7ce	0.7069062
220	0x3f224f13	0.6340191
221	0xbf3e682e	-0.74377716
222	0x3f39c313	0.72563285
223	0x3ef03453	0.4691492
224	0x3f20c325	0.62797767
225	0x3eb3fabc	0.35152233
226	0xbf5cec6c	-0.8629825
227	0xbf1b954c	-0.60774684
228	0x3f138b84	0.5763476
229	0xbeb7eb09	-0.35921505
230	0x3f0eedd2	0.55831635
231	0xbf2c3e0d	-0.6728218
232	0x3f1fa693	0.6236355
233	0x3e9b6f26	0.30358237
234	0x3eeda114	0.46411955
235	0x3e6f5566	0.2337242
236	0xbf3b987e	-0.7327956
237	0xbf165075	-0.5871652
238	0x3eddebca	0.43343955
239	0xbedd2e46	-0.43199366
240	0x3efab13d	0.48963347
241	0xbf28750f	-0.6580362
242	0x3eae55d5	0.3404986
243	0x3f27cae8	0.65543985
244	0xc039b145	-2.9014447
245	0xc003b680	-2.058014
246	0xbf3e591b	-0.74354714
247	0xc020b519	-2.5110533
248	0xbec988b1	-0.393621
249	0x3fb19451	1.3873388
250	0x3f0177a7	0.505732
251	0xbf01e72a	-0.50743353
252	0x3ece99de	0.40351766
253	0x3eba91f7	0.36439487
254	0x3d740baf	0.059581455
255	0xbf78dfa7	-0.97216266

lstm.bias_ih_l0 f4 [40]
0	0x3f2fd1b5	0.6867936
1	0x3f0deead	0.55442315
2	0x3e89f5b4	0.2694527
3	0x3e76ef73	0.2411478
4	0x3ff4c5da	1.912288
5	0x3f4e4115	0.8056806
6	0x3ee4b9de	0.44673055
7	0x3eabe9b3	0.33576736
8	0xbf17aeb8	-0.59250975
9	0x40899e4c	4.3005733
10	0x3fd16abd	1.6360699
11	0x3fb30d71	1.3988477
12	0x3fba656e	1.4562204
13	0x3fb027b8	1.3762121
14	0x4070ab88	3.7604694
15	0xbe8b0242	-0.2715016
16	0x3fc88b81	1.5667573
17	0x3e2b37af	0.1672046
18	0xc05282c4	-3.2892313
19	0x3efc4de6	0.49278182
20	0x3f1eefb6	0.6208452
21	0xbf0dd875	-0.5540841
22	0x3f15b443	0.5847818
23	0x3f183297	0.59452194
24	0xbfe48b8b	-1.7855085
25	0x3cdea369	0.02717753
26	0xbf19e66c	-0.6011722
27	0xbf091b9f	-0.5355777
28	0xbe9fd72f	-0.3121886
29	0xbe340c96	-0.17582926
30	0xbf63e58f	-0.89022154
31	0xbeb9b6d1	-0.3627229
32	0xbec87953	-0.39155063
33	0xbeea4dc9	-0.4576247
34	0x3d7c547b	0.061604004
35	0x3f7b7b54	0.9823506
36	0xbf0cd92d	-0.55018884
37	0xbe0b0108	-0.13574612
38	0x3f239353	0.63896674
39	0xbe806782	-0.2507897

lstm.bias_hh_l0 f4 [40]
0	0x3f2fd1b3	0.6867935
1	0x3f0deead	0.55442315
2	0x3e89f5b3	0.26945266
3	0x3e76ef72	0.24114779
4	0x3ff4c5da	1.912288
5	0x3f4e4118	0.80568075
6	0x3ee4b9e0	0.4467306
7	0x3eabe9c1	0.33576778
8	0xbf17aeb4	-0.5925095
9	0x40899e4b	4.300573
10	0x3fd16abd	1.6360699
11	0x3fb30d71	1.3988477
12	0x3fba656e	1.4562204
13	0x3fb027b8	1.3762121
14	0x4070ab87	3.7604692
15	0xbe8b023d	-0.27150145
16	0x3fc88b81	1.5667573
17	0x3e2b37b6	0.16720471
18	0xc05282c5	-3.2892315
19	0x3efc4dca	0.49278098
20	0x3f1eefb6	0.6208452
21	0xbf0dd875	-0.5540841
22	0x3f15b443	0.5847818
23	0x3f183297	0.59452194
24	0xbfe48b8b	-1.7855085
25	0x3cdea398	0.027177617
26	0xbf19e66c	-0.6011722
27	0xbf091b9f	-0.5355777
28	0xbe9fd72f	-0.3121886
29	0xbe340c92	-0.1758292
30	0xbf63e590	-0.8902216
31	0xbeb9b6d1	-0.3627229
32	0xbec87955	-0.3915507
33	0xbeea4dc8	-0.45762467
34	0x3d7c5403	0.061603557
35	0x3f7b7b5c	0.98235106
36	0xbf0cd92b	-0.5501887
37	0xbe0b0102	-0.13574603
38	0x3f239356	0.6389669
39	0xbe80677d	-0.25078955

output_proj.weight f4 [3, 10]
0	0xbf0f8d73	-0.5607521
1	0x3f4946d5	0.78623706
2	0xbf3c5b9c	-0.73577285
3	0xbf4e087d	-0.804817
4	0xbf8ff893	-1.1247734
5	0x3f11ce5a	0.5695549
6	0x3f407d7c	0.75191474
7	0xbfdf7cc1	-1.7459947
8	0x41bdc3d9	23.720629
9	0x3fb0b03a	1.380378
10	0xbf0229d1	-0.50845057
11	0x3f55af90	0.8347101
12	0xbeb5de2a	-0.3552106
13	0xbeba3dc1	-0.3637524
14	0x3eb26c6f	0.34848353
15	0xc016cf7d	-2.356414
16	0x3e968e66	0.29405516
17	0x3f3999c5	0.7250026
18	0xc0858cac	-4.173422
19	0x3ed84e75	0.42247358
20	0x3f81f822	1.0153849
21	0xbfa6f74a	-1.3044217
22	0x3f8b1e4b	1.086862
23	0x3f84c94b	1.037393
24	0x4036e60a	2.8577905
25	0x40bff907	5.999149
26	0xbf5bc0a5	-0.8584083
27	0x41682b8f	14.510634
28	0x3fb33ebd	1.4003521
29	0xc0b1ab8b	-5.5521903

output_proj.bias f4 [3]
0	0xbfdc6937	-1.7219609
1	0xbf160b10	-0.5861063
2	0x3fff982d	1.9968315

exp_avg f4 [3, 10]
0	0x2f648cd7	2.0786516e-10
1	0xaf909f89	-2.6306804e-10
2	0xaf4e42a4	-1.8759266e-10
3	0xaf45954a	-1.7970084e-10
4	0xaee9a38c	-1.0624665e-10
5	0xaf58c8fd	-1.9716491e-10
6	0xaef202fc	-1.1005416e-10
7	0xaf6a244f	-2.1295075e-10
8	0x2f842455	2.4036476e-10
9	0xaf7920ac	-2.2658025e-10
10	0x2b911989	1.0309957e-12
11	0xaad81dc7	-3.838997e-13
12	0xaa7804a7	-2.2028439e-13
13	0xaa80d1b7	-2.2882886e-13
14	0xab46ffbb	-7.069863e-13
15	0xab539b41	-7.5177717e-13
16	0xaa77b209	-2.1999775e-13
17	0xab990e35	-1.0875247e-12
18	0x2b418d8a	6.87638e-13
19	0xab0975df	-4.8835756e-13
20	0x2a3a3050	1.653688e-13
21	0xaa601ffc	-1.9906293e-13
22	0x29b9443b	8.2274865e-14
23	0xaa8d51d9	-2.5103425e-13
24	0x2a9f8a1e	2.8339912e-13
25	0xa9319b46	-3.9436573e-14
26	0xaa47988b	-1.7727675e-13
27	0xaa796826	-2.2151776e-13
28	0x2a5f2fe5	1.9822996e-13
29	0x298ac0f9	6.1619065e-14

exp_avg_sq f4 [3, 10]
0	0x222664de	2.2550594e-18
1	0x2325e68e	8.99349e-18
2	0x2158f328	7.350546e-19
3	0x22a0715d	4.3488115e-18
4	0x22271d77	2.2648319e-18
5	0x230bed41	7.5854456e-18
6	0x214cb903	6.936275e-19
7	0x23005243	6.9563135e-18
8	0x227c617f	3.4203982e-18
9	0x20e0b25b	3.8065102e-19
10	0x1d951a2e	3.946704e-21
11	0x2213b8ad	2.0019981e-18
12	0x232414bd	8.894849e-18
13	0x221373a4	1.9983435e-18
14	0x2372165d	1.3123582e-17
15	0x2272aab1	3.288748e-18
16	0x216ac0e3	7.9537567e-19
17	0x21c8501a	1.357373e-18
18	0x20eb2d20	3.984041e-19
19	0x229a1e39	4.1773783e-18
20	0x189311d4	3.801661e-24
21	0x18830f8e	3.3878413e-24
22	0x1760cd87	7.2637716e-25
23	0x179e4986	1.0229071e-24
24	0x179c7b80	1.01124395e-24
25	0x184249f1	2.5111243e-24
26	0x16133885	1.18924e-25
27	0x18c5b431	5.1105253e-24
28	0x1818bf2c	1.9742057e-24
29	0x183ab536	2.4131425e-24

exp_avg f4 [40, 10]
0	0xabe471b4	-1.6231933e-12
1	0x2a817548	2.2996383e-13
2	0xac3597a3	-2.5805822e-12
3	0xab809d0e	-9.138538e-13
4	0x2b0bcf0c	4.9670055e-13
5	0x2bed8e96	1.6879438e-12
6	0xab903b9a	-1.0248358e-12
7	0x2bfc23e9	1.7915644e-12
8	0x2a4a3d44	1.796246e-13
9	0xac06ad57	-1.9138768e-12
10	0x2d0d1db5	8.021518e-12
11	0xab956457	-1.0614937e-12
12	0x2d4b9f76	1.15746215e-11
13	0x2c968c25	4.2788156e-12
14	0xac28191b	-2.3888172e-12
15	0xad0695aa	-7.65025e-12
16	0x2cacc2c5	4.910158e-12
17	0xad18a7ab	-8.6774294e-12
18	0x2a1be1e3	1.3845136e-13
19	0x2d0eac97	8.110088e-12
20	0xad52adbb	-1.1975694e-11
21	0x2bdfc4f2	1.5899766e-12
22	0xad989fd7	-1.7351382e-11
23	0xace14843	-6.4029073e-12
24	0x2c7ba012	3.5758102e-12
25	0x2d49b5e8	1.14659185e-11
26	0xad01199d	-7.338488e-12
27	0x2d64170d	1.2965418e-11
28	0xaa1dd21d	-1.4017299e-13
29	0xad5677d4	-1.2191099e-11
30	0xad6f138f	-1.358992e-11
31	0x2bfd9b76	1.801988e-12
32	0xadad07d4	-1.96713e-11
33	0xacff8820	-7.262649e-12
34	0x2c8ea057	4.053684e-12
35	0x2d64a997	1.2997956e-11
36	0xad127fa6	-8.327483e-12
37	0x2d8163f6	1.4709994e-11
38	0xaa490f59	-1.7857711e-13
39	0xad72f9a5	-1.381154e-11
40	0xa0ffa09e	-4.3304968e-19
41	0x9f6b7f40	-4.9868444e-20
42	0x2145424e	6.683395e-19
43	0x1ede4318	2.3532914e-20
44	0x9f1c9181	-3.3154643e-20
45	0xa0f059cf	-4.0717012e-19
46	0xa02de4b0	-1.4729336e-19
47	0x20a04d0d	2.7156042e-19
48	0xa1b3cd4f	-1.2183857e-18
49	0x219ea2de	1.0749607e-18
50	0xa21b2b3e	-2.102931e-18
51	0x212b2870	5.799057e-19
52	0x21cc024c	1.3824186e-18
53	0x9fd1b9fa	-8.8822615e-20
54	0x2235d00d	2.4640215e-18
55	0x2178d8c2	8.4312545e-19
56	0x2113ae63	5.0036336e-19
57	0x21faa777	1.6984987e-18
58	0xa20da5f0	-1.919691e-18
59	0x221f3265	2.1575197e-18
60	0xad971e36	-1.7180129e-11
61	0x2c203529	2.2766877e-12
62	0xadda7ab5	-2.4838223e-11
63	0xad216348	-9.173835e-12
64	0x2cb4208c	5.119521e-12
65	0x2d906039	1.6413636e-11
66	0xad391c63	-1.0522336e-11
67	0x2da389d1	1.8592157e-11
68	0xaa8efee0	-2.5401122e-13
69	0xad9945fd	-1.7425167e-11
70	0xa394c833	-1.613098e-17
71	0x21a44899	1.1132289e-18
72	0x23a78521	1.8162559e-17
73	0x202854da	1.4258229e-19
74	0x23183697	8.251496e-18
75	0xa2b787a1	-4.9745852e-18
76	0xa1a160a1	-1.0935362e-18
77	0x2353ea76	1.1487982e-17
78	0xa40eafef	-3.0940363e-17
79	0x24059eda	2.897433e-17
80	0x2f1b6c2a	1.4135595e-10
81	0xada4e993	-1.874837e-11
82	0x2f606818	2.0409663e-10
83	0x2ea5ae37	7.534278e-11
84	0xae38555a	-4.1912564e-11
85	0xaf144787	-1.3485933e-10
86	0x2ebe2758	8.6471885e-11
87	0xaf282fc1	-1.5296477e-10
88	0x2c2c729d	2.4506293e-12
89	0x2f1d3ebe	1.4301357e-10
90	0xa9904719	-6.407218e-14
91	0x289f405e	1.7680461e-14
92	0x293d918f	4.2092682e-14
93	0xa74337a4	-2.709185e-15
94	0x29a92303	7.511181e-14
95	0x28e7bf43	2.5729098e-14
96	0x28897942	1.5262643e-14
97	0x296915ed	5.175541e-14
98	0xa9839379	-5.843151e-14
99	0x2993ec62	6.569117e-14
100	0xa8a8fe07	-1.8761914e-14
101	0x27ba98cf	5.1791046e-15
102	0x285e9082	1.2354811e-14
103	0xa662b7c6	-7.865856e-16
104	0x28c636e1	2.2006216e-14
105	0x2807942b	7.526134e-15
106	0x27a16f4a	4.4807137e-15
107	0x288878d6	1.5151437e-14
108	0xa89a3af9	-1.712301e-14
109	0x28ad8486	1.9264331e-14
110	0xa95aefec	-4.8613823e-14
111	0x27e8284d	6.443663e-15
112	0xa99e0354	-7.017187e-14
113	0xa8e96c5a	-2.5915186e-14
114	0x288201d0	1.4433685e-14
115	0x2950d71a	4.637185e-14
116	0xa905f20f	-2.9741885e-14
117	0x296ce369	5.2599774e-14
118	0xa673d7ee	-8.46002e-16
119	0xa95d6c9a	-4.9166055e-14
120	0x267ef6a4	8.8458213e-16
121	0x24cbd9b9	8.840605e-17
122	0xa6b96353	-1.2863876e-15
123	0xa41e0427	-3.4264306e-17
124	0x2418845e	3.3071865e-17
125	0x265c6c29	7.6474417e-16
126	0x25a94b82	2.9367993e-16
127	0xa623a1b4	-5.6771134e-16
128	0x272c55da	2.3916335e-15
129	0xa716ebd3	-2.0944522e-15
130	0x257fc529	2.2184525e-16
131	0x24bb45db	8.121666e-17
132	0xa605c243	-4.640692e-16
133	0xa3e52852	-2.4845306e-17
134	0x25617653	1.9555729e-16
135	0x25e53d70	3.97668e-16
136	0x25374674	1.589659e-16
137	0xa50376c0	-1.1402673e-16
138	0x268089c8	8.91913e-16
139	0xa659232a	-7.5334655e-16
140	0xa7688e30	-3.2273548e-15
141	0x268053c4	8.904489e-16
142	0x2718ccaa	2.1205186e-15
143	0xa51d4c94	-1.3643525e-16
144	0x27884c51	3.7830325e-15
145	0x26bab5d1	1.2955624e-15
146	0x265d88d7	7.686023e-16
147	0x273bd8b0	2.606893e-15
148	0xa7542042	-2.9438397e-15
149	0x276e7727	3.3093728e-15
150	0xaf78e562	-2.2636962e-10
151	0x2e03ed5a	2.9996762e-11
152	0xafb39ded	-3.2672123e-10
153	0xaf04b0ec	-1.2068185e-10
154	0x2e93e0a7	6.724692e-11
155	0x2f6d66fc	2.1591612e-10
156	0xaf1847f8	-1.3849888e-10
157	0x2f86a528	2.4491809e-10
158	0xac8abf85	-3.943459e-12
159	0xaf7bb058	-2.2890967e-10
160	0x260b75e2	4.8385074e-16
161	0x244516c6	4.2736855e-17
162	0xa61ed2c7	-5.510292e-16
163	0x236fa144	1.2990365e-17
164	0x23df85f0	2.4234433e-17
165	0x25c34f38	3.3880788e-16
166	0x255a0c7f	1.891272e-16
167	0xa5bfd1f6	-3.3275493e-16
168	0x26ab5d10	1.1890733e-15
169	0xa68cb87d	-9.764457e-16
170	0x276852e9	3.2241413e-15
171	0x248c91d7	6.0962384e-17
172	0xa799efd6	-4.272606e-15
173	0xa4e328d7	-9.851474e-17
174	0xa6567cf3	-7.44155e-16
175	0x270db853	1.9667603e-15
176	0x2637cfd4	6.377254e-16
177	0xa71c049e	-2.1651852e-15
178	0x28083ace	7.562268e-15
179	0xa7f6b1d9	-6.847154e-15
180	0x2881c4cb	1.4407222e-14
181	0xa709a262	-1.9100597e-15
182	0x28bb55f9	2.0798455e-14
183	0x280a5948	7.679899e-15
184	0xa79a09a7	-4.275405e-15
185	0xa87795ac	-1.3743709e-14
186	0x281ec7c8	8.8140825e-15
187	0xa88c6a5f	-1.5589253e-14
188	0x259043d3	2.5025978e-16
189	0x28834347	1.4573099e-14
190	0x20cc5a9a	3.46189e-19
191	0x9fe1904e	-9.552994e-20
192	0xa0864048	-2.274302e-19
193	0x1e8a40de	1.4638147e-20
194	0xa0ef90a2	-4.0583885e-19
195	0xa0241fdf	-1.3901886e-19
196	0x9fc2b7ed	-8.2466476e-20
197	0xa0a5120c	-2.796403e-19
198	0x20ba5ca5	3.1570933e-19
199	0xa0d18436	-3.5493467e-19
200	0xa9216a92	-3.5841616e-14
201	0x2852baf0	1.1697877e-14
202	0x295b4750	4.8689622e-14
203	0x279e09cd	4.3864436e-15
204	0x296dce92	5.2803743e-14
205	0x281012d9	7.997693e-15
206	0x28aa408f	1.890179e-14
207	0x28e75630	2.568353e-14
208	0xa9421cd9	-4.3101675e-14
209	0x29896341	6.10124e-14
210	0x27f9cf26	6.9335974e-15
211	0xa7099b60	-1.9096798e-15
212	0xa7a468cb	-4.563276e-15
213	0x25a87d33	2.9228193e-16
214	0xa81237ae	-8.116702e-15
215	0xa747bc04	-2.7718721e-15
216	0xa6ed41da	-1.6463028e-15
217	0xa7c9ba38	-5.5990606e-15
218	0x27e4735e	6.3407794e-15
219	0xa8004db2	-7.122275e-15
220	0x278cab31	3.904341e-15
221	0x25e10bae	3.9039193e-16
222	0xa7d4435d	-5.8914856e-15
223	0xa563b9d6	-1.9752075e-16
224	0x24fd1500	1.09756835e-16
225	0x2779e207	3.4678221e-15
226	0x26b2c2d6	1.2404042e-15
227	0xa732650a	-2.4757236e-15
228	0x2840b2cb	1.0696911e-14
229	0xa82a9de6	-9.4711345e-15
230	0xa73fd87c	-2.6623931e-15
231	0x265532f1	7.396826e-16
232	0x26fb29c6	1.7427946e-15
233	0xa501f279	-1.127112e-16
234	0x27621d57	3.1379706e-15
235	0x269c3cba	1.0841134e-15
236	0x263950c3	6.429422e-16
237	0x271b1504	2.1521964e-15
238	0xa72d7138	-2.4069949e-15
239	0x2743bc75	2.716385e-15
240	0x29185b42	3.3829933e-14
241	0xa8282b2e	-9.3352365e-15
242	0xa8c82eee	-2.2224813e-14
243	0x26ce25f6	1.4304411e-15
244	0xa9329b84	-3.9658828e-14
245	0xa874b94a	-1.3584899e-14
246	0xa8112be6	-8.058636e-15
247	0xa8f6231d	-2.7326714e-14
248	0x290af190	3.0851678e-14
249	0xa91c34cd	-3.4684756e-14
250	0xa184eb00	-9.006872e-19
251	0x2092b674	2.48541e-19
252	0x212ea491	5.9171295e-19
253	0x9f33d8c5	-3.8084032e-20
254	0x219bd1d9	1.0558755e-18
255	0x20d5801d	3.6168382e-19

exp_avg_sq f4 [40, 10]
0	0x1b542b9d	1.7550321e-22
1	0x182df312	2.2482445e-24
2	0x1bf299c9	4.0134923e-22
3	0x1a897eee	5.686694e-23
4	0x199c2b7c	1.6147585e-23
5	0x1b46d6ad	1.6447542e-22
6	0x1aaed6ed	7.2311945e-23
7	0x1b7a6c8b	2.0714587e-22
8	0x17b44051	1.1648463e-24
9	0x1b781a79	2.0522633e-22
10	0x1c2b0d06	5.6595986e-22
11	0x191189e7	7.5241735e-24
12	0x1cbb27fb	1.2384957e-21
13	0x1b5619f3	1.771005e-22
14	0x1a784864	5.1343675e-23
15	0x1c1b5b0c	5.1402873e-22
16	0x1b89c2ff	2.2790762e-22
17	0x1c4885b1	6.634724e-22
18	0x160df7ee	1.1468122e-25
19	0x1c3a44d9	6.163122e-22
20	0x1dc9ec73	5.344874e-21
21	0x1aab5c4d	7.087306e-23
22	0x1e5d1265	1.17034465e-20
23	0x1cfc2ddc	1.6687816e-21
24	0x1c129c30	4.8509215e-22
25	0x1db7990d	4.8597947e-21
26	0x1d221366	2.145055e-21
27	0x1deca57b	6.2639783e-21
28	0x171f7918	5.1528513e-25
29	0x1ddbf389	5.8220627e-21
30	0x1e12219f	7.736128e-21
31	0x1af6e121	1.0210693e-22
32	0x1ea01b2c	1.6951897e-20
33	0x1d36c9c7	2.4191816e-21
34	0x1c5435ff	7.0214704e-22
35	0x1e04dc88	7.033627e-21
36	0x1d6aeb01	3.1091136e-21
37	0x1e2b4664	9.067221e-21
38	0x176d407c	7.666022e-25
39	0x1e1f57d6	8.435554e-21
40	0x15d67946	8.662525e-26
41	0x161d9b37	1.2731336e-25
42	0x16aacce2	2.759428e-25
43	0x155fed51	4.52217e-26
44	0x16042842	1.0675578e-25
45	0x165dc7dc	1.7915302e-25
46	0x140e4ad7	7.1839275e-27
47	0x167e91cd	2.0563963e-25
48	0x155ef71e	4.5027484e-26
49	0x16099c00	1.1115997e-25
50	0x1ff73f94	1.0471375e-19
51	0x1ca64275	1.1002137e-21
52	0x2088309f	2.307147e-19
53	0x1f2241fb	3.4359412e-20
54	0x1e43dc48	1.0368767e-20
55	0x1fdd36d6	9.368786e-20
56	0x1f4b90ce	4.3106702e-20
57	0x200fb570	1.2172604e-19
58	0x19066959	6.9489124e-24
59	0x20066544	1.1383747e-19
60	0x1e36d257	9.678497e-21
61	0x1b18eedd	1.2650326e-22
62	0x1ec86b75	2.1220267e-20
63	0x1d653f89	3.0340745e-21
64	0x1c84eb81	8.795904e-22
65	0x1e26188a	8.793041e-21
66	0x1d933d6a	3.8974077e-21
67	0x1e56406a	1.1342386e-20
68	0x1799bb1e	9.934628e-25
69	0x1e4774b9	1.055911e-20
70	0x1560516d	4.5300673e-26
71	0x15855634	5.3854277e-26
72	0x1430c3fd	8.924381e-27
73	0x14da97f0	2.2072303e-26
74	0x139eecdb	4.0118365e-27
75	0x157c1fa2	5.091595e-26
76	0x14315011	8.952007e-27
77	0x15b222a9	7.194831e-26
78	0x14b607cc	1.8380379e-26
79	0x13270fcf	2.1086158e-27
80	0x1fdb1bcf	9.279611e-20
81	0x1cd8cd5f	1.4346768e-21
82	0x206a1d5e	1.9830288e-19
83	0x1f023780	2.757448e-20
84	0x1e1b049d	8.206586e-21
85	0x1fc76851	8.4452355e-20
86	0x1f29ac42	3.592963e-20
87	0x20006abb	1.0877336e-19
88	0x195ad8e5	1.1314137e-23
89	0x1fe785f0	9.8053886e-20
90	0x1c45fa58	6.5505394e-22
91	0x1b1e8f5e	1.3115778e-22
92	0x1bb59ef3	3.0046657e-22
93	0x1b40bca7	1.5942825e-22
94	0x1a5f3e54	4.6165667e-23
95	0x1908a3a5	7.064083e-24
96	0x1aa329d7	6.7482816e-23
97	0x1c50575b	6.893433e-22
98	0x1cee0b80	1.5752492e-21
99	0x1cb3492e	1.1864143e-21
100	0x13236d37	2.062734e-27
101	0x11ba2c73	2.937302e-28
102	0x12824c73	8.223e-28
103	0x117b4a70	1.9823347e-28
104	0x134fef07	2.6244923e-27
105	0x122b2c8f	5.401301e-28
106	0x11828b4e	2.0596237e-28
107	0x12c8829d	1.2653973e-27
108	0x12eedfa7	1.5075046e-27
109	0x1313bd3f	1.8647314e-27
110	0x15b7c93b	7.42306e-26
111	0x12cd0dce	1.2940722e-27
112	0x1649de8f	1.6306878e-25
113	0x14e9d99f	2.3612824e-26
114	0x14077b38	6.840059e-27
115	0x15a7972b	6.7689264e-26
116	0x1516070f	3.0297827e-26
117	0x15d81954	8.7281666e-26
118	0x118d9e5e	2.234348e-28
119	0x15c9fec6	8.1585215e-26
120	0x1209957e	4.341384e-28
121	0x11d70721	3.3925412e-28
122	0x115a2615	1.7208903e-28
123	0x1195e586	2.364951e-28
124	0x112fafa9	1.3859195e-28
125	0x12065cb8	4.239723e-28
126	0x116560f9	1.8094797e-28
127	0x122f8a62	5.5390833e-28
128	0x123d9413	5.98204e-28
129	0x11c1541c	3.0501867e-28
130	0x12479655	6.2978627e-28
131	0x120bf494	4.416213e-28
132	0x12048ec7	4.1827842e-28
133	0x11ce5e0f	3.2559037e-28
134	0x1151f138	1.6561524e-28
135	0x1228377a	5.3079833e-28
136	0x11849bcb	2.0921943e-28
137	0x12657731	7.2406574e-28
138	0x12e4a713	1.443001e-27
139	0x129722e3	9.53804e-28
140	0x14af39b6	1.7693247e-26
141	0x1559ba87	4.3969945e-26
142	0x15548090	4.2914477e-26
143	0x14aadf5c	1.7253713e-26
144	0x152196e2	3.2632717e-26
145	0x159567fb	6.034467e-26
146	0x13617999	2.8458945e-27
147	0x15908938	5.837763e-26
148	0x141bb264	7.8606815e-27
149	0x14ef5aa9	2.4168592e-26
150	0x23368d7e	9.896202e-18
151	0x2006816f	1.1393067e-19
152	0x23ca22a6	2.1915558e-17
153	0x226c2a40	3.2006331e-18
154	0x218a868f	9.386861e-19
155	0x2324886c	8.919346e-18
156	0x2295bc41	4.0585853e-18
157	0x2354f0e5	1.15435544e-17
158	0x1d0aece4	1.8386618e-21
159	0x234817a0	1.08470245e-17
160	0x12303e3e	5.5612527e-28
161	0x111e14d2	1.2470418e-28
162	0x1237f114	5.804177e-28
163	0x1183cc89	2.079421e-28
164	0x11524363	1.6586844e-28
165	0x1201ddf4	4.09788e-28
166	0x11104bdb	1.1382972e-28
167	0x11b2ec8c	2.8229231e-28
168	0x12f8d6f5	1.5703991e-27
169	0x12c799f6	1.259662e-27
170	0x13f31fc8	6.1373163e-27
171	0x1402160e	6.567672e-27
172	0x140620a4	6.771708e-27
173	0x139a7939	3.89946e-27
174	0x12f761be	1.5611987e-27
175	0x13cb9649	5.1392597e-27
176	0x1318bd2b	1.9278364e-27
177	0x14199324	7.753544e-27
178	0x14071de7	6.8216554e-27
179	0x13bfc5b2	4.841012e-27
180	0x18aee245	4.520642e-24
181	0x16ac266d	2.781235e-25
182	0x19e95268	2.4124919e-23
183	0x179e605b	1.0234834e-24
184	0x194b2ec0	1.0504295e-23
185	0x17bb3bb4	1.2099663e-24
186	0x16ac2c54	2.7816074e-25
187	0x172ef1b5	5.652751e-25
188	0x191718f1	7.811554e-24
189	0x19b4bc38	1.8687585e-23
190	0x1d38acb8	2.444149e-21
191	0x1c278bb9	5.543625e-22
192	0x1c870d91	8.937057e-22
193	0x1c475f26	6.5966553e-22
194	0x1b842aec	2.1865306e-22
195	0x18bbc3f8	4.8536245e-24
196	0x1bb92558	3.0629815e-22
197	0x1d44d6e0	2.6051472e-21
198	0x1dc3a2ec	5.1784527e-21
199	0x1d910d5b	3.839499e-21
200	0x15cc263f	8.2455286e-26
201	0x14d809a2	2.1814226e-26
202	0x1548d947	4.056108e-26
203	0x158e3580	5.743775e-26
204	0x1573295f	4.9106095e-26
205	0x150350b8	2.6518915e-26
206	0x147c976a	1.275261e-26
207	0x14a1d783	1.634185e-26
208	0x14fbc486	2.5422038e-26
209	0x1552539c	4.2475118e-26
210	0x162eaace	1.4109505e-25
211	0x16696c79	1.8855818e-25
212	0x13de72f4	5.615403e-27
213	0x16513ff3	1.6903064e-25
214	0x159a1a4b	6.224159e-26
215	0x16542483	1.7136745e-25
216	0x15af6833	7.0846334e-26
217	0x16730529	1.9631012e-25
218	0x16099090	1.1112388e-25
219	0x13bb7021	4.7316004e-27
220	0x1591168d	5.860061e-26
221	0x14b5b042	1.8345851e-26
222	0x12d79e9e	1.360751e-27
223	0x155a3053	4.406287e-26
224	0x1520cf59	3.247531e-26
225	0x153de45a	3.8348384e-26
226	0x1480ced6	1.300628e-26
227	0x1414b1c3	7.507148e-27
228	0x1426f8d8	8.429934e-27
229	0x132220e4	2.0463491e-27
230	0x15da0794	8.8061455e-26
231	0x152d00d0	3.4937713e-26
232	0x13424ce0	2.4524145e-27
233	0x15d15e7f	8.4563516e-26
234	0x1564c252	4.6197525e-26
235	0x154d1e4b	4.1423317e-26
236	0x1485e87c	1.3521267e-26
237	0x148e3d06	1.4362405e-26
238	0x14b65270	1.840982e-26
239	0x148d7ae6	1.4285837e-26
240	0x18099b0b	1.7785112e-24
241	0x19a484aa	1.7010785e-23
242	0x19b4ed32	1.8707366e-23
243	0x1937177c	9.465621e-24
244	0x199c65e0	1.6171169e-23
245	0x19e2ccaa	2.3450515e-23
246	0x17a0694c	1.0366338e-24
247	0x19a53ce4	1.7085194e-23
248	0x169ad09f	2.50117e-25
249	0x1920a58a	8.3052365e-24
250	0x164b7f90	1.6438461e-25
251	0x170cd896	4.550981e-25
252	0x16cdc609	3.3244514e-25
253	0x166bee42	1.905833e-25
254	0x16ac69ce	2.785487e-25
255	0x171677a7	4.8618637e-25

exp_avg f4 [40, 10]
0	0x9c849cb9	-8.775539e-22
1	0x1c726148	8.0196816e-22
2	0x9cb2f71f	-1.1842931e-21
3	0x9cb40f25	-1.1915316e-21
4	0x29096944	3.0511414e-14
5	0x29022a27	2.890236e-14
6	0x1cb3ade8	1.189018e-21
7	0x29096943	3.051141e-14
8	0x283129f6	9.834573e-15
9	0xa9096944	-3.0511414e-14
10	0x9bfa0c26	-4.1366881e-22
11	0x1bbb31cb	3.0968733e-22
12	0x9b22e776	-1.3475115e-22
13	0x9b28df47	-1.3968779e-22
14	0xaa03c723	-1.1704227e-13
15	0xa9db037b	-9.7261575e-14
16	0x1b1639a2	1.2426331e-22
17	0xaa03c723	-1.1704227e-13
18	0xa5c6bf3a	-3.4477105e-16
19	0x2a03c723	1.1704227e-13
20	0x1ceab8ef	1.5532625e-21
21	0x9c95a8d1	-9.903631e-22
22	0x9c6aaab5	-7.764474e-22
23	0x9c61dcf0	-7.473181e-22
24	0x2b77bc2b	8.8013163e-13
25	0x2b4e1335	7.3212557e-13
26	0x1c8114eb	8.541911e-22
27	0x2b77bc2b	8.8013163e-13
28	0x278f7993	3.9822284e-15
29	0xab77bc2b	-8.8013163e-13
30	0x1d693805	3.0866255e-21
31	0x9d29772d	-2.2428576e-21
32	0x1bc1f55d	3.2087734e-22
33	0x1be0553b	3.711277e-22
34	0x2ba7134c	1.187142e-12
35	0x2b89e9b2	9.799299e-13
36	0x9b82171a	-2.1521625e-22
37	0x2ba7134c	1.187142e-12
38	0x26f90ed7	1.7281868e-15
39	0xaba7134c	-1.187142e-12
40	0x9cf42007	-1.6154844e-21
41	0x1cf7f164	1.6407487e-21
42	0x9cf0ddea	-1.5939231e-21
43	0x9cf0aa6c	-1.5925921e-21
44	0xa0009883	-1.0892484e-19
45	0xa04625cb	-1.6783757e-19
46	0x1cf0b953	1.5929773e-21
47	0xa003b955	-1.1157453e-19
48	0x9ff9f0d9	-1.0585405e-19
49	0x2003ec9b	1.1174418e-19
50	0x989842a4	-3.935837e-24
51	0x186cf1cd	3.0624363e-24
52	0x989ae3d1	-4.0038103e-24
53	0x989b1093	-4.0083297e-24
54	0x9c0db80d	-4.6890867e-22
55	0x9c126d59	-4.8448676e-22
56	0x189b0ed4	4.0081534e-24
57	0x9c0fd82a	-4.7594117e-22
58	0x218de47f	9.615014e-19
59	0x1c0ee645	4.7281475e-22
60	0x1cae161f	1.1520072e-21
61	0x9c811988	-8.543104e-22
62	0x1b41cc4d	1.6030599e-22
63	0x1b4ffda8	1.72046e-22
64	0x2aaf5331	3.114397e-13
65	0x2a95ee00	2.6632863e-13
66	0x9b2ac2f6	-1.4125066e-22
67	0x2aaf5331	3.114397e-13
68	0x26966e2e	1.0438205e-15
69	0xaaaf5331	-3.114397e-13
70	0x1d8fe74c	3.809094e-21
71	0x9d773522	-3.2717647e-21
72	0x1d91fea4	3.8644473e-21
73	0x1d9221e2	3.8680912e-21
74	0xa294265f	-4.0156107e-18
75	0xa2993d0b	-4.1535365e-18
76	0x9d921f6e	-3.8678376e-21
77	0xa293eca8	-4.0095e-18
78	0x22297e98	2.297079e-18
79	0x22940000	4.011548e-18
80	0x200acae7	1.175619e-19
81	0x9fcaa030	-8.5815336e-20
82	0x1eecc420	2.5068587e-20
83	0x1f04e1ba	2.8138804e-20
84	0x2e877923	6.1606074e-11
85	0x2e581730	4.913331e-11
86	0x9eabf54d	-1.8206783e-20
87	0x2e877923	6.1606074e-11
88	0x9e91c9c7	-1.5435925e-20
89	0xae877923	-6.1606074e-11
90	0xa191eb4e	-9.887867e-19
91	0x2161bf32	7.648601e-19
92	0xa193ebd2	-1.0023529e-18
93	0xa1940ea1	-1.0032742e-18
94	0x2193c5ea	1.0013495e-18
95	0xa1620c6d	-7.6588224e-19
96	0x21941060	1.0033205e-18
97	0xa161ee34	-7.6548224e-19
98	0x2904031d	2.9312588e-14
99	0x9ebc13c8	-1.9913456e-20
100	0x9e60442e	-1.18725605e-20
101	0x1e3ea5f1	1.0092832e-20
102	0x9e74428a	-1.2931012e-20
103	0x9e7586ee	-1.2998095e-20
104	0x22a290c5	4.406347e-18
105	0x2297398a	4.0989554e-18
106	0x1e7545f1	1.29846555e-20
107	0x22a1ba10	4.383614e-18
108	0x281abd21	8.589728e-15
109	0xa2a21902	-4.3936666e-18
110	0x9ab9d6c5	-7.6861186e-23
111	0x1a8ba6f1	5.775876e-23
112	0x997fbe00	-1.3221561e-23
113	0x9985baba	-1.3827296e-23
114	0xa89c0adf	-1.7324194e-14
115	0xa888571a	-1.5136807e-14
116	0x19702ce1	1.24167724e-23
117	0xa89c0adf	-1.7324194e-14
118	0x997d5864	-1.3097644e-23
119	0x289c0adf	1.7324194e-14
120	0x99ae891a	-1.8046553e-23
121	0x199781d1	1.5665466e-23
122	0x99c1e9a9	-2.0050107e-23
123	0x99c322f0	-2.0176639e-23
124	0x2309ca2f	7.469599e-18
125	0x22e4ceef	6.2018623e-18
126	0x19c2de51	2.0148923e-23
127	0x2309ca06	7.469565e-18
128	0x2615115c	5.1718286e-16
129	0xa309ca18	-7.46958e-18
130	0x9a0e3f26	-2.9415923e-23
131	0x19fc45ce	2.6084383e-23
132	0x9a20634d	-3.316744e-23
133	0x9a21802b	-3.3397553e-23
134	0x21538f22	7.1679015e-19
135	0x2129a0dd	5.747233e-19
136	0x1a211d18	3.331752e-23
137	0x21538ab4	7.1673153e-19
138	0x25a8ec31	2.9303404e-16
139	0xa1538cac	-7.167576e-19
140	0xa189464b	-9.302087e-19
141	0x216da150	8.051222e-19
142	0xa19433ef	-1.0042617e-18
143	0xa194e227	-1.0088732e-18
144	0x218faad9	9.73528e-19
145	0xa16de6b3	-8.060405e-19
146	0x2194b6cc	1.0077256e-18
147	0xa16d99ac	-8.0502106e-19
148	0x26d4a0f4	1.4754082e-15
149	0x1fda547c	9.246636e-20
150	0xa0f0c02f	-4.0784758e-19
151	0x20b53fce	3.0704815e-19
152	0x9f9c1ba9	-6.611433e-20
153	0x9fa1d3d9	-6.8536625e-20
154	0xaeacd47c	-7.859399e-11
155	0xae9b00c3	-7.048719e-11
156	0x1f976bb3	6.412916e-20
157	0xaeacd47c	-7.859399e-11
158	0x1e324ff7	9.439778e-21
159	0x2eacd47c	7.859399e-11
160	0x98051661	-1.7201146e-24
161	0x17f672aa	1.5926323e-24
162	0x98248860	-2.1265355e-24
163	0x9825c17d	-2.1423437e-24
164	0x23d5c50d	2.317696e-17
165	0x23c4e28c	2.1346309e-17
166	0x18256d08	2.1380797e-24
167	0x23d5c50b	2.3176957e-17
168	0x259c20f7	2.7084024e-16
169	0xa3d5c50c	-2.3176959e-17
170	0x20401b37	1.6272037e-19
171	0xa0296274	-1.4347432e-19
172	0x20427e60	1.6474253e-19
173	0x2042a68a	1.6487542e-19
174	0x27065ad5	1.8645476e-15
175	0x26a6cced	1.1574109e-15
176	0xa042a37e	-1.6486534e-19
177	0x27065fa9	1.8648093e-15
178	0x1ca2502c	1.0740985e-21
179	0xa7065e4d	-1.8647356e-15
180	0x19895979	1.4201606e-23
181	0x994b1bf3	-1.0500498e-23
182	0x1852fff0	2.727108e-24
183	0x18664f1b	2.9766741e-24
184	0x27c570f4	5.480095e-15
185	0x27a19e4f	4.4858115e-15
186	0x982b01f9	-2.2102228e-24
187	0x27c570f4	5.480095e-15
188	0x97bfa7f3	-1.2385482e-24
189	0xa7c570f4	-5.480095e-15
190	0x96ecfbb9	-3.8286716e-25
191	0x16e5c890	3.7123518e-25
192	0x96edba16	-3.8406852e-25
193	0x96edc787	-3.8415335e-25
194	0x9787232d	-8.73305e-25
195	0x97989f61	-9.863003e-25
196	0x16edc63c	3.8414519e-25
197	0x97af286a	-1.1319312e-24
198	0xa03afcb8	-1.583843e-19
199	0x17a32df7	1.0545231e-24
200	0x9b5dae56	-1.8337023e-22
201	0x1b45403c	1.6316213e-22
202	0x9b7c5a73	-2.0874177e-22
203	0x9b7e68e3	-2.1044278e-22
204	0x24bbff07	8.1530356e-17
205	0x24ad58d2	7.517726e-17
206	0x1b7e539d	2.1037404e-22
207	0x24bbfecf	8.1529985e-17
208	0x28c674f6	2.203314e-14
209	0xa4bbfee8	-8.153015e-17
210	0x1bbd84b3	3.1353182e-22
211	0x9b93462a	-2.4364452e-22
212	0x1bc10079	3.1929477e-22
213	0x1bc14184	3.197151e-22
214	0xa3b2622f	-1.9340381e-17
215	0xa3b51b8b	-1.9635724e-17
216	0x9bc1495c	-3.197658e-22
217	0xa3b260db	-1.9339819e-17
218	0xa76270f0	-3.1425024e-15
219	0x23b26174	1.9340072e-17
220	0x195a053e	1.12713945e-23
221	0x99218d6b	-8.352064e-24
222	0x1799c241	9.93643e-25
223	0x179d6422	1.0171164e-24
224	0x27021a90	1.8055524e-15
225	0x26f5f3f9	1.7066419e-15
226	0x97971690	-9.763842e-25
227	0x27021a90	1.8055524e-15
228	0x2624a43b	5.7121504e-16
229	0xa7021a90	-1.8055524e-15
230	0x98a0293d	-4.140067e-24
231	0x1894d8ee	3.8476146e-24
232	0x98bdd4f6	-4.907039e-24
233	0x98bfd40a	-4.9586448e-24
234	0x22d4b846	5.7657822e-18
235	0x22ced7e5	5.6065e-18
236	0x18c02206	4.966519e-24
237	0x22d4b831	5.7657735e-18
238	0x26b0bf77	1.226435e-15
239	0xa2d4b839	-5.765777e-18
240	0x2200ed5e	1.7472896e-18
241	0xa1faac29	-1.6986229e-18
242	0x220238a4	1.764827e-18
243	0x22024d7f	1.7659311e-18
244	0xa1c366f4	-1.3240965e-18
245	0x21fab797	1.6989255e-18
246	0xa20247a9	-1.7656222e-18
247	0x21f9c531	1.6925092e-18
248	0xa88b6546	-1.547602e-14
249	0xa1d4a00f	-1.4408046e-18
250	0x94ba8d06	-1.8836824e-26
251	0x14c0598e	1.9422369e-26
252	0x94e3083b	-2.2924389e-26
253	0x94e5751f	-2.3169287e-26
254	0x14db0948	2.211701e-26
255	0x94c08b67	-1.944203e-26

exp_avg_sq f4 [40, 10]
0	0x12cce83e	1.2931462e-27
1	0x121ddc5c	4.981208e-28
2	0x11ed3de7	3.7430157e-28
3	0x1185a09d	2.1082686e-28
4	0x14133e5d	7.433902e-27
5	0x14028d78	6.5912225e-27
6	0x12975b64	9.551969e-28
7	0x14128730	7.397777e-27
8	0x14911e37	1.4653176e-26
9	0x141060a9	7.289205e-27
10	0x1373303e	3.0694697e-27
11	0x1261360c	7.10641e-28
12	0x12a8b303	1.064642e-27
13	0x127eb0dd	8.036627e-28
14	0x163624b9	1.471343e-25
15	0x160ab273	1.120386e-25
16	0x136eb074	3.0126821e-27
17	0x16362263	1.4712693e-25
18	0x1181548c	2.0404717e-28
19	0x16362f74	1.4716816e-25
20	0x128de6fb	8.955292e-28
21	0x11aec0d9	2.757121e-28
22	0x11ac1abe	2.7153296e-28
23	0x117dea85	2.0030448e-28
24	0x1a24427d	3.3968114e-23
25	0x19f0dc23	2.4904331e-23
26	0x12873dcb	8.534931e-28
27	0x1a244281	3.3968127e-23
28	0x117cfa62	1.995645e-28
29	0x1a24427b	3.3968108e-23
30	0x1319b2ad	1.9399409e-27
31	0x11a61022	2.6200125e-28
32	0x12399e0f	5.857053e-28
33	0x1219aa3f	4.848813e-28
34	0x1a98bd54	6.31716e-23
35	0x1a5a2f2b	4.5119445e-23
36	0x1317a79a	1.9141513e-27
37	0x1a98bd60	6.317168e-23
38	0x11ce36db	3.2534877e-28
39	0x1a98bd49	6.3171533e-23
40	0x132aabea	2.1541777e-27
41	0x11dc7bdf	3.4786221e-28
42	0x12847644	8.359526e-28
43	0x125897dc	6.8344763e-28
44	0x1518fc8b	3.0895377e-26
45	0x1504956c	2.677506e-26
46	0x1329f75d	2.1452758e-27
47	0x150c3382	2.8313407e-26
48	0x151fd60e	3.2278654e-26
49	0x150e17ab	2.8695342e-26
50	0x13efdf9d	6.055258e-27
51	0x13924f90	3.6934036e-27
52	0x13aeb6ee	4.4104158e-27
53	0x13a3623c	4.124385e-27
54	0x1ead4ebc	1.8349651e-20
55	0x1e496536	1.0661781e-20
56	0x14077b6f	6.840101e-27
57	0x1ead4ec1	1.834966e-20
58	0x143c84aa	9.517738e-27
59	0x1ead4ec3	1.8349663e-20
60	0x12f377a4	1.536495e-27
61	0x121e4993	4.9946696e-28
62	0x11ffa2ad	4.0332163e-28
63	0x118cfe59	2.224486e-28
64	0x18c32097	5.0439226e-24
65	0x189d1f5e	4.061522e-24
66	0x12ab0012	1.07916345e-27
67	0x18c3204f	5.043894e-24
68	0x10d5d598	8.434278e-29
69	0x18c31e8d	5.0437167e-24
70	0x129adb80	9.772877e-28
71	0x12802dcf	8.089228e-28
72	0x12922d35	9.22504e-28
73	0x12948229	9.3722e-28
74	0x1287a003	8.559144e-28
75	0x12bfe9b3	1.2111406e-27
76	0x12b6bbbc	1.1532095e-27
77	0x12ed6e41	1.4983982e-27
78	0x12ef1d8e	1.5090306e-27
79	0x13af6100	4.427186e-27
80	0x130554bf	1.6828743e-27
81	0x12959a3c	9.441244e-28
82	0x12c23bcd	1.2257863e-27
83	0x12c35326	1.2326728e-27
84	0x1e8befd6	1.4816391e-20
85	0x1e2f0037	9.264467e-21
86	0x13217bd9	2.0382119e-27
87	0x1e8bf002	1.4816462e-20
88	0x1504f915	2.685368e-26
89	0x1e8beffe	1.4816456e-20
90	0x14235879	8.246845e-27
91	0x140bf31b	7.065651e-27
92	0x14067852	6.789e-27
93	0x14170df0	7.6263005e-27
94	0x1af38a62	1.00726014e-22
95	0x1a8d7dc9	5.851945e-23
96	0x1432bf37	9.024414e-27
97	0x1af38de5	1.0073169e-22
98	0x17331b01	5.7872103e-25
99	0x1af389d2	1.00725105e-22
100	0x1353a2dc	2.671224e-27
101	0x12b4aeb1	1.1402662e-27
102	0x127e97e6	8.0335497e-28
103	0x120ad3dc	4.380626e-28
104	0x12ad31d5	1.0930119e-27
105	0x10e1ea87	8.91082e-29
106	0x1320c49a	2.0291771e-27
107	0x129a815a	9.750654e-28
108	0x120da4ff	4.469513e-28
109	0x128bf290	8.83193e-28
110	0x132df6ad	2.195729e-27
111	0x12c6a645	1.2536545e-27
112	0x1284dc45	8.384672e-28
113	0x121cdb8b	4.949553e-28
114	0x144181e9	9.76963e-27
115	0x14172ea3	7.632749e-27
116	0x1322c9c3	2.054675e-27
117	0x143dc51c	9.5809345e-27
118	0x0f900d3d	1.4204595e-29
119	0x1448e631	1.0142817e-26
120	0x12b5e090	1.1478065e-27
121	0x1234fb6f	5.71079e-28
122	0x11fc77bd	3.9832384e-28
123	0x118e8dde	2.2491082e-28
124	0x121f492f	5.026176e-28
125	0x109c608f	6.167992e-29
126	0x129e7adc	1.0001489e-27
127	0x120a0437	4.3550317e-28
128	0x1006cde3	2.658545e-29
129	0x123afd08	5.9003136e-28
130	0x126a681c	7.3965705e-28
131	0x11d68875	3.3847345e-28
132	0x11a2d5dd	2.5690897e-28
133	0x114b3b9d	1.6032246e-28
134	0x11c02f30	3.032134e-28
135	0x1073c20d	4.807279e-29
136	0x124e6db4	6.513736e-28
137	0x11a22352	2.558086e-28
138	0x10825e9d	5.1421734e-29
139	0x11c8665c	3.161752e-28
140	0x124db7f9	6.491336e-28
141	0x11c67f33	3.1317284e-28
142	0x1192eb2c	2.3179674e-28
143	0x1135c795	1.4339883e-28
144	0x150a4ca4	2.7929337e-26
145	0x14c0037b	1.9388418e-26
146	0x12335092	5.658175e-28
147	0x15088174	2.7567102e-26
148	0x130e493d	1.7959029e-27
149	0x1508ec38	2.7651325e-26
150	0x1322b211	2.0535068e-27
151	0x12e44d4d	1.4407879e-27
152	0x12df5f8c	1.4096833e-27
153	0x12ed4d21	1.49758165e-27
154	0x21a5ab68	1.1226206e-18
155	0x2194088b	1.0031131e-18
156	0x133dc790	2.3953546e-27
157	0x21a5ab68	1.1226206e-18
158	0x14f582b0	2.4790225e-26
159	0x21a5ab68	1.1226206e-18
160	0x1367da06	2.9263793e-27
161	0x12b2d8dd	1.128684e-27
162	0x12839013	8.302779e-28
163	0x120ecaa5	4.505708e-28
164	0x12aed925	1.1034474e-27
165	0x1112d15f	1.1581887e-28
166	0x132dc015	2.1930374e-27
167	0x129d195b	9.914344e-28
168	0x1102ef8c	1.0329008e-28
169	0x12801608	8.083367e-28
170	0x12c12bcc	1.2190809e-27
171	0x12a6c0b2	1.0523576e-27
172	0x12b4d7e9	1.1412823e-27
173	0x12b1e9cd	1.1227907e-27
174	0x12f263c9	1.5296946e-27
175	0x130b9ec9	1.7622554e-27
176	0x12ea399b	1.4781677e-27
177	0x13365aeb	2.3016456e-27
178	0x12a19deb	1.0199458e-27
179	0x136ec16c	3.0135188e-27
180	0x1292b81b	9.259281e-28
181	0x122977c6	5.347463e-28
182	0x12601289	7.0704783e-28
183	0x12636fa1	7.1766163e-28
184	0x14533ea6	1.0665133e-26
185	0x156fbf72	4.841669e-26
186	0x12b071fe	1.1135263e-27
187	0x1653fd96	1.7124462e-25
188	0x18912898	3.752261e-24
189	0x16178463	1.2239457e-25
190	0x13ac32bf	4.3468944e-27
191	0x13a74d32	4.2232847e-27
192	0x1399b06b	3.879659e-27
193	0x13ad6b54	4.3777173e-27
194	0x1a16ab81	3.1157813e-23
195	0x19aee8c0	1.8085185e-23
196	0x13ba348c	4.7004816e-27
197	0x1a16cf80	3.118689e-23
198	0x1b880ee6	2.250894e-22
199	0x1ae3c479	9.420242e-23
200	0x16c53f10	3.1866865e-25
201	0x160074e5	1.0376643e-25
202	0x15ba33d7	7.520659e-26
203	0x15572e83	4.3455595e-26
204	0x160eaf07	1.1525898e-25
205	0x12e3e408	1.4381928e-27
206	0x166a665f	1.8934672e-25
207	0x1606ec13	1.0898926e-25
208	0x15194539	3.095271e-26
209	0x1523fcb2	3.311693e-26
210	0x16e49b01	3.6933208e-25
211	0x1640a601	1.5562018e-25
212	0x16044ca5	1.068706e-25
213	0x159f6068	6.437169e-26
214	0x16346614	1.4572494e-25
215	0x146a1556	1.1818189e-26
216	0x16b456ca	2.913534e-25
217	0x1623c2c7	1.3228496e-25
218	0x1438fdea	9.339702e-27
219	0x1611e2e7	1.1784604e-25
220	0x170936ef	4.4336423e-25
221	0x165988af	1.757225e-25
222	0x161607bf	1.2119348e-25
223	0x15abd328	6.9399496e-26
224	0x1655735e	1.7242406e-25
225	0x143146f3	8.9502086e-27
226	0x16c1c069	3.130226e-25
227	0x1641eb7e	1.5664724e-25
228	0x147eaf69	1.28583164e-26
229	0x16042b14	1.0676468e-25
230	0x171acafa	5.0016276e-25
231	0x1649ea1a	1.631052e-25
232	0x1617b26d	1.2253984e-25
233	0x15a5e39a	6.700206e-26
234	0x1658016b	1.7448788e-25
235	0x139d9c11	3.9786265e-27
236	0x16baea49	3.0197775e-25
237	0x1649f819	1.6314937e-25
238	0x150624d9	2.7090152e-26
239	0x1590e1ca	5.851737e-26
240	0x163bb2b5	1.516213e-25
241	0x158788b0	5.474172e-26
242	0x154e0dce	4.161226e-26
243	0x14f35c3a	2.4573107e-26
244	0x1678289b	2.0046093e-25
245	0x1654a912	1.7178573e-25
246	0x160fb9bb	1.1610054e-25
247	0x1684b3fc	2.1439336e-25
248	0x143a65e6	9.410696e-27
249	0x167eadbc	2.0572778e-25
250	0x15eb5515	9.504998e-26
251	0x1542d145	3.9343073e-26
252	0x15555b77	4.308716e-26
253	0x1533189f	3.6168185e-26
254	0x15bdde29	7.6687e-26
255	0x14af69ab	1.7712163e-26

exp_avg f4 [40]
0	0x2b36e726	6.498017e-13
1	0xac66dbc3	-3.2806958e-12
2	0x2cac0abc	4.8897258e-12
3	0x2cc36b16	5.5541223e-12
4	0x20d1ec4e	3.556235e-19
5	0xa1ba379c	-1.261857e-18
6	0x2cf7192c	7.022957e-12
7	0x2234773a	2.4457667e-18
8	0xae7e24b6	-5.778552e-11
9	0xa92d5754	-3.8489462e-14
10	0xa84b4661	-1.1284025e-14
11	0x28b30500	1.987516e-14
12	0xa6461416	-6.872227e-16
13	0xa5de3c8d	-3.8551892e-16
14	0xa70bab04	-1.9382833e-15
15	0x2ecb863d	9.255217e-11
16	0xa5dd28ec	-3.8365119e-16
17	0xa6daf6d3	-1.5193691e-15
18	0xa7d435ea	-5.8900274e-15
19	0x20758572	2.079646e-19
20	0xa9190917	-3.398071e-14
21	0x27959770	4.1519997e-15
22	0xa757847c	-2.9909064e-15
23	0xa6e9429a	-1.6185675e-15
24	0x28b70c1b	2.0322331e-14
25	0xa11fb16c	-5.410611e-19
26	0x288ca98e	1.5616655e-14
27	0xa2fd42c4	-6.864648e-18
28	0x127759e6	7.8050266e-28
29	0x80000004	-6e-45
30	0x2cd100e9	5.9402383e-12
31	0xac6847d2	-3.3009051e-12
32	0x2ca7a8b5	4.7651557e-12
33	0x2cc75a35	5.665935e-12
34	0x287b0de6	1.3936313e-14
35	0xa2e6bf03	-6.2543866e-18
36	0x2ceee92d	6.7902546e-12
37	0xa6dafaec	-1.5194801e-15
38	0xadce6a30	-2.3466645e-11
39	0x28c4d205	2.1851453e-14

exp_avg_sq f4 [40]
0	0x1a13aba9	3.0537553e-23
1	0x1aeda790	9.8291614e-23
2	0x1c8bc757	9.249777e-22
3	0x1cca84c9	1.3401563e-21
4	0x16700221	1.9387717e-25
5	0x1ead9c4d	1.8381732e-20
6	0x1cfdb02f	1.6787678e-21
7	0x15bb80ef	7.573212e-26
8	0x1e9502cb	1.5777144e-20
9	0x1af72d14	1.02229633e-22
10	0x15a551a8	6.67718e-26
11	0x1575f996	4.9674245e-26
12	0x14d84d19	2.1840836e-26
13	0x149896f1	1.5407614e-26
14	0x157d9670	5.1211617e-26
15	0x21ff37d1	1.7294247e-18
16	0x159d57ed	6.355052e-26
17	0x1488baad	1.3806121e-26
18	0x1897dfab	3.9258432e-24
19	0x1bd48d56	3.5163794e-22
20	0x199ffeae	1.6543079e-23
21	0x1963e31b	1.17814885e-23
22	0x1994ce88	1.5386259e-23
23	0x19d786e0	2.2284955e-23
24	0x19cd0375	2.11979e-23
25	0x180fbe4c	1.8578392e-24
26	0x1a0d38ec	2.9204098e-23
27	0x18f25820	6.2644517e-24
28	0x19802450	1.3249556e-23
29	0x18a759a1	4.325899e-24
30	0x1d292791	2.238742e-21
31	0x1af1f279	1.00067e-22
32	0x1c7a075c	8.2727573e-22
33	0x1cc0cb6c	1.2758078e-21
34	0x183f95ea	2.4761859e-24
35	0x16b443ed	2.9123436e-25
36	0x1ce98a46	1.5454389e-21
37	0x155b4bde	4.4286546e-26
38	0x1da7110c	4.422216e-21
39	0x22428813	2.636394e-18
