results/baseline_lstm_task6_seed42/model_lstm_ntask6_nchar4_seed42.pt (torch, 20863 bytes, 21 tensors)

embedding.weight f4 [4, 10]
0	0xbfef9466	-1.8717163
1	0xbfcbf39c	-1.5933719
2	0xbfaf358a	-1.3688214
3	0x403e0186	2.968843
4	0x3ffd113b	1.9770883
5	0x406e7047	3.7256029
6	0x40aa4ba0	5.3217316
7	0x3f9ee112	1.2412436
8	0x3fbb3d2e	1.4628046
9	0x40a1b499	5.0532956
10	0xc01e411f	-2.4727247
11	0xc0697c56	-3.6482139
12	0x413f9d78	11.9759445
13	0x4063fb65	3.562219
14	0xc0b48725	-5.641497
15	0x3fdbe43d	1.7179028
16	0xbf8a7300	-1.0816345
17	0xbf1370ba	-0.5759388
18	0x4099c5ec	4.8054104
19	0xbf86aaec	-1.0520911
20	0x3f4ad936	0.7923769
21	0x40988d5d	4.7672563
22	0xbf9f435f	-1.2442435
23	0xc04551f7	-3.0831277
24	0x3fa605ed	1.2970558
25	0xc07d8faa	-3.9618936
26	0xc0a78f79	-5.2362638
27	0x405c29fd	3.4400628
28	0x3dc28cd1	0.09499515
29	0xc0a52ff2	-5.1621027
30	0xbfc19174	-1.5122514
31	0xbfd65627	-1.6745042
32	0x3ec13689	0.3773692
33	0xc004362c	-2.0658064
34	0xbfd5de79	-1.6708518
35	0xbee30a91	-0.44344
36	0xbe8e215a	-0.2775982
37	0xbfc446be	-1.5334089
38	0xbf88e3dd	-1.0694538
39	0xbebb9f25	-0.36644855

lstm.weight_ih_l0 f4 [40, 10]
0	0xc01e14a9	-2.470011
1	0xbf34c775	-0.7061685
2	0xbfde7346	-1.7378929
3	0x3f07dc43	0.5307047
4	0xbf66bd85	-0.90132934
5	0x40194d09	2.3953269
6	0x401bafed	2.4326127
7	0xbfa8eab9	-1.3196632
8	0xbf25cdb5	-0.6476701
9	0x400ffb29	2.2497046
10	0xbebd5414	-0.3697821
11	0x3fca3b8d	1.5799423
12	0xc0422a88	-3.033846
13	0xbf5c8146	-0.86134756
14	0x3ed62917	0.41828224
15	0xc026bacf	-2.605152
16	0xbfae4226	-1.3613937
17	0x405671e7	3.350702
18	0x3e8b85a2	0.2725039
19	0xbfa979e6	-1.3240325
20	0x4067739e	3.6164317
21	0x40daee87	6.841617
22	0xc0af0476	-5.4692945
23	0xbeb7743d	-0.3583087
24	0x3ff74433	1.9317688
25	0xc0b5fbdd	-5.686995
26	0xc074e62f	-3.8265493
27	0x40297fdf	2.6484296
28	0x3e827427	0.25479242
29	0xc081300c	-4.037115
30	0xc02b6281	-2.6778872
31	0xc0428d36	-3.0398688
32	0xbd4504da	-0.04810033
33	0xbeda1674	-0.42595255
34	0xbe8210c2	-0.2540341
35	0x3f43d62c	0.76498675
36	0x3d2fa3a2	0.04288066
37	0x3f6c1476	0.9221872
38	0x3f2a388f	0.6649255
39	0x3edaaa0c	0.4270786
40	0xc07490af	-3.8213308
41	0xc0bad04e	-5.837928
42	0x405b2d4b	3.4246395
43	0x407e50ed	3.9736893
44	0xc0489f34	-3.134717
45	0x40036100	2.0527954
46	0x3fa31140	1.2739639
47	0xc019186e	-2.392116
48	0x408afb02	4.3431406
49	0x3f03292b	0.5123469
50	0xc088c284	-4.2737446
51	0xbfbcf1c7	-1.4761285
52	0xbfaac7b5	-1.3342196
53	0xc0429e0b	-3.0408962
54	0x3f229dd8	0.635221
55	0x4077a7a1	3.8696063
56	0x408f9c75	4.4878488
57	0x3f04d27f	0.5188369
58	0xc07257cc	-3.7866087
59	0x4098feb0	4.78109
60	0xbfc73b6c	-1.5565009
61	0xc04fbe1f	-3.245979
62	0x3fe8f6d6	1.8200328
63	0xc0694ccc	-3.6453123
64	0xc05d7cea	-3.4607491
65	0xc0441496	-3.0637565
66	0xc033e91b	-2.8111026
67	0xc04f870d	-3.2426178
68	0xbf492580	-0.78572845
69	0xc03046f9	-2.7543318
70	0x3e86b414	0.26309264
71	0x3fbc5602	1.4713748
72	0xbfced174	-1.615767
73	0x4013c8ec	2.3091383
74	0x400d609e	2.209022
75	0x3fb334eb	1.4000524
76	0x3fd568d6	1.6672618
77	0x3f8f8abb	1.1214212
78	0x3f936d28	1.1517687
79	0x3fda5cfc	1.7059627
80	0xbdccb0af	-0.09994637
81	0xbed887b8	-0.42291045
82	0x3f9e02d3	1.2344612
83	0xc044794c	-3.0699034
84	0xbfee264d	-1.8605438
85	0xc019fda9	-2.4061072
86	0xc0096a8f	-2.1471288
87	0xbfaf702c	-1.3706107
88	0xbf9dfe66	-1.2343261
89	0xbffde52f	-1.9835566
90	0x3f0095ab	0.50228375
91	0xbea87e31	-0.32908776
92	0x401b728b	2.4288661
93	0xc01895e8	-2.3841496
94	0xbfdecd21	-1.740635
95	0xbfe451d6	-1.7837474
96	0xc02f7c2d	-2.741954
97	0x3ea300d0	0.31836557
98	0xbbabeb96	-0.00524659
99	0xc029c8f7	-2.652891
100	0xbee055fc	-0.438156
101	0x3f03d4f3	0.5149681
102	0xc019d376	-2.4035316
103	0x4028ddfb	2.6385486
104	0x3ecb8b87	0.39754888
105	0x405c400c	3.441409
106	0x408c6a13	4.3879485
107	0x3f4eef71	0.8083411
108	0x3f73b6ec	0.9520099
109	0x408cbaf3	4.397821
110	0xbff3930c	-1.902925
111	0xbf916689	-1.1359416
112	0x3fdc9083	1.7231601
113	0xbfbc93e4	-1.4732633
114	0xbfacc110	-1.3496418
115	0xbf8266a6	-1.0187576
116	0xc03b8e4b	-2.9305599
117	0xbfa872a4	-1.3159986
118	0xbea45bcb	-0.32101282
119	0xc08350a0	-4.103592
120	0xbfbe4c15	-1.4866968
121	0xc0a6c4e1	-5.211533
122	0x4032dceb	2.7947338
123	0x403d4c3f	2.9577787
124	0xc00eda43	-2.2320716
125	0x406cc053	3.6992385
126	0x40680dcc	3.625842
127	0xc0c8e63a	-6.278104
128	0x4039ebcd	2.9050171
129	0x40487b7a	3.1325364
130	0xbfccc2df	-1.599697
131	0xbe61e9bf	-0.22061823
132	0xbf9378c9	-1.1521236
133	0xbf01b8fb	-0.5067288
134	0x3ea3739f	0.3192415
135	0x3e1aa9bc	0.15103811
136	0x3eed7f11	0.46386006
137	0x4029cbfc	2.6530752
138	0x3deb1c72	0.11480035
139	0x3f079cb8	0.5297351
140	0x3ffc535f	1.9712943
141	0xbec0fe34	-0.37693942
142	0x406b6bd6	3.6784568
143	0xbe5a4702	-0.2131615
144	0xbfe6fe88	-1.8046427
145	0xc00064fe	-2.006164
146	0xc08a5a0e	-4.323493
147	0xbf9b5cf0	-1.2137737
148	0xbe7cfea8	-0.24706519
149	0xc09da42c	-4.9262905
150	0xbeeb3382	-0.45937735
151	0x3fc0f566	1.507489
152	0xc04de9cf	-3.2173955
153	0xbfab49b6	-1.338187
154	0x3f5379bd	0.8260763
155	0xbfaa9b51	-1.3328649
156	0xbe8ffa89	-0.2812083
157	0x40329b76	2.7907386
158	0xc00e8966	-2.2271361
159	0x3d4917b2	0.049094863
160	0x3fdcece7	1.7259797
161	0x3f90b806	1.130616
162	0xbff6dd3f	-1.9286269
163	0xc01a5931	-2.4116938
164	0x3f636f28	0.88841486
165	0xbfaefd48	-1.3671045
166	0xbfc68e16	-1.5512111
167	0x3fdcfd9f	1.7264899
168	0x3e85bfff	0.26123044
169	0xbfb60d38	-1.4222784
170	0x3fecfd7c	1.8514857
171	0x3f55eccf	0.83564466
172	0x4009a275	2.1505406
173	0xbd858e76	-0.06521313
174	0x3d9c4f3b	0.076322995
175	0xc011e341	-2.2794955
176	0xc00f9bca	-2.2438836
177	0xbf9915a1	-1.1959726
178	0xbc998892	-0.01874188
179	0xc010a0b8	-2.2598095
180	0x3f959cfe	1.1688535
181	0x3fd1db9e	1.6395147
182	0xbfb1270e	-1.3840044
183	0xc00a6266	-2.1622558
184	0x3f7197f4	0.9437249
185	0xbffbbb34	-1.9666505
186	0xbfa8f564	-1.3199887
187	0x3fc2de2c	1.5224051
188	0xc0858116	-4.1720076
189	0xbf894f71	-1.0727369
190	0xbde50269	-0.111821
191	0x3e6237c8	0.22091591
192	0x3fbcab87	1.4739846
193	0xbfc32e59	-1.5248519
194	0xc01f8345	-2.492387
195	0xbfdbc5b1	-1.7169706
196	0xc00ee370	-2.2326317
197	0x3f7a43f5	0.97759944
198	0xbf14d474	-0.5813668
199	0xbfe0e4e9	-1.7569858
200	0xc018f6ac	-2.3900557
201	0xc0195173	-2.3955963
202	0x3fbd8f19	1.4809295
203	0xbb5a50a8	-0.0033312235
204	0xbf76a188	-0.9634023
205	0x4041470b	3.019961
206	0x405a3d4b	3.409991
207	0xbf8ad2da	-1.0845597
208	0xbfc6b454	-1.5523782
209	0x403b4d4a	2.9265924
210	0xbfeae81e	-1.8352087
211	0xc017c925	-2.371652
212	0x3efb29c9	0.49055317
213	0x4045b45b	3.089133
214	0xbfad6656	-1.3546855
215	0x40416c2b	3.022227
216	0x404ff841	3.2495272
217	0xbfa8b37f	-1.3179778
218	0x3f379a46	0.7171978
219	0x404882cd	3.1329834
220	0x3fb71c27	1.4305466
221	0xbe820fd1	-0.25402692
222	0x4008c408	2.1369648
223	0xbf3941d8	-0.72366095
224	0xbe5a2d5d	-0.21306367
225	0xbf316a41	-0.69302756
226	0xc015e942	-2.342362
227	0x3fca83d8	1.5821486
228	0x3fafe022	1.3740275
229	0xbfeec028	-1.8652391
230	0x3dd0bfe6	0.10192852
231	0xbe445645	-0.19173534
232	0xbedf5ec5	-0.4362699
233	0xbfb0da7f	-1.381668
234	0xbf5c323d	-0.8601416
235	0xbf8eeb37	-1.1165532
236	0xbf825495	-1.0182062
237	0x3ea12228	0.31471372
238	0xbf489a2c	-0.7836025
239	0xbf841a4c	-1.0320525
240	0x40137be6	2.3044372
241	0x402b1c10	2.6735878
242	0xc029fa63	-2.6559074
243	0xbfb0f602	-1.3825076
244	0x402afe53	2.6717727
245	0xbf978f68	-1.1840639
246	0xbf5c0540	-0.8594551
247	0x3fbd3360	1.4781303
248	0xbfd55aeb	-1.6668371
249	0xbf63200e	-0.88720787
250	0xbe2a13b1	-0.16609074
251	0x40a80af3	5.2513366
252	0xc0878c1c	-4.235853
253	0xc039bf9c	-2.90232
254	0x40830605	4.094485
255	0x3fc107b3	1.5080475

lstm.weight_hh_l0 f4 [40, 10]
0	0x3fe3635c	1.7764697
1	0x402cc5e1	2.6995776
2	0x4037e9a4	2.8736353
3	0x3d68e992	0.056863375
4	0x401bab01	2.4323123
5	0x3eb4ebc1	0.35336116
6	0xbff484ac	-1.9102988
7	0x3f3bbf42	0.7333871
8	0xbe8e4ee7	-0.27794573
9	0xc02831be	-2.628036
10	0xc10fe56a	-8.993509
11	0xbf733ecc	-0.95017695
12	0xbed471b8	-0.4149301
13	0x4103e609	8.243661
14	0x3fbfa21f	1.497135
15	0xbf3d0ac3	-0.73844546
16	0x3e82e372	0.25564152
17	0xc0fa958b	-7.8307548
18	0x3f853739	1.0407478
19	0x3fac4929	1.3459827
20	0xbfc13c3a	-1.5096505
21	0xc0043603	-2.0657966
22	0xbf08eebd	-0.53489286
23	0x3ef3a12f	0.4758391
24	0xbe9c623b	-0.30543694
25	0xbfa16c7e	-1.2611234
26	0xbfd11ac0	-1.6336288
27	0xc094b821	-4.6474767
28	0xbfd8e5be	-1.6945112
29	0xbf053bde	-0.52044475
30	0x404c6426	3.1936126
31	0xbee49091	-0.44641545
32	0xbe2da090	-0.16955781
33	0xbf6ad54f	-0.91731733
34	0xbf71b0c0	-0.94410324
35	0xbebbaa96	-0.36653584
36	0xbf3240ff	-0.69630426
37	0x40529f7b	3.290984
38	0xbe3f325e	-0.18671557
39	0xbf8a05b0	-1.0782986
40	0x3f87d646	1.0612266
41	0xbf4b870b	-0.79502934
42	0x4081c4da	4.0552797
43	0xbf01e294	-0.50736356
44	0xc04333f4	-3.050046
45	0x402de19c	2.716895
46	0x3f9e00ab	1.2343954
47	0xbf8eadda	-1.1146805
48	0x3ea1d445	0.3160726
49	0xbf969dc5	-1.1766897
50	0x3fa586ab	1.2931722
51	0xbf7e5b0b	-0.9935767
52	0xbf62c76f	-0.8858556
53	0xbf6f6f8f	-0.935296
54	0xbf4c9d29	-0.7992731
55	0x406d1e87	3.7049882
56	0x3db5d706	0.08878903
57	0x3f6cacdb	0.92451257
58	0xbf43995a	-0.7640587
59	0x40875f16	4.230357
60	0xbe8e03d2	-0.2773729
61	0xbfe0e84e	-1.7570894
62	0x3f93ff35	1.1562258
63	0x3f0671dd	0.5251749
64	0xbfeb4ce1	-1.8382837
65	0xbf326b41	-0.69694906
66	0xbfb5dbf2	-1.4207747
67	0xbf2abd72	-0.6669532
68	0xbf7cda97	-0.9877104
69	0xbf02a21f	-0.5102863
70	0x401c2b90	2.4401588
71	0x3da8b195	0.08236996
72	0x3e229dd8	0.15880525
73	0xc050d8bc	-3.2632284
74	0xbf0e0151	-0.5547076
75	0x3e2c59e3	0.16831164
76	0x3f6c7484	0.9236529
77	0x4052806b	3.289088
78	0x3f0e838a	0.5566946
79	0x3ee27f12	0.44237572
80	0xbfafa24f	-1.3721408
81	0xbfb403f2	-1.4063704
82	0xbf7adda7	-0.97994465
83	0xbfd39f20	-1.6532936
84	0xbe6bec5f	-0.23039387
85	0xbfeca19b	-1.8486818
86	0xbff527df	-1.9152793
87	0xbf8c110f	-1.0942706
88	0x40162f95	2.3466542
89	0x3eb0ada7	0.34507486
90	0xbf84e1a8	-1.0381365
91	0xbe189fd6	-0.14904723
92	0x3ed454ff	0.41471097
93	0x3f57af9d	0.8425234
94	0x3d516521	0.051121835
95	0xbc0225f2	-0.007943617
96	0xbfe3fcc5	-1.7811514
97	0xbfb82ad4	-1.438807
98	0xbf2be620	-0.6714802
99	0xbf8db380	-1.1070404
100	0xbff2db50	-1.8973179
101	0xc00ee32e	-2.232616
102	0x3e14662f	0.14492105
103	0x400f6c46	2.2409835
104	0x3ebd64b4	0.36990893
105	0x3fb4fb7c	1.4139247
106	0xbfb29fdc	-1.3955035
107	0xc017956c	-2.368495
108	0x3d2a142c	0.041523144
109	0x3f0e71e2	0.5564252
110	0xbf136533	-0.5757629
111	0x3ed10f0b	0.4083179
112	0x3d88a5b9	0.06672234
113	0xbef81164	-0.48450768
114	0x3f496d5f	0.7868251
115	0x3d95b015	0.073089756
116	0x3dfe97e6	0.12431316
117	0xbed830ed	-0.42224827
118	0x3e7bbdb3	0.24584083
119	0x3fa14719	1.2599822
120	0x3f28de90	0.65964603
121	0xbcb9eac5	-0.022694955
122	0xc03ccecd	-2.950122
123	0xbf00fec9	-0.5038877
124	0x3eedd491	0.46451238
125	0x3e97fc84	0.29684842
126	0xbf62365e	-0.8836421
127	0xbf6b744a	-0.9197432
128	0x3ed59deb	0.41722044
129	0x404c8d5f	3.1961286
130	0x3fa86ac9	1.3157588
131	0xbe921b9d	-0.28536692
132	0xbf7019c0	-0.9378929
133	0x3e17e484	0.14833266
134	0xbfa523bc	-1.290153
135	0xbf52d61a	-0.82357943
136	0xbf3a320c	-0.72732615
137	0x3fdea849	1.7395107
138	0xbf3ff3cb	-0.74981374
139	0xbfc28024	-1.5195355
140	0xbec620c3	-0.3869687
141	0xbf41f1f7	-0.75759834
142	0xbc9e882f	-0.019352047
143	0xbeb3f770	-0.35149717
144	0xbeb4036f	-0.3515887
145	0xbf2ed0cc	-0.6828735
146	0xbf1d64a4	-0.6148169
147	0xbe8062cf	-0.25075385
148	0xbeb9b88d	-0.36273614
149	0xbfcf911c	-1.6216159
150	0xbfe2ebef	-1.7728251
151	0xbf40f2ce	-0.7537049
152	0xbfa7e05d	-1.3115345
153	0x3e85cd7c	0.26133335
154	0xc00e629a	-2.2247682
155	0xbfea8bef	-1.8323954
156	0xbea5cf2a	-0.32384616
157	0xbfabf532	-1.3434203
158	0xbf30b871	-0.69031435
159	0xbea42ac5	-0.3206388
160	0xbf6e5813	-0.9310314
161	0xbe1a4f70	-0.15069366
162	0xbf501934	-0.81288457
163	0x3e9098c0	0.2824154
164	0x3ecd77ff	0.40130612
165	0xbeb8418d	-0.3598751
166	0xbf78d18b	-0.9719474
167	0xbe4185b0	-0.18898654
168	0xbf16a565	-0.5884612
169	0xbfdfb080	-1.7475739
170	0xc0214b40	-2.520218
171	0x3e30c586	0.17262849
172	0x3f58a35e	0.8462428
173	0x3d8e485f	0.069473974
174	0xbf7e3a85	-0.99308044
175	0xbea06bf2	-0.31332356
176	0x3f7adf87	0.97997326
177	0xbfe066ad	-1.7531334
178	0x3f116c04	0.56805444
179	0xbd6c583f	-0.057701346
180	0xc063dd8c	-3.5603971
181	0xc00158a8	-2.0210361
182	0x3f92f7c1	1.1481858
183	0x3fc465a8	1.5343523
184	0xc01616b8	-2.3451366
185	0xbf31358c	-0.6922233
186	0xbf81b503	-1.0133365
187	0xbf631aa0	-0.887125
188	0xbebd1054	-0.3692652
189	0xc000a110	-2.0098305
190	0xc02f94c5	-2.7434552
191	0xbdfade0a	-0.12249382
192	0xbf58b425	-0.8464988
193	0x400db3b9	2.2140944
194	0xbf29ffbb	-0.6640584
195	0x3dd5a7fc	0.10432431
196	0xbf9e698c	-1.237596
197	0xbfe166d2	-1.7609503
198	0xbe91e591	-0.28495458
199	0xbfbbc66a	-1.4669926
200	0xbff153c5	-1.885369
201	0xbe483bdd	-0.19554086
202	0x3f1981d8	0.5996375
203	0x3fe82465	1.8136107
204	0x3ead83a6	0.33889502
205	0x3f8841d9	1.0645095
206	0x3c70f872	0.0147076715
207	0xbf4ee928	-0.8082452
208	0x402495b2	2.5716367
209	0x3f885a7a	1.0652611
210	0x3f68f689	0.9100118
211	0x3ee08c57	0.4385707
212	0x3f62e72d	0.88633996
213	0xbf4e951a	-0.8069626
214	0x3fa3f3d0	1.2808781
215	0x3fdb06dc	1.7111468
216	0xbf241370	-0.6409216
217	0xbf5a572b	-0.8528926
218	0x3ee99f5a	0.45629388
219	0x3f281640	0.6565895
220	0x3ef24cc6	0.47324198
221	0x401478ab	2.319865
222	0xbe171160	-0.14752722
223	0xbe9418a0	-0.28925037
224	0x3fd39ab6	1.6531589
225	0xbe8fc67d	-0.28081122
226	0x3f8bb045	1.0913168
227	0x3e934a0c	0.2876743
228	0xbc3cd2c2	-0.011524858
229	0xbfe4a1ba	-1.7861855
230	0xbfc3ac00	-1.5286865
231	0xc0024159	-2.0352385
232	0xbe0524f4	-0.13002378
233	0x3ef2aada	0.47395974
234	0xbf838578	-1.0275106
235	0xbf205f98	-0.62645864
236	0xbf8a096f	-1.0784129
237	0x3df3c0a4	0.11901978
238	0xbf48284c	-0.7818649
239	0xbc7ed0bf	-0.015552699
240	0x3f4293da	0.76006854
241	0x3f3af24a	0.73025954
242	0x402dc56e	2.7151752
243	0xbe729609	-0.23690046
244	0x3f897113	1.0737633
245	0x3fb19d5b	1.3876146
246	0xbf106fe0	-0.5642071
247	0xbefc9ecc	-0.49339902
248	0x3e87489f	0.26422593
249	0xbfb531f7	-1.4155873
250	0xc06e76f4	-3.7260103
251	0x3deb5622	0.11491038
252	0x3f289234	0.6584809
253	0x3fe534e1	1.7906762
254	0x3fb8170b	1.4382032
255	0xc0266b47	-2.6002977

lstm.bias_ih_l0 f4 [40]
0	0x4009e8fc	2.1548452
1	0xc082c4d7	-4.0865283
2	0xc05ddebf	-3.4667203
3	0x3f50af3a	0.81517375
4	0x3f630e94	0.8869412
5	0xc02b6d76	-2.678556
6	0x3cd6f6da	0.026240755
7	0x3fd65873	1.6745743
8	0x3fae136a	1.3599675
9	0xbf2e6daa	-0.68136084
10	0xbfd61eef	-1.672819
11	0x3ef7de67	0.48411867
12	0xc00393f3	-2.055905
13	0x400b7284	2.1788645
14	0x4019c78d	2.4028046
15	0x400033fa	2.0031724
16	0x403b2647	2.9242113
17	0xbd9f7c0a	-0.077873304
18	0x406281ce	3.5391726
19	0x3f406092	0.75147355
20	0x3fdf7530	1.7457638
21	0xbf4d6db3	-0.8024551
22	0x3e0dc4a7	0.13844548
23	0x3e9ed8d6	0.31024808
24	0x3f8406f4	1.0314622
25	0xc041c8d4	-3.0278826
26	0xc00a92d1	-2.165211
27	0x3f38f692	0.72251236
28	0xbffccd59	-1.9750167
29	0xbf035c1e	-0.51312435
30	0x3fe0ceb6	1.7563083
31	0xc0420a1e	-3.0318675
32	0x3f15c0b3	0.5849716
33	0xc08cb6b0	-4.3973007
34	0x3eec698e	0.46174282
35	0x3f70bf2a	0.94041693
36	0x3ff97b3b	1.9490732
37	0xc02a6a0d	-2.6627228
38	0x3f7c64a8	0.9859109
39	0xbfa62ed2	-1.2983038

lstm.bias_hh_l0 f4 [40]
0	0x4009e8fd	2.1548455
1	0xc082c4d7	-4.0865283
2	0xc05ddebd	-3.4667199
3	0x3f50af36	0.8151735
4	0x3f630e9a	0.88694155
5	0xc02b6d77	-2.6785562
6	0x3cd6f6da	0.026240755
7	0x3fd65872	1.6745741
8	0x3fae1369	1.3599674
9	0xbf2e6dac	-0.68136096
10	0xbfd61ef2	-1.6728194
11	0x3ef7de5b	0.4841183
12	0xc00393f6	-2.0559058
13	0x400b7281	2.1788638
14	0x4019c78c	2.4028044
15	0x400033f8	2.003172
16	0x403b2647	2.9242113
17	0xbd9f7c0a	-0.077873304
18	0x406281ce	3.5391726
19	0x3f406092	0.75147355
20	0x3fdf7532	1.745764
21	0xbf4d6db5	-0.80245525
22	0x3e0dc4a3	0.13844542
23	0x3e9ed8d6	0.31024808
24	0x3f8406f6	1.0314624
25	0xc041c8d4	-3.0278826
26	0xc00a92d1	-2.165211
27	0x3f38f690	0.72251225
28	0xbffccd57	-1.9750165
29	0xbf035c1e	-0.51312435
30	0x3fe0ceba	1.7563088
31	0xc0420a1e	-3.0318675
32	0x3f15c0a8	0.58497095
33	0xc08cb6b1	-4.397301
34	0x3eec6999	0.46174315
35	0x3f70bf25	0.94041663
36	0x3ff97b3b	1.9490732
37	0xc02a6a0d	-2.6627228
38	0x3f7c64a6	0.9859108
39	0xbfa62ed3	-1.298304

output_proj.weight f4 [4, 10]
0	0x403082d6	2.7579856
1	0x40493ea4	3.1444483
2	0xc0dfa032	-6.988305
3	0xc024d0da	-2.5752473
4	0x40e3f72b	7.123922
5	0x40babdb8	5.835659
6	0x40bd599b	5.917188
7	0xbfc4c1b4	-1.5371614
8	0x3ff5db62	1.9207575
9	0x41a3ecc9	20.490618
10	0x3d8a9d90	0.06768334
11	0x3ff3b331	1.903906
12	0xc0b20c04	-5.5639668
13	0xbec8fa29	-0.39253357
14	0x40ff030a	7.969121
15	0x4001c3ee	2.0275836
16	0x403647ee	2.8481402
17	0x40593d51	3.3943675
18	0x409fd688	4.994938
19	0xc0759ccd	-3.8376954
20	0xc0e46afb	-7.138059
21	0xc050961e	-3.2591624
22	0xc0286e4b	-2.6317317
23	0x410d85ae	8.845137
24	0xc0648fd8	-3.5712795
25	0x40000a9b	2.0006473
26	0x402ebc4a	2.7302423
27	0xc1b5b6a6	-22.714184
28	0x407ed6d9	3.9818633
29	0x3faebb46	1.3650901
30	0xc08fb418	-4.490734
31	0x3fac2394	1.3448358
32	0x3fcdfdc1	1.6093065
33	0x414682ff	12.406981
34	0x40173ecf	2.3632085
35	0xbff77dc7	-1.9335259
36	0x3f97825c	1.1836658
37	0xc1b7d1aa	-22.977375
38	0xc05f863a	-3.4925675
39	0x420f87fb	35.882793

output_proj.bias f4 [4]
0	0xc045dc92	-3.0915875
1	0xc0441e0e	-3.0643344
2	0xbd9cb712	-0.076521054
3	0x40af5053	5.478555

exp_avg f4 [4, 10]
0	0x288d1082	1.5661304e-14
1	0xa996ade9	-6.691507e-14
2	0x2a10ab4e	1.2849202e-13
3	0x29244b39	3.648056e-14
4	0xa89f90fb	-1.7715421e-14
5	0x29f87429	1.1033563e-13
6	0x2981d621	5.765896e-14
7	0xaa1fc74a	-1.4191179e-13
8	0xa84fe8d9	-1.1541299e-14
9	0x297c8bee	5.607661e-14
10	0x2b9aaccf	1.0990322e-12
11	0x2a5b27fe	1.9464982e-13
12	0x2b62b5c9	8.0543607e-13
13	0x2a819d7c	2.302428e-13
14	0x2a95ae54	2.658868e-13
15	0xab250660	-5.8628623e-13
16	0xab4eabfd	-7.3424583e-13
17	0xaa483a7a	-1.7783857e-13
18	0x2b368b58	6.4852767e-13
19	0xab8cb6e7	-9.998364e-13
20	0xa961774f	-5.006352e-14
21	0xa81f9c02	-8.860102e-15
22	0xa925369d	-3.668473e-14
23	0xa83da2ec	-1.0526936e-14
24	0xa85a78db	-1.2127637e-14
25	0x28f0917c	2.6708446e-14
26	0x29167c81	3.341468e-14
27	0x2811f255	8.101664e-15
28	0xa9050fd4	-2.954566e-14
29	0x294cff7a	4.551869e-14
30	0x2b608e56	7.9778317e-13
31	0xaab5c07d	-3.2285624e-13
32	0x2bd6c491	1.5260173e-12
33	0x2bff2573	1.8129234e-12
34	0x2aa82715	2.9869914e-13
35	0x2b70d006	8.555382e-13
36	0x29e3433e	1.009249e-13
37	0x2c14c273	2.1140006e-12
38	0x2a9ac75d	2.7494231e-13
39	0x2b1b31f9	5.5136413e-13

exp_avg_sq f4 [4, 10]
0	0x25da2923	3.7844847e-16
1	0x269b8da6	1.0793679e-15
2	0x26aec518	1.2127098e-15
3	0x253c78f7	1.6347385e-16
4	0x2615e190	5.2000454e-16
5	0x25771ce5	2.1433625e-16
6	0x243ed4bb	4.1379872e-17
7	0x26bb660a	1.3003389e-15
8	0x25118557	1.2621922e-16
9	0x241b797c	3.371317e-17
10	0x2b0c9162	4.993975e-13
11	0x2940f2d5	4.2843187e-14
12	0x2728aa4a	2.3406997e-15
13	0x2913cbe3	3.28174e-14
14	0x299b1fba	6.8888864e-14
15	0x2a44b2d3	1.7470339e-13
16	0x2a7889bc	2.2074611e-13
17	0x2643d5dc	6.794405e-16
18	0x26f2813f	1.6827155e-15
19	0x2a632a96	2.0176425e-13
20	0x1fad0381	7.3274147e-20
21	0x2112926d	4.9660517e-19
22	0x21ae203d	1.1799232e-18
23	0x206f0cdb	2.0248341e-19
24	0x21ae94db	1.18301e-18
25	0x1ec6cd38	2.1048942e-20
26	0x200ff686	1.2194139e-19
27	0x21b72f89	1.2413145e-18
28	0x203fc4ca	1.6243441e-19
29	0x20187dc9	1.291652e-19
30	0x1b0f94ab	1.187672e-22
31	0x1b0af09d	1.1492839e-22
32	0x1c1a9d67	5.1157763e-22
33	0x1c976f33	1.0021086e-21
34	0x1c9d84c0	1.0423704e-21
35	0x1cc76fd5	1.3197623e-21
36	0x1cc48922	1.300564e-21
37	0x1bd390a9	3.5000506e-22
38	0x1c4e7b42	6.831899e-22
39	0x1ca9a36b	1.1225724e-21

exp_avg f4 [40, 10]
0	0x29948451	6.5954735e-14
1	0x29a474bf	7.303315e-14
2	0xa894415e	-1.645965e-14
3	0x29cae07d	9.0095445e-14
4	0x29a41807	7.287231e-14
5	0x28ae2ee8	1.9338223e-14
6	0x285a1138	1.2105165e-14
7	0x2996986e	6.6877805e-14
8	0x29520f62	4.664271e-14
9	0x288fef86	1.5980066e-14
10	0x29b28180	7.9272526e-14
11	0x2997f5c9	6.748384e-14
12	0x29828b70	5.797348e-14
13	0xaa0d91ca	-1.2573896e-13
14	0xa9bc8e21	-8.3735326e-14
15	0xaa31a7d9	-1.5778992e-13
16	0xaa7dc466	-2.2539053e-13
17	0xa96cc14e	-5.2570192e-14
18	0xa98b8205	-6.195395e-14
19	0xaa70f77e	-2.1402148e-13
20	0x9e018a52	-6.857807e-21
21	0x9e0f70ad	-7.593658e-21
22	0x1d014f21	1.7113917e-21
23	0x9e30f529	-9.36806e-21
24	0x9e0f206f	-7.577064e-21
25	0x9d17f072	-2.010899e-21
26	0x9cbe3c24	-1.2588691e-21
27	0x9e0359ec	-6.953678e-21
28	0x9db7388a	-4.8498157e-21
29	0x9cfb1e98	-1.6617695e-21
30	0x987f0128	-3.2958561e-24
31	0x98754088	-3.1698088e-24
32	0x17569bf7	6.9343985e-25
33	0x98c20bc8	-5.015972e-24
34	0x988add1a	-3.589542e-24
35	0x97e59623	-1.4836678e-24
36	0x97c451ac	-1.268682e-24
37	0x986969b2	-3.0167907e-24
38	0x9838c73d	-2.3882032e-24
39	0x97e1c16d	-1.4589112e-24
40	0x88576aa7	-6.482458e-34
41	0x89a2bcaa	-3.91775e-33
42	0x08a9eb47	1.0226631e-33
43	0x09531dd8	2.5412234e-33
44	0x88b0a062	-1.06303205e-33
45	0x09876d22	3.2602696e-33
46	0x09b2f4dd	4.308221e-33
47	0x896acc59	-2.826281e-33
48	0x86c8fd1c	-7.560355e-35
49	0x09b06e5e	4.2474248e-33
50	0x28fd888e	2.8147864e-14
51	0x290c5eae	3.1168366e-14
52	0xa7fd2cdc	-7.0270243e-15
53	0x292d2956	3.844957e-14
54	0x290c10b0	3.110072e-14
55	0x2814acff	8.253163e-15
56	0x27ba2aa4	5.16716e-15
57	0x2900897c	2.8540958e-14
58	0x28b348b9	1.990453e-14
59	0x27f5bf07	6.8208273e-15
60	0x135dbec3	2.7988174e-27
61	0x133cc4f5	2.3826043e-27
62	0x13222aa5	2.04683e-27
63	0x93afdca1	-4.4393768e-27
64	0x936a3a9d	-2.956385e-27
65	0x93dcb065	-5.5709746e-27
66	0x941d9e5c	-7.957705e-27
67	0x93130d59	-1.856059e-27
68	0x932d4cfc	-2.1873626e-27
69	0x9415ab02	-7.556303e-27
70	0x18dd2e42	5.717387e-24
71	0x1a26e7c1	3.4515205e-23
72	0x992c4d50	-8.907805e-24
73	0x99d7d6b3	-2.2317195e-23
74	0x1934c6b3	9.345909e-24
75	0x9a0ac8c9	-2.8699924e-23
76	0x9a37920c	-3.796149e-23
77	0x19f10dd7	2.4924406e-23
78	0x176204d0	7.3030613e-25
79	0x9a34f889	-3.7423893e-23
80	0xa384c0de	-1.4393151e-17
81	0xa3c3dbcd	-2.1235032e-17
82	0x24a0bb1c	6.9705915e-17
83	0x23bf3ef5	2.0734925e-17
84	0xa4176dc6	-3.2835887e-17
85	0x233878e5	1.000026e-17
86	0xa2e83577	-6.2940334e-18
87	0xa2775345	-3.3518825e-18
88	0x2400fdb8	2.7970484e-17
89	0xa2e1de23	-6.122157e-18
90	0x97405e07	-6.2157225e-25
91	0x96a57f29	-2.6737437e-25
92	0x97e1877c	-1.4574485e-24
93	0x189ae8c5	4.0043104e-24
94	0x185dc338	2.866214e-24
95	0x188a309d	3.572125e-24
96	0x18bc1689	4.8619616e-24
97	0x18248fe1	2.1269143e-24
98	0x181b5a7b	2.0078961e-24
99	0x18b54a2e	4.6862306e-24
100	0x21334ebd	6.075177e-19
101	0x21468c26	6.7270494e-19
102	0xa032fcc7	-1.5160823e-19
103	0x2174f11d	8.2989526e-19
104	0x21461d16	6.7123504e-19
105	0x20524fcf	1.7814098e-19
106	0x2003a8ed	1.1152024e-19
107	0x2135d07d	6.1601117e-19
108	0x20fd9c75	4.2963402e-19
109	0x202dcc34	1.4721235e-19
110	0x94cc6d57	-2.0641863e-26
111	0x94e25cb4	-2.2856733e-26
112	0x13cc0fab	5.151229e-27
113	0x950ba0cb	-2.819767e-26
114	0x94e1de1c	-2.2806801e-26
115	0x93efc66d	-6.0527745e-27
116	0x93961ab5	-3.789166e-27
117	0x94cf490b	-2.0930469e-26
118	0x949091e6	-1.4597831e-26
119	0x93c6253f	-5.0018954e-27
120	0x2b58944c	7.694442e-13
121	0x2b6fd185	8.5200624e-13
122	0xaa583150	-1.9201763e-13
123	0x2b93eda4	1.0510937e-12
124	0x2b6f4b5f	8.5014455e-13
125	0x2a7e0734	2.2562231e-13
126	0x2a1f0701	1.4124467e-13
127	0x2b5b9b6d	7.8020126e-13
128	0x2b1929fa	5.4414773e-13
129	0x2a51ec92	1.8645006e-13
130	0x225e2b3c	3.0109498e-18
131	0x22a3d689	4.4408386e-18
132	0xa3865735	-1.4565243e-17
133	0xa29fa21b	-4.3268672e-18
134	0x22fd45e8	6.8649804e-18
135	0xa21a115f	-2.0880088e-18
136	0x21c23c8f	1.3161981e-18
137	0x214fd936	7.0421804e-19
138	0xa2d781a3	-5.8413125e-18
139	0x21bcf79f	1.280492e-18
140	0x0cba6c4a	2.8723012e-31
141	0x0cb35e88	2.763621e-31
142	0x0be4926b	8.804271e-32
143	0x8be564e2	-8.8359383e-32
144	0x8b3377d2	-3.456429e-32
145	0x8cbab189	-2.8764688e-31
146	0x8d0ed628	-4.401491e-31
147	0x0abc6fc6	1.8145786e-32
148	0x8b4c03dc	-3.9291874e-32
149	0x8d04e2e1	-4.0948736e-31
150	0x2af48445	4.3434887e-13
151	0x2b076077	4.8095507e-13
152	0xa9f414a5	-1.0839358e-13
153	0x2b270296	5.9333907e-13
154	0x2b0714bc	4.799041e-13
155	0x2a0f65e2	1.2736299e-13
156	0x29b38a6c	7.973209e-14
157	0x2af7ef6e	4.4042152e-13
158	0x2aacebce	3.071696e-13
159	0x29ed00b7	1.0525038e-13
160	0x2a8b5cb5	2.4755688e-13
161	0x2a9a50d5	2.7411984e-13
162	0xa98b1d06	-6.177875e-14
163	0x2abe5fe0	3.3817307e-13
164	0x2a99fa86	2.7352095e-13
165	0x29a37596	7.259052e-14
166	0x294ca87e	4.5443243e-14
167	0x2a8d4f89	2.510182e-13
168	0x2a451cc3	1.7507094e-13
169	0x29871469	5.998745e-14
170	0x9c443327	-6.4917073e-22
171	0x9c2225d4	-5.3650195e-22
172	0x9c2229e1	-5.365543e-22
173	0x1cb7b52a	1.2156754e-21
174	0x1c78657b	8.2187477e-22
175	0x1cd901ba	1.4360302e-21
176	0x1d19de6a	2.0364367e-21
177	0x1c220b8f	5.3616243e-22
178	0x1c35ae73	6.0113347e-22
179	0x1d126e60	1.9380002e-21
180	0x252dea83	1.5084814e-16
181	0x254093ca	1.6703418e-16
182	0xa42d9af1	-3.7644636e-17
183	0x256d939e	2.0606488e-16
184	0x25402815	1.6666926e-16
185	0x244bfcf0	4.4232855e-17
186	0x23ff66db	2.7690716e-17
187	0x25305909	1.5295733e-16
188	0x24f5fc2f	1.0667903e-16
189	0x24289264	3.655319e-17
190	0x186c3531	3.052914e-24
191	0x1882c72c	3.3805325e-24
192	0x976bcd78	-7.6191933e-25
193	0x18a155a9	4.170402e-24
194	0x18827dd7	3.373128e-24
195	0x178a85fe	8.951865e-25
196	0x172d7189	5.6042616e-25
197	0x186f8158	3.0955328e-24
198	0x18270c06	2.1590314e-24
199	0x1764f2b7	7.3977123e-25
200	0x22caf24f	5.5008764e-18
201	0x22e0b90a	6.091124e-18
202	0xa1ca9575	-1.3727613e-18
203	0x230a9de9	7.514434e-18
204	0x22e03b57	6.077815e-18
205	0x21ee09c9	1.6130097e-18
206	0x2195046a	1.0097801e-18
207	0x22cdc8a6	5.5777806e-18
208	0x228f85e0	3.8901973e-18
209	0x21c4b5d4	1.3329606e-18
210	0x1328c4c6	2.1301598e-27
211	0x133ae0aa	2.3587268e-27
212	0x92287792	-5.3158835e-28
213	0x13668b8f	2.9098889e-27
214	0x133a7823	2.3535733e-27
215	0x1245f35c	6.2462203e-28
216	0x11f7d7c0	3.9102695e-28
217	0x132b20dd	2.1599437e-27
218	0x12eeb467	1.5064384e-27
219	0x12239528	5.161758e-28
220	0x1c988f7e	1.0095608e-21
221	0x1ca8ee30	1.1178877e-21
222	0x9b9849c9	-2.5193973e-22
223	0x1cd0677d	1.3791036e-21
224	0x1ca88fb1	1.1154451e-21
225	0x1bb2f09c	2.960312e-22
226	0x1b600a7e	1.8532236e-22
227	0x1c9ab179	1.0236741e-21
228	0x1c57c7cd	7.139577e-22
229	0x1b93df60	2.4463463e-22
230	0x984b9718	-2.6313418e-24
231	0x9894b36b	-3.843827e-24
232	0x196d3c7e	1.2264829e-23
233	0x1887511b	3.4978578e-24
234	0x98e37eb2	-5.8806054e-24
235	0x18057750	1.7250085e-24
236	0x97ae032a	-1.1245285e-24
237	0x9756e6ff	-6.9438687e-25
238	0x18bb202d	4.8370856e-24
239	0x97aa4a04	-1.1004677e-24
240	0x8b6c49c4	-4.5507442e-32
241	0x8b82d235	-5.0390463e-32
242	0x0a6bde22	1.1356617e-32
243	0x8ba163bf	-6.2165025e-32
244	0x8b828904	-5.0280337e-32
245	0x8a8a9273	-1.3344005e-32
246	0x8a2d7f9e	-8.353649e-33
247	0x8b6f9787	-4.6143722e-32
248	0x8b271a09	-3.2182617e-32
249	0x8a6506e0	-1.1027242e-32
250	0x80000004	-6e-45
251	0x80000004	-6e-45
252	0x80000004	-6e-45
253	0x80000004	-6e-45
254	0x80000004	-6e-45
255	0x80000004	-6e-45

exp_avg_sq f4 [40, 10]
0	0x158ad174	5.6068215e-26
1	0x160d686f	1.1422843e-25
2	0x15bff31b	7.752784e-26
3	0x16ae6a39	2.8178252e-25
4	0x15e92e71	9.418122e-26
5	0x16a8bbaf	2.726031e-25
6	0x169970c1	2.478964e-25
7	0x15776dce	4.9967873e-26
8	0x164f7922	1.675955e-25
9	0x16849c15	2.1424252e-25
10	0x25b63550	3.1608093e-16
11	0x24ff292e	1.1065838e-16
12	0x259ba8e5	2.700266e-16
13	0x261164c8	5.0443565e-16
14	0x25b86b8e	3.1991794e-16
15	0x25f5b76d	4.262502e-16
16	0x26bd6452	1.3141701e-15
17	0x259020b4	2.5002179e-16
18	0x25bf38c9	3.3171698e-16
19	0x26add156	1.2061027e-15
20	0x20e9c6d2	3.9603304e-19
21	0x201e21e5	1.3394335e-19
22	0x20ec066a	3.99842e-19
23	0x2144d447	6.668833e-19
24	0x21029259	4.4239403e-19
25	0x2113c0f9	5.0060934e-19
26	0x21ede11d	1.6119332e-18
27	0x20d1afc0	3.552228e-19
28	0x210d997f	4.797581e-19
29	0x21d83b87	1.4652486e-18
30	0x1823f5a1	2.1191267e-24
31	0x18679269	2.9929968e-24
32	0x19430f6a	1.00843766e-23
33	0x18c0cb7d	4.9836307e-24
34	0x18452d08	2.5484388e-24
35	0x18dd5e95	5.7222664e-24
36	0x19619ef4	1.1664328e-23
37	0x181e98ba	2.0498129e-24
38	0x181d93ba	2.0366357e-24
39	0x1952cebd	1.0898496e-23
40	0x247b98a2	5.4556234e-17
41	0x23f642fb	2.669974e-17
42	0x26f4598e	1.6955175e-15
43	0x247fdee7	5.5483116e-17
44	0x2534b4ad	1.5673727e-16
45	0x252ca5e5	1.4974829e-16
46	0x263638b4	6.322078e-16
47	0x24c41f52	8.505451e-17
48	0x253f8f36	1.6615131e-16
49	0x26383447	6.3908673e-16
50	0x16d3e40d	3.423281e-25
51	0x172964c6	5.473404e-25
52	0x19ac4d6c	1.7815654e-23
53	0x172e6169	5.634538e-25
54	0x181fe83c	2.0667517e-24
55	0x173c1598	6.077333e-25
56	0x188a63bd	3.5772874e-24
57	0x17462386	6.4022087e-25
58	0x181a312e	1.9928863e-24
59	0x18890294	3.5416273e-24
60	0x197af578	1.2974269e-23
61	0x17b33f0b	1.1583518e-24
62	0x174cd3ea	6.618343e-25
63	0x1a2aeb3f	3.5345206e-23
64	0x19c4bf5e	2.0343218e-23
65	0x16c2315a	3.1373536e-25
66	0x16cb53c6	3.2849287e-25
67	0x17ed68c5	1.5342214e-24
68	0x19c80e85	2.068538e-23
69	0x16be511f	3.074735e-25
70	0x2661e02d	7.836637e-16
71	0x265345a3	7.3299706e-16
72	0x24c3e161	8.4949576e-17
73	0x25371bd1	1.5882144e-16
74	0x250ece46	1.2386425e-16
75	0x262b2929	5.9383325e-16
76	0x267cb39c	8.767348e-16
77	0x256f80a6	2.0773533e-16
78	0x241717be	3.2763016e-17
79	0x268c7f51	9.748961e-16
80	0x197fc7db	1.32235515e-23
81	0x19cc7891	2.1141802e-23
82	0x18e51238	5.921351e-24
83	0x19b49405	1.8671348e-23
84	0x1991277d	1.5008598e-23
85	0x194bca7d	1.0535746e-23
86	0x199d7ac5	1.6283006e-23
87	0x18d4f8ae	5.5051818e-24
88	0x196d3d66	1.2265012e-23
89	0x19a4b81a	1.703156e-23
90	0x14799559	1.2600741e-26
91	0x14c14ecc	1.95191e-26
92	0x156a1c78	4.7278382e-26
93	0x151c5b92	3.1576185e-26
94	0x1469fe7d	1.1813683e-26
95	0x15d5ec30	8.640265e-26
96	0x15bba031	7.5781436e-26
97	0x14134ede	7.437157e-27
98	0x148241aa	1.3152545e-26
99	0x15e85e49	9.385281e-26
100	0x16680e1f	1.8745267e-25
101	0x1891a399	3.7646813e-24
102	0x192cabb1	8.926864e-24
103	0x16794cd3	2.0138301e-25
104	0x18258892	2.13947e-24
105	0x179fb53f	1.0320887e-24
106	0x185efd80	2.8820812e-24
107	0x18c38533	5.0540815e-24
108	0x17dfe734	1.4469401e-24
109	0x191544aa	7.716986e-24
110	0x17e25dc9	1.4628582e-24
111	0x1889e58e	3.564546e-24
112	0x18e74c33	5.9789042e-24
113	0x18736b9e	3.1461347e-24
114	0x188080dd	3.3217343e-24
115	0x18b67598	4.7164637e-24
116	0x190ce80d	7.284693e-24
117	0x188f28dd	3.7005895e-24
118	0x173ed23d	6.165767e-25
119	0x18b7643a	4.7405594e-24
120	0x19236627	8.447532e-24
121	0x1ae08609	9.2860774e-23
122	0x1aaf5d5c	7.2529134e-23
123	0x1b53fde2	1.7535545e-22
124	0x19b1578c	1.8336731e-23
125	0x1bb39f4c	2.971601e-22
126	0x1b773566	2.0448615e-22
127	0x19cce436	2.118528e-23
128	0x1b57e32a	1.7857784e-22
129	0x1b3df835	1.5713914e-22
130	0x167b0620	2.0277551e-25
131	0x16c2dbfc	3.148122e-25
132	0x16b10c09	2.8603488e-25
133	0x1920ce26	8.3134375e-24
134	0x17ed8cdb	1.5351323e-24
135	0x175a27de	7.048992e-25
136	0x17b8b40f	1.1936174e-24
137	0x16e46d68	3.6904432e-25
138	0x1745a789	6.386559e-25
139	0x17543986	6.85735e-25
140	0x25e2e19f	3.9357637e-16
141	0x2686470d	9.317376e-16
142	0x283463c5	1.0013641e-14
143	0x2690541f	1.0014808e-15
144	0x271e18d0	2.1940356e-15
145	0x255a7a7e	1.8949988e-16
146	0x2512fbed	1.2748837e-16
147	0x251cd9af	1.3604597e-16
148	0x27216a28	2.2400786e-15
149	0x2506b117	1.1682648e-16
150	0x16ba589a	3.0105836e-25
151	0x171af760	5.0072315e-25
152	0x1627ebb9	1.3564534e-25
153	0x17125552	4.7282834e-25
154	0x16d69013	3.4664488e-25
155	0x16383aef	1.4881998e-25
156	0x162057b5	1.2952373e-25
157	0x169f93ef	2.5781195e-25
158	0x1631387e	1.4315772e-25
159	0x1663b2c5	1.8393324e-25
160	0x1db23841	4.7174373e-21
161	0x1e7bfd7d	1.33402495e-20
162	0x1be709b3	3.8222012e-22
163	0x1da0b1d9	4.2535538e-21
164	0x1cb56c7a	1.2005616e-21
165	0x1e4de945	1.0900849e-20
166	0x1e996874	1.6242706e-20
167	0x1e01e000	6.875525e-21
168	0x1baaaefa	2.8237217e-22
169	0x1e966dbd	1.5927254e-20
170	0x159071df	5.8340794e-26
171	0x160416b0	1.0670034e-25
172	0x16c3a52e	3.1608192e-25
173	0x169e36ae	2.5560784e-25
174	0x16285b5e	1.3599762e-25
175	0x16248c6a	1.3292121e-25
176	0x16912346	2.3448274e-25
177	0x15629331	4.575645e-26
178	0x1688de48	2.2112264e-25
179	0x16a037de	2.5884651e-25
180	0x1b03ebc7	1.091225e-22
181	0x1bb4842d	2.9863919e-22
182	0x1ab13bbb	7.3301984e-23
183	0x19c9967a	2.084369e-23
184	0x1b0aa521	1.1468448e-22
185	0x1a50d0b3	4.3181978e-23
186	0x19e1ead1	2.3359296e-23
187	0x18527817	2.7202494e-24
188	0x19ce78bf	2.134867e-23
189	0x1a40ff53	3.991092e-23
190	0x14b50a14	1.8280305e-26
191	0x156abf87	4.7407012e-26
192	0x16829ef9	2.1102959e-25
193	0x1615893d	1.2079429e-25
194	0x159bf1c5	6.2985447e-26
195	0x1592d4f1	5.930489e-26
196	0x15ca7957	8.177859e-26
197	0x1487308e	1.3650668e-26
198	0x15b570d7	7.328335e-26
199	0x1600435c	1.0361013e-25
200	0x1bcc93ab	3.3844397e-22
201	0x1ad6ff15	8.892043e-23
202	0x1b239674	1.3531658e-22
203	0x1b9717b1	2.4996165e-22
204	0x1b8e2e27	2.3521755e-22
205	0x1c0cb7bc	4.6559585e-22
206	0x1cf86241	1.6436661e-21
207	0x16956449	2.4135537e-25
208	0x1ce0867b	1.4857839e-21
209	0x1d240dbf	2.1712326e-21
210	0x18523d18	2.7172708e-24
211	0x191286ac	7.57522e-24
212	0x181bb99b	2.0126987e-24
213	0x16d0786f	3.3680217e-25
214	0x1858bbf8	2.8012246e-24
215	0x17aae686	1.1044185e-24
216	0x1763e1b7	7.363255e-25
217	0x16667701	1.8616803e-25
218	0x17158445	4.8311444e-25
219	0x178e485b	9.1948e-25
220	0x1678b4aa	2.0090288e-25
221	0x17415b2a	6.247673e-25
222	0x17725c4a	7.83109e-25
223	0x17e7339b	1.4941052e-24
224	0x16c4648f	3.172897e-25
225	0x176cb0ee	7.647903e-25
226	0x181213d8	1.8880076e-24
227	0x17057bb1	4.313074e-25
228	0x16e6dc28	3.7297442e-25
229	0x1802e46f	1.6917436e-24
230	0x1a45341e	4.0780745e-23
231	0x1a7a037d	5.1701606e-23
232	0x1b272ce7	1.3828425e-22
233	0x1bab0efd	2.8299263e-22
234	0x1b07304b	1.1182543e-22
235	0x1aae9e68	7.222063e-23
236	0x1b21bcae	1.3378574e-22
237	0x190f5d34	7.411749e-24
238	0x1b56c386	1.7764842e-22
239	0x1b47ab71	1.651629e-22
240	0x19c6f93d	2.0573387e-23
241	0x1ab0dfa8	7.315323e-23
242	0x18de87fc	5.7522964e-24
243	0x19449fae	1.01652096e-23
244	0x19ae95bb	1.8051654e-23
245	0x1a5a470e	4.513874e-23
246	0x1a0f0623	2.9576664e-23
247	0x17422f89	6.274478e-25
248	0x18553545	2.7556499e-24
249	0x1a4e545d	4.266795e-23
250	0x1a1fbfea	3.3035456e-23
251	0x180501f7	1.719084e-24
252	0x1bedb14e	3.9322942e-22
253	0x191af1a1	8.01041e-24
254	0x16ca2559	3.265843e-25
255	0x1994fc04	1.540463e-23

exp_avg f4 [40, 10]
0	0xa38fd3a1	-1.559372e-17
1	0x2926864d	3.6975892e-14
2	0xa9159713	-3.3215682e-14
3	0x9557f860	-4.3614838e-26
4	0x29445145	4.3591233e-14
5	0x23b336c8	1.943042e-17
6	0x23bac3c7	2.0249075e-17
7	0x8f38f862	-9.119737e-30
8	0x23ba029f	2.016727e-17
9	0xa0a520ec	-2.7973873e-19
10	0x1904f0c8	6.8728654e-24
11	0x945fcad6	-1.1298625e-26
12	0x145def1c	1.1204805e-26
13	0x9904f0b2	-6.872848e-24
14	0x9900b02f	-6.653025e-24
15	0x8fe715b9	-2.2786726e-29
16	0x914bf5f2	-1.6089664e-28
17	0x19006773	6.638336e-24
18	0x8fea5713	-2.3107721e-29
19	0x9168bceb	-1.8359788e-28
20	0x1d725a58	3.207514e-21
21	0x9ba81441	-2.7806357e-22
22	0x1d808d9f	3.402775e-21
23	0x0f41eef6	9.561657e-30
24	0x9bbbc5d6	-3.1064403e-22
25	0x9d999e41	-4.0662393e-21
26	0x9d9f8ae0	-4.2230543e-21
27	0x089a3aa7	9.282327e-34
28	0x9d9e6cd6	-4.1934785e-21
29	0x98ad4e21	-4.479834e-24
30	0x15e643d9	9.3003305e-26
31	0x98101c20	-1.8625763e-24
32	0x18091b9e	1.7720778e-24
33	0x06265e4a	3.1290403e-35
34	0x982a96b5	-2.2048073e-24
35	0x95ea68df	-9.4677305e-26
36	0x963cc902	-1.5249946e-25
37	0x02bda7d6	2.7867387e-37
38	0x9607ba08	-1.0963914e-25
39	0x954713ab	-4.0203245e-26
40	0x8419a6e3	-1.8061694e-36
41	0x080eefc0	4.3013395e-34
42	0x88500fde	-6.2611375e-34
43	0x00000003	4e-45
44	0x08782e2a	7.468405e-34
45	0x041a55f8	1.8142088e-36
46	0x04c2904d	4.57417e-36
47	0x00000002	3e-45
48	0x0427ca2b	1.9723587e-36
49	0x043ad63f	2.1962572e-36
50	0xa81d9158	-8.746767e-15
51	0x27cf6ffd	5.757546e-15
52	0xa87defc5	-1.4096313e-14
53	0x206c4187	2.0011659e-19
54	0x27ff4ce3	7.086008e-15
55	0x282baf4a	9.530417e-15
56	0x284f1362	1.1495011e-14
57	0xa04f1e10	-1.7543529e-19
58	0x283fcf73	1.0647613e-14
59	0x23e0cf79	2.4373997e-17
60	0x93041868	-1.6672776e-27
61	0x00000004	6e-45
62	0x80000004	-6e-45
63	0x13041868	1.6672776e-27
64	0x12bcd71f	1.1917499e-27
65	0x00000004	6e-45
66	0x80000004	-6e-45
67	0x92bcd71f	-1.1917499e-27
68	0x00000004	6e-45
69	0x00000004	6e-45
70	0x145523db	1.0760823e-26
71	0x990999b0	-7.113771e-24
72	0x18d4b1d3	5.4980272e-24
73	0x944c3c57	-1.0311268e-26
74	0x990be3a0	-7.2321e-24
75	0x922e860d	-5.506995e-28
76	0x94ec8b26	-2.3884795e-26
77	0x1409c29a	6.955111e-27
78	0x92367f99	-5.758635e-28
79	0x956ae92c	-4.7439864e-26
80	0xa0595b7b	-1.8410883e-19
81	0x00000004	6e-45
82	0x80000004	-6e-45
83	0x20595b7b	1.8410883e-19
84	0x202bffc4	1.4568889e-19
85	0x80001d48	-1.0504e-41
86	0xa2a8edc4	-4.5788235e-18
87	0xa02bffc4	-1.4568889e-19
88	0x1268e262	7.348533e-28
89	0xa2ddc69f	-6.011247e-18
90	0x97a041a1	-1.0356325e-24
91	0x171e348f	5.111889e-25
92	0x971f57a5	-5.1486294e-25
93	0x179ee5af	1.0268491e-24
94	0x17d60241	1.3829995e-24
95	0x14307cb3	8.910322e-27
96	0x14637beb	1.148501e-26
97	0x975e5fea	-7.185313e-25
98	0x14310927	8.938021e-27
99	0x10287684	3.322346e-29
100	0xa0b40aec	-3.0500414e-19
101	0x128bf346	8.832105e-28
102	0xa0b1edd7	-3.0142356e-19
103	0x9280c1c3	-8.125702e-28
104	0x100d9186	2.7919454e-29
105	0x20ddd9a0	3.7582868e-19
106	0x20ecf1d8	4.0139994e-19
107	0x8c844902	-2.038176e-31
108	0x20e7bbba	3.925715e-19
109	0x1c1b224a	5.1329516e-22
110	0x13ff01f3	6.4372972e-27
111	0x939eaa54	-4.0052764e-27
112	0x144bcfd4	1.0289868e-26
113	0x854d3347	-9.648472e-36
114	0x93ccdefa	-5.171671e-27
115	0x9420da37	-8.120971e-27
116	0x9427c37d	-8.469899e-27
117	0x0616dbdd	2.8373394e-35
118	0x94239558	-8.25885e-27
119	0x8f449c1f	-9.693614e-30
120	0xaa76035c	-2.1850355e-13
121	0x2a57f5d1	1.9181121e-13
122	0xaad83f21	-3.8413112e-13
123	0x9c3efa92	-6.318958e-22
124	0x2a78dbd6	2.2103096e-13
125	0x2a9ab5fa	2.7482167e-13
126	0x2aa1ef43	2.8765366e-13
127	0x95d6ec36	-8.6806587e-26
128	0x2aa02fc8	2.8454864e-13
129	0x25b9dc32	3.2241594e-16
130	0xa1b35233	-1.215127e-18
131	0x1d234e20	2.161326e-21
132	0x9d11d613	-1.9301264e-21
133	0x21b35312	1.21515e-18
134	0x21890ec2	9.287387e-19
135	0x9a01b813	-2.682527e-23
136	0x98e2def1	-5.8644744e-24
137	0xa188ade3	-9.261746e-19
138	0x9a0c1440	-2.896768e-23
139	0x1a1440ca	3.065802e-23
140	0x8c043b4b	-1.0186753e-31
141	0x0ba8dc3c	6.504262e-32
142	0x8ba2a3eb	-6.2646767e-32
143	0x0c0439c8	1.0186298e-31
144	0x0c40c32d	1.4849876e-31
145	0x04c2bc30	4.5782004e-36
146	0x04fdff2c	5.9714353e-36
147	0x8bac03cc	-6.6257703e-32
148	0x04d0596e	4.8982693e-36
149	0x00b9568a	1.7020611e-38
150	0xaa7563d7	-2.179501e-13
151	0x1cb54805	1.1996192e-21
152	0xaa7426a2	-2.1684957e-13
153	0x9bbe9a72	-3.153267e-22
154	0x1a99391f	6.33716e-23
155	0x2a854332	2.3672172e-13
156	0x2aa141b2	2.864493e-13
157	0x97196234	-4.9560916e-25
158	0x2a95a791	2.658399e-13
159	0x2630a5f2	6.1287164e-16
160	0xa6c3f348	-1.3596785e-15
161	0x2a0b8a92	1.2393756e-13
162	0xaa0c5c13	-1.2466443e-13
163	0x978a333b	-8.930973e-25
164	0x2a3648d3	1.6190113e-13
165	0x26c9fab7	1.4015133e-15
166	0x270037b4	1.7793765e-15
167	0x93a374c9	-4.1262144e-27
168	0x26cdddc4	1.4284842e-15
169	0x22b4e1a6	4.9028012e-18
170	0x1bfa59d1	4.1417073e-22
171	0x1a0b9bf0	2.8870492e-23
172	0x9a194a5c	-3.1699725e-23
173	0x9bfd3aeb	-4.1893414e-22
174	0x9b99c66a	-2.543995e-22
175	0x18bc5197	4.8679246e-24
176	0x18f1f8aa	6.2548126e-24
177	0x1baf2928	2.8977918e-22
178	0x18d9e134	5.6320582e-24
179	0x149e8024	1.6004466e-26
180	0xa4adf879	-7.544772e-17
181	0x20a74591	2.8336936e-19
182	0xa4adde9f	-7.5403925e-17
183	0x958a97cb	-5.5977243e-26
184	0x20abd577	2.9109786e-19
185	0x24b3d726	7.799335e-17
186	0x24e3b2b5	9.87483e-17
187	0x918eb1e5	-2.2513286e-28
188	0x24b7a3c2	7.9641016e-17
189	0x209e9497	2.686457e-19
190	0x97031636	-4.2356417e-25
191	0x17ae72b3	1.1273441e-24
192	0x97ed7d74	-1.5347435e-24
193	0x8754299f	-1.5961339e-34
194	0x17e1f7bf	1.4602824e-24
195	0x17055a92	4.3088934e-25
196	0x172b6c98	5.5390145e-25
197	0x83e9a0d6	-1.3731435e-36
198	0x1705dc31	4.325254e-25
199	0x12fc0029	1.5903475e-27
200	0xa24bd753	-2.7625622e-18
201	0x13bd3d0d	4.777051e-27
202	0xa248e239	-2.7224816e-18
203	0x9424eb38	-8.326273e-27
204	0x0f112821	7.1567805e-30
205	0x2284c031	3.5982162e-18
206	0x228633bc	3.637555e-18
207	0x89cba88b	-4.902897e-33
208	0x228631cf	3.637351e-18
209	0x1d720d24	3.2035227e-21
210	0x8f49408b	-9.922496e-30
211	0x12a9d25e	1.0717259e-27
212	0x92a9f748	-1.0726359e-27
213	0x810e8979	-2.6179913e-38
214	0x12dd1f4d	1.3954777e-27
215	0x0f7809cc	1.2229231e-29
216	0x0f844cd5	1.30458e-29
217	0x8000144e	-7.284e-42
218	0x0f7bc661	1.2413462e-29
219	0x0ab6f8bf	1.761953e-32
220	0x9c193049	-5.068586e-22
221	0x15a3eeda	6.621202e-26
222	0x9c1736b9	-5.0032436e-22
223	0x8df714a1	-1.52275165e-30
224	0x15c4104d	7.918949e-26
225	0x1c42a3bd	6.440084e-22
226	0x1c49b146	6.673444e-22
227	0x87323598	-1.3406981e-34
228	0x1c48643a	6.630399e-22
229	0x1757d25d	6.9735763e-25
230	0x173f89e5	6.1889476e-25
231	0x87e399f6	-3.4245654e-34
232	0x15816595	5.2262953e-26
233	0x972f5632	-5.6654343e-25
234	0x972f5632	-5.6654343e-25
235	0x95837295	-5.309126e-26
236	0x96ad97bd	-2.8045418e-25
237	0x172f5632	5.6654343e-25
238	0x95953a68	-6.027277e-26
239	0x96a230e7	-2.6203373e-25
240	0x06369036	3.4336345e-35
241	0x8af681cd	-2.3737764e-32
242	0x0aedff1e	2.2918234e-32
243	0x00000000	0.0
244	0x8b1bfea8	-3.0043496e-32
245	0x863739e9	-3.446102e-35
246	0x866f185e	-4.4968806e-35
247	0x80000003	-4e-45
248	0x86450852	-3.7057695e-35
249	0x822e0ec6	-1.2787741e-37
250	0x00000004	6e-45
251	0x80000004	-6e-45
252	0x00000004	6e-45
253	0x00000004	6e-45
254	0x80000004	-6e-45
255	0x80000004	-6e-45

exp_avg_sq f4 [40, 10]
0	0x14635e02	1.1479111e-26
1	0x15d0351c	8.409432e-26
2	0x16091ca0	1.1075804e-25
3	0x15920976	5.898386e-26
4	0x15c84af3	8.0897606e-26
5	0x15753013	4.951528e-26
6	0x1462b70b	1.1446183e-26
7	0x143f58cd	9.6605486e-27
8	0x1400e3c3	6.5072666e-27
9	0x15020fd7	2.6265786e-26
10	0x244ef57b	4.487706e-17
11	0x16ed1a53	3.8306028e-25
12	0x1785cc29	8.646461e-25
13	0x244ef57b	4.487706e-17
14	0x23f014bf	2.6029638e-17
15	0x16d50f1a	3.4421536e-25
16	0x14e22117	2.283322e-26
17	0x23f014bf	2.6029638e-17
18	0x15d05ef0	8.4160316e-26
19	0x1770745c	7.769505e-25
20	0x1df53c4f	6.4913318e-21
21	0x14feffef	2.5748394e-26
22	0x14ce2699	2.0815908e-26
23	0x1df53e54	6.4915406e-21
24	0x1df45c71	6.4681844e-21
25	0x1594855f	5.9987146e-26
26	0x14b498a4	1.8235561e-26
27	0x1df45c75	6.468186e-21
28	0x15b90fe3	7.474597e-26
29	0x15c0e36d	7.7907e-26
30	0x16b97e94	2.9968244e-25
31	0x16d792f5	3.4827866e-25
32	0x17877999	8.754866e-25
33	0x16e1d3ec	3.6484452e-25
34	0x17d71177	1.3898458e-24
35	0x1893265c	3.8037342e-24
36	0x16b0b8ae	2.8550883e-25
37	0x1685e7fe	2.1633717e-25
38	0x18e2b985	5.8606958e-24
39	0x1831cecb	2.2981118e-24
40	0x240ec277	3.095606e-17
41	0x18800b52	3.3098655e-24
42	0x18224afb	2.0975865e-24
43	0x240ec277	3.095606e-17
44	0x23888192	1.4800025e-17
45	0x188666f0	3.474213e-24
46	0x156c9c6c	4.7783216e-26
47	0x23a976f4	1.8373395e-17
48	0x1582faea	5.2902454e-26
49	0x1756163f	6.917521e-25
50	0x1562d1f9	4.5805976e-26
51	0x15282525	3.3956632e-26
52	0x156d3a4a	4.790775e-26
53	0x15a24811	6.554498e-26
54	0x1565e4ab	4.642657e-26
55	0x148b8119	1.4086333e-26
56	0x12cb0835	1.2813124e-27
57	0x153f0401	3.85753e-26
58	0x15235351	3.2983313e-26
59	0x1683c313	2.12873e-25
60	0x1581d6c2	5.2441513e-26
61	0x1987d827	1.4045976e-23
62	0x191fc2a3	8.259414e-24
63	0x17ad363f	1.1193557e-24
64	0x19897ee6	1.4216722e-23
65	0x16bb9cd3	3.031045e-25
66	0x1703a53b	4.2536933e-25
67	0x1556b3df	4.335885e-26
68	0x180d0160	1.8224517e-24
69	0x167bde0d	2.0345685e-25
70	0x24b472ec	7.825724e-17
71	0x15b7ad49	7.418651e-26
72	0x16e49449	3.6928968e-25
73	0x24b472ec	7.825724e-17
74	0x15d31c5e	8.5266977e-26
75	0x162012cd	1.293063e-25
76	0x165ccf01	1.7836777e-25
77	0x24204ed1	3.476123e-17
78	0x16931bbe	2.3766639e-25
79	0x163241ff	1.439955e-25
80	0x17e2d4f2	1.4658663e-24
81	0x1798ad55	9.866525e-25
82	0x192fae6b	9.082511e-24
83	0x190e3a1c	7.352963e-24
84	0x1704ff5c	4.297381e-25
85	0x154537aa	3.9827744e-26
86	0x18c28ec2	5.0291973e-24
87	0x17cd810e	1.3280392e-24
88	0x1807e61d	1.7564519e-24
89	0x17964b7c	9.712578e-25
90	0x15a66004	6.719835e-26
91	0x14558f6b	1.0782036e-26
92	0x131f9175	2.0140337e-27
93	0x15d7f44c	8.722324e-26
94	0x13879284	3.4223267e-27
95	0x13a47db3	4.152337e-27
96	0x12ec8f91	1.4929086e-27
97	0x15bcba88	7.622689e-26
98	0x148d547d	1.4270686e-26
99	0x1402163d	6.5677085e-27
100	0x18161c03	1.9401188e-24
101	0x14a389a8	1.651309e-26
102	0x1591eea4	5.894154e-26
103	0x17db0c5f	1.4155666e-24
104	0x15016025	2.6127187e-26
105	0x1552c46d	4.2564115e-26
106	0x149fb221	1.6125157e-26
107	0x17ba0a56	1.2022577e-24
108	0x15052252	2.688621e-26
109	0x1485cc42	1.3510134e-26
110	0x18832833	3.3903297e-24
111	0x17e5333d	1.4811713e-24
112	0x163af0d5	1.5100954e-25
113	0x1818f07a	1.976695e-24
114	0x15f70f6d	9.9786843e-26
115	0x160fd1ab	1.1617608e-25
116	0x1539dab6	3.7532985e-26
117	0x18447eac	2.539636e-24
118	0x16aef073	2.826296e-25
119	0x1667d755	1.8727978e-25
120	0x180e47f2	1.8389393e-24
121	0x17ef90a7	1.5481528e-24
122	0x1a4218e1	4.0138357e-23
123	0x17587a63	6.994784e-25
124	0x18564459	2.7693358e-24
125	0x1859c0b2	2.8143879e-24
126	0x16ef0b8b	3.8619817e-25
127	0x17094408	4.4352955e-25
128	0x182fe098	2.273161e-24
129	0x1a2aa4b7	3.5288232e-23
130	0x167e72c1	2.0554167e-25
131	0x16918025	2.3506884e-25
132	0x179f026b	1.0275745e-24
133	0x190fa6fa	7.426647e-24
134	0x17faeede	1.621617e-24
135	0x18fa8c9c	6.4765465e-24
136	0x1862f30d	2.9332525e-24
137	0x16a2dc66	2.6311603e-25
138	0x19393eaf	9.576935e-24
139	0x18e48d0d	5.9079044e-24
140	0x1fc3c975	8.2918995e-20
141	0x15997645	6.1982804e-26
142	0x156c058a	4.766419e-26
143	0x1fc3c975	8.2918995e-20
144	0x1f90a785	6.126351e-20
145	0x159e218e	6.386863e-26
146	0x24160586	3.2530744e-17
147	0x1f90a785	6.126351e-20
148	0x16044efe	1.0687801e-25
149	0x24b3d3ba	7.7987554e-17
150	0x15ee1d4c	9.6173657e-26
151	0x1571f50a	4.8862864e-26
152	0x1635792f	1.4659302e-25
153	0x15a5c52f	6.695407e-26
154	0x1535807f	3.6654024e-26
155	0x16044253	1.0683803e-25
156	0x160b63e3	1.1259849e-25
157	0x13e29971	5.7201726e-27
158	0x16689721	1.8788499e-25
159	0x15efe5e0	9.689401e-26
160	0x16b63afa	2.9440905e-25
161	0x18b4dbc4	4.6750816e-24
162	0x19d21cef	2.1725177e-23
163	0x1a388504	3.8157757e-23
164	0x18304575	2.2782534e-24
165	0x18ce8ae3	5.338999e-24
166	0x19b4fde9	1.8714117e-23
167	0x16851aee	2.1504304e-25
168	0x19f043a8	2.4842745e-23
169	0x1c62e14e	7.5068327e-22
170	0x15707836	4.8562444e-26
171	0x14c4d51c	1.9874999e-26
172	0x1697c9b8	2.4522668e-25
173	0x16a5acf4	2.6766336e-25
174	0x14ad7ecf	1.7518553e-26
175	0x14c90979	2.029955e-26
176	0x1564dff1	4.6220892e-26
177	0x160f7687	1.1588849e-25
178	0x14d1f54e	2.1200363e-26
179	0x1602013f	1.050171e-25
180	0x181faafa	2.063659e-24
181	0x16eb6569	3.8030296e-25
182	0x1a437083	4.041594e-23
183	0x1a2e16b7	3.6000706e-23
184	0x18181145	1.9654258e-24
185	0x19355f57	9.3767344e-24
186	0x198a8ccc	1.4325733e-23
187	0x16fb74cd	4.0624949e-25
188	0x1a6aacea	4.8529745e-23
189	0x1a729763	5.0166716e-23
190	0x150dd3b5	2.864173e-26
191	0x13d9e5b3	5.5005002e-27
192	0x15a1ae5c	6.530247e-26
193	0x1557f0d5	4.3608887e-26
194	0x13207f5f	2.0257638e-27
195	0x128ea1a2	9.001305e-28
196	0x1321c691	2.0418958e-27
197	0x1557f97e	4.361572e-26
198	0x15061978	2.7081176e-26
199	0x15756689	4.9558242e-26
200	0x1a016ffa	2.676703e-23
201	0x163ebe43	1.5408114e-25
202	0x17347d9e	5.831969e-25
203	0x1b2c2703	1.4240112e-22
204	0x163bd0c0	1.517161e-25
205	0x164098e1	1.5557877e-25
206	0x153be652	3.794604e-26
207	0x16971866	2.4410763e-25
208	0x1b2a448c	1.4084219e-22
209	0x17094f93	4.4367524e-25
210	0x1744db61	6.360791e-25
211	0x17b50e8a	1.1700521e-24
212	0x1837a34f	2.3734645e-24
213	0x177d041d	8.17539e-25
214	0x178fc79a	9.291545e-25
215	0x1811d2c6	1.8847224e-24
216	0x16961022	2.4243988e-25
217	0x178186a8	8.370422e-25
218	0x182af584	2.2095939e-24
219	0x18968daa	3.8917135e-24
220	0x1700a8b5	4.157197e-25
221	0x174496c2	6.35213e-25
222	0x1716fcd6	4.878674e-25
223	0x17c88feb	1.2961027e-24
224	0x1746da82	6.4253046e-25
225	0x17bec0d6	1.2327141e-24
226	0x1737c16f	5.9374637e-25
227	0x170e2bb6	4.5937846e-25
228	0x183413f6	2.3274532e-24
229	0x17eef468	1.5442086e-24
230	0x1853d655	2.737932e-24
231	0x1702552e	4.2112777e-25
232	0x1b8248ec	2.155382e-22
233	0x1ba987ff	2.804659e-22
234	0x16c1e5e9	3.1325925e-25
235	0x19a324f6	1.6868733e-23
236	0x1b01f1ce	1.0748761e-22
237	0x18b3054b	4.627576e-24
238	0x1a4dbd47	4.2545903e-23
239	0x1afaeeee	1.0378359e-22
240	0x178b179c	8.988624e-25
241	0x179e3bd5	1.0225614e-24
242	0x194228ed	1.003783e-23
243	0x17b9e490	1.2013042e-24
244	0x1742e5b2	6.2974697e-25
245	0x178d7816	9.142225e-25
246	0x1680d06c	2.0811048e-25
247	0x1776c235	7.973201e-25
248	0x1807ba4a	1.7542393e-24
249	0x194c3baf	1.0558606e-23
250	0x178969ac	8.880093e-25
251	0x1703b6d9	4.255917e-25
252	0x17b7daf9	1.1881374e-24
253	0x17eb637c	1.5211632e-24
254	0x1691bd8b	2.3545632e-25
255	0x1857a1a3	2.7869704e-24

exp_avg f4 [40]
0	0xa9446abc	-4.361332e-14
1	0xa93ebd84	-4.2352854e-14
2	0x1dab5282	4.5348634e-21
3	0x18372ae7	2.3673856e-24
4	0x88891482	-8.250209e-34
5	0xa8a7a713	-1.8613181e-14
6	0x92ecf177	-1.495322e-27
7	0x190c67fc	7.25883e-24
8	0x22d6c04a	5.820841e-18
9	0x167a5921	2.0222963e-25
10	0xa0ed2433	-4.0173316e-19
11	0x14872e70	1.3649833e-26
12	0xab0f37a5	-5.088103e-13
13	0xa1b3d7e5	-1.2186659e-18
14	0x8c5bb500	-1.6925614e-31
15	0xaaa1b108	-2.8722185e-13
16	0xaa384fd2	-1.6370176e-13
17	0x1bcccf8c	3.3883093e-22
18	0xa4e602bc	-9.975123e-17
19	0x981c32ea	-2.0188232e-24
20	0xa28633d1	-3.6375636e-18
21	0x92df33fd	-1.4086095e-27
22	0x9c49c475	-6.6759236e-22
23	0x17a8d0f2	1.0909491e-24
24	0x0b1c400b	3.0092688e-32
25	0x00000004	6e-45
26	0x00000004	6e-45
27	0x94d42eac	-2.1424938e-26
28	0x261218bf	5.0687463e-16
29	0x169826a8	2.458132e-25
30	0xaaf0a94a	-4.2750032e-13
31	0x202ff1e3	1.490311e-19
32	0xab4b8756	-7.2307904e-13
33	0xa529762e	-1.4698454e-16
34	0x9d0e2eec	-1.8817802e-21
35	0xaae8263f	-4.1238017e-13
36	0x8ea067f4	-3.954315e-30
37	0x9e42aa0f	-1.0305442e-20
38	0xaadad1f3	-3.887026e-13
39	0xa82d778d	-9.629353e-15
